model.ckpt-8000.pt (torch, 219174 bytes, 36 tensors)

linears.0.weight f4 [64, 2]
00000000: ef45 c5bd 426b ac3e c91d 2ebe 7974 0abe
00000010: b162 00bd 2e78 86be 22ec 583d 9e7a 1bbe
00000020: 9f80 95be 3efa a53e 2b13 38be 9025 70be
00000030: bb51 4e3e ce8b 6c3e 0428 0dbe 6bae 773e
00000040: 2e08 83be 5ca4 293e 7b11 2d3e a917 16be
00000050: cfc0 02be 4a15 b5bc d052 4ebe 1294 e73d
00000060: 961b 113e 20dc c63e 2994 943c 11d3 603e
00000070: 1f52 053e adfc de3c f331 23be bb14 393e
00000080: 85d4 983e 79df a3be b3ec 1e3e 9376 4abe
00000090: 0912 4dbe 210f 5bbe 5b40 93bd e9f1 60be
000000a0: ca8f 86be 8a90 8b3d ed7f 10bd b2b9 a93d
000000b0: 3ba2 4f3e e778 a03e 4b1a 653e 488a 483e
000000c0: b6b2 94bd 45a3 73be b40c 01be 1aaf 573e
000000d0: 99a1 0fbe 85f7 66bd 62d5 20be d1cd 3b3e
000000e0: 3ee3 84be 4488 72be 36c2 f33d 9712 56be
000000f0: feb7 3e3e 243a c7be b380 96bc 2ade 9a3e
00000100: b75f 8d3e 8fdf ed3d 21b5 8cbc ed8b 353e
00000110: 8a5b 863e 1a9e 683e cee0 fe3c e867 95be
00000120: 1df6 813e 8777 033e e15e ac3c b8a4 753e
00000130: c683 8d3e 8f5e 3a3e b0c7 553d 1741 68be
00000140: d526 8c3e 60aa 36bd 4c17 9a3d 570c 2fbe
00000150: 9f18 1f3e 1430 053e 9bf7 8d3e 8bb5 9e3e
00000160: e99c a03e 3a34 32be 189e 66ba b061 96be
00000170: 3eca 0abe a23e 82be 0759 1bbc 0e70 963e
00000180: d460 b03e 1a92 90be a528 2c3c 7663 63be
00000190: d386 8fbd 3581 1e3e 3116 2a3e aa4f 93be
000001a0: 11e6 943e a313 2b3d fbb5 22be 41cc 6f3d
000001b0: 6236 b9be 53a4 a73d 9020 7cbe 75b3 abbd
000001c0: 92cd 813e 7ddd 943e 6839 1f3e 4be8 933e
000001d0: 13b8 243d 247c 07be 4bff 69be dc20 53bd
000001e0: 7260 953d a7d7 493d 63e5 063e d647 07be
000001f0: 89c5 903e 235a 33bd 0176 133e 2e1a 66be
-0.096324794 0.3367558 -0.1700355 -0.13520993 -0.03134412 -0.26263565 0.05295957 -0.15183493
-0.29199693 0.32417482 -0.17976062 -0.23451829 0.20148365 0.23100206 -0.13784796 0.24187629
-0.25592178 0.16566604 0.169012 -0.14657463 -0.12768863 -0.022104878 -0.20148778 0.11307539
0.1417068 0.38839817 0.018137055 0.21955515 0.13019608 0.027220095 -0.15937023 0.18074314
0.2984964 -0.32006434 0.15519981 -0.19771795 -0.20026411 -0.2139249 -0.07190009 -0.21967281
-0.26281577 0.06814678 -0.03527825 0.08287372 0.2027673 0.3134224 0.22373311 0.19584
-0.07260649 -0.23792751 -0.12602502 0.2106289 -0.14026488 -0.056388397 -0.15706399 0.18340231
-0.25954622 -0.23684794 0.11902277 -0.20905529 0.18624875 -0.38911545 -0.018371915 0.30247623
0.27612087 0.11614906 -0.017176213 0.17729159 0.26241714 0.22716561 0.031113055 -0.29180837
0.25383082 0.12838565 0.021041336 0.23988616 0.27639598 0.18200134 0.05219239 -0.2268108
0.27373376 -0.044596076 0.07523975 -0.17094551 0.15536736 0.13006622 0.2772797 0.3099788
0.31369713 -0.17402735 -0.00087973615 -0.29371405 -0.13553712 -0.2543841 -0.009481675 0.29382366
0.34448874 -0.28236467 0.010507737 -0.2220591 -0.070081376 0.15478976 0.16610028 -0.28771716
0.29081777 0.041766774 -0.15889733 0.0585444 -0.36174303 0.08185639 -0.24621797 -0.08383838
0.2535215 0.29075232 0.15549242 0.28888163 0.04021461 -0.1323095 -0.22851293 -0.05154501
0.07293786 0.049277928 0.13173442 -0.13210997 0.28275707 -0.043787133 0.14400484 -0.22470924

linears.0.bias f4 [64]
00000000: edc0 e73d c360 493e 3db6 9bbc 6eae 35bc
00000010: 5a1b 993d bd1a 423d 80ac cf3c 5726 18bc
00000020: 7635 5dbc b489 f03d a395 c0bc 63fd c4bd
00000030: 529f 34be 6bd4 513e bd13 7ebe b461 30be
00000040: 92ec bb3d cf6e 13bd a2e5 9b3c 9107 463d
00000050: e686 543c 09c8 b83c 91dd b1bc cecf 36bd
00000060: dd5a bf3e 37cf a1bc 6170 9c3d 2f7d 90be
00000070: 82de a63d 9673 bebc 5d95 dcbd a9f1 ce3d
00000080: ae75 c33d 17bb db3d 9b42 623d 148e a93d
00000090: d175 2b3e ddfc 8e3e 6b91 7bbd 754f 80bd
000000a0: a230 5b3e 1340 403d 6d82 723d 30d0 a83d
000000b0: 49e7 c2bd 770f d2bc 5368 65bd 0720 ddbd
000000c0: eaff 803e 6b45 3dbe 5833 67be a5fe 5ebe
000000d0: d9de 33bd 99c6 5e3d 4543 99be f592 0dbe
000000e0: 10d9 aa3d fb59 89bd 898e 193d 5c91 81bd
000000f0: 7bc2 13bd 9b54 173e 726d 8b3d 890d 07be
0.113160945 0.19665818 -0.019007796 -0.011088951 0.0747592 0.04738878 0.02535081 -0.009286485
-0.013501516 0.11745015 -0.023508852 -0.09618642 -0.17638901 0.20491187 -0.24812217 -0.17224771
0.091759816 -0.035994347 0.019030396 0.04834706 0.012971615 0.022556322 -0.021712096 -0.04463177
0.3737401 -0.019752128 0.07638622 -0.28220508 0.08147909 -0.023248475 -0.10770676 0.10104687
0.0954393 0.10729044 0.0552393 0.082790524 0.16744162 0.27927294 -0.06141798 -0.06265155
0.2140527 0.046936106 0.059206415 0.082428336 -0.095167704 -0.02564214 -0.056007694 -0.10797124
0.25195247 -0.18483512 -0.2257818 -0.21776827 -0.043913696 0.054388616 -0.29934135 -0.13825591
0.08342183 -0.067066155 0.037489448 -0.06326553 -0.036074143 0.14778368 0.068079844 -0.13188757

linears.1.weight f4 [64, 64]
00000000: f821 32be ed67 a23d 2ee4 11be 50ae 623e
00000010: 7aff 143d 10e2 233e c2c6 05bd 8ea9 40be
00000020: 6da3 a83d 6e3d a2bd f2d0 443e 4719 f9bd
00000030: 675c 7cbd 7e75 0b3e bb4a f9bd 0304 093e
00000040: 8489 2d3d 662e f93d 616d a9bb 87aa 623e
00000050: 59a1 b13d 2114 04be 089a 57bd f872 24be
00000060: a5c4 4c3e 1b02 303d 6a91 e7bd 6684 03be
00000070: 91c3 37be 5a15 ff3a ac59 183d 1dfe 133d
00000080: 574b 583d b82b 44bd 5c90 fdbd ebfe 593d
00000090: f26d b2bd 2655 7ebd 76ab 12be fec3 453e
000000a0: de45 5bbe ca76 39be fdb1 5dbe 6d7e 56be
000000b0: 7157 c7bd 2788 8d3d f479 84bc 13e9 babc
000000c0: 5a6c 543e ffbc 543d d8eb 83bd ed3a 2f3e
000000d0: eda2 0c3d 2cde 773d 6ff4 613e 5cc1 c9bd
000000e0: 26bd 8f3d a9f5 6cbe 6dd8 1ebe 000f 15bb
000000f0: 697b d1bd 8379 6bbd 1150 49bd 3850 1b3e
00000100: 24cd d5bd 205f 1b3e 17e4 56be d440 b1bc
00000110: c661 eebc 6d37 2ebe d633 053e 1125 8e3c
00000120: 7060 10be 6109 833d c996 943c 8e6f 0e3e
00000130: 4473 b8bc b20a 553e e658 2b3e 2494 30be
00000140: fa61 f6bd a90e 4f3e 7285 dcbd b3c9 d93d
00000150: ab87 0fbe 1d92 20be 9e77 543e 01f5 433e
00000160: 6b5f 60bd 8e4d 76bd bb3a a5bd c998 b5bd
00000170: 2515 183e 89bc 7d3d 7e46 cdbc c323 bebd
00000180: 0a3c 383e 4f94 433e af02 7e3e 72af beba
00000190: bbb7 2ebe 417b 6b3e 18f4 4dbe 8d31 75be
000001a0: 871e 35be 5500 59be 2064 803e f2dc 7b3e
000001b0: d847 3abe 4f4c 133e 4f47 6ebe aac2 063d
000001c0: f64f 003e b9b5 2a3d 1147 15be 51fa 2cbd
000001d0: d6b4 dcbd 3b2a 9a3c 23b0 353c 208f 18be
000001e0: f39c af3d 64b7 393e b430 49be 7a37 933d
000001f0: ba3b 413e 6259 96bd 14e1 a43d fb12 3e3e
00000200: b23c 863d 94ec 0fbe a5cc 34be fd64 3d3e
00000210: be03 26bc f1eb 0f3e 8e2a 9ebd a492 30bd
00000220: f8fb ddbd f429 a03d 831c 263e 6e59 55be
00000230: 7500 a7bd 914e 77be fceb cebc f7fb aabd
00000240: aa2d 383e ed79 72bd 9f1b 35bd 0ddf 533e
00000250: 21b4 3d3e 668b ffbc 17d3 3dbd 6f25 0dbe
00000260: 5877 233e 811c aebd 6bca ad3d baa9 db3d
00000270: a226 463e 803c 5a3a 3308 3c3e 4a52 22be
00000280: be12 77bd 4670 adbc f71d 1a3e cf30 28bd
00000290: 6b97 bdbc e820 76be 8622 3d3e 1d21 9e3c
000002a0: 19d3 2dbd ccd1 1b3e ae55 073e 2ded 3a3d
000002b0: e448 6f3e 3644 3a3e d536 503c 40b0 743d
000002c0: fb66 5f3e 73d7 343e d89a 78be 88ca 393e
000002d0: 9054 5f3e 71aa 52be b01c 273e 0500 473d
000002e0: f21b c0bd b623 223e ddc2 aabc b727 453d
000002f0: f88e 78bd 6466 29bc ba65 0bbe f06c 443e
00000300: 7013 113d 6284 cd3d 0cb1 303e b1a0 19bc
00000310: 3227 6cbc bbd8 d83d a581 3a3d abf2 553e
00000320: 6c6a 133e 3661 043e a377 c13d 28cb 4b3c
00000330: d915 60bd b5db 303c 96d3 433e 175d 4e3e
00000340: 4c91 553e 985e 113e 0e63 153b 98ce 0bbe
00000350: 7ed5 7b3c e59b 0abd cff6 20bd 6824 e03d
00000360: e5f4 c5bd b089 1dbe c8de 8bbd 5490 a23d
00000370: 9af6 06be b972 f93d 572b 4f3e 402a 313c
00000380: 3c01 9dbd a63f 4fbd f487 6dbe cd3f bc3d
00000390: 6f18 213d 4246 7abe 1c92 07be c8fd 263e
000003a0: c329 97bd 793a a83b 5d6c e2bd 2122 f6bd
000003b0: bbed b53d bfe3 fcbd 7c83 e53d 8b11 933d
000003c0: c4ef 2ebe 8a66 ecbd 8269 843d a5d4 b13c
000003d0: 42ab 0fbe 13e7 c33d 8ffe d7bc 9d20 173e
000003e0: 08d4 84be 9ae1 d5bd 4957 d9bd 1a20 173e
000003f0: 1671 163e 3e34 5ebe 3d55 a2bd 8674 ff3d
-0.1739577 0.079299785 -0.142472 0.22136807 0.036376454 0.16004205 -0.032660253 -0.1881468
0.08234296 -0.07921873 0.19220331 -0.121630244 -0.06161156 0.13619038 -0.12172457 0.13380437
0.042367473 0.12167053 -0.0051705097 0.22135364 0.08673353 -0.12898304 -0.05263713 -0.16059482
0.19996889 0.042970758 -0.113070324 -0.12843475 -0.17945696 0.0019461319 0.037194893 0.036131013
0.052806225 -0.047893256 -0.1238105 0.053221624 -0.08712377 -0.062092923 -0.1432322 0.19313046
-0.21413371 -0.1811172 -0.21649928 -0.20946665 -0.09733475 0.069107346 -0.016171433 -0.022816217
0.20744458 0.051938053 -0.06441468 0.17112322 0.034335066 0.060514614 0.220659 -0.098513335
0.07018499 -0.23140587 -0.15512247 -0.0022744536 -0.10228617 -0.05748893 -0.049148623 0.1516732
-0.10439518 0.15173006 -0.20985447 -0.021637358 -0.029099356 -0.17013331 0.13008055 0.017351659
-0.14099288 0.06398273 0.018138306 0.13909742 -0.0225159 0.20804861 0.16733131 -0.17244011
-0.12030406 0.20220436 -0.1076764 0.10634174 -0.14016597 -0.15680738 0.20748755 0.1913643
-0.054778498 -0.060132556 -0.080678426 -0.08867032 0.14851816 0.06194738 -0.025058027 -0.09284165
0.17991653 0.19099544 0.24805711 -0.0014548136 -0.17062275 0.22996236 -0.20112646 -0.23944683
-0.17687427 -0.21191533 0.2507639 0.24596003 -0.18191469 0.14384578 -0.2326939 0.03290049
0.12530503 0.04167721 -0.14577891 -0.042230908 -0.10776679 0.018818965 0.011089358 -0.14898348
0.085748576 0.18136364 -0.19647485 0.07188316 0.1887044 -0.07341267 0.08050743 0.18561928
0.065545455 -0.14055091 -0.1765619 0.18495555 -0.010132728 0.14054848 -0.077229604 -0.043108597
-0.10839075 0.07820502 0.16221814 -0.20834896 -0.08154384 -0.24151064 -0.02525901 -0.0834884
0.1798617 -0.05919831 -0.044215795 0.20690556 0.18525745 -0.0311944 -0.04634389 -0.13783811
0.15963495 -0.085015304 0.08485874 0.10725732 0.19350675 0.0008325055 0.18362503 -0.15851703
-0.06032061 -0.0211717 0.15050493 -0.041062173 -0.02314349 -0.2403599 0.18470201 0.019302899
-0.042437647 0.1521675 0.13216278 0.045636345 0.2336765 0.18190083 0.0127083855 0.059738398
0.21816628 0.17660312 -0.24277818 0.18143666 0.21809602 -0.2057283 0.16319537 0.048584003
-0.0938033 0.15833935 -0.020844871 0.04813358 -0.06068322 -0.010339353 -0.13613024 0.19182181
0.035418928 0.10035016 0.17255038 -0.009376691 -0.014413642 0.10588213 0.045533795 0.20893352
0.14396065 0.12927708 0.09446647 0.012438573 -0.054708336 0.01079457 0.19123682 0.20152698
0.20856208 0.14196241 0.0022794637 -0.13653028 0.015370725 -0.03384008 -0.039297875 0.10944444
-0.096658505 -0.15384555 -0.068296015 0.07937685 -0.13180009 0.12180085 0.20231377 0.010813296
-0.07666251 -0.05059781 -0.23196393 0.091918565 0.039329942 -0.24440864 -0.1323933 0.16307747
-0.07381012 0.0051339236 -0.11055825 -0.12018228 0.08883234 -0.123481266 0.11206719 0.071810804
-0.17083651 -0.11542995 0.064654365 0.021707842 -0.14030173 0.09565558 -0.0263665 0.14758535
-0.25943017 -0.10443421 -0.106123514 0.1475834 0.14691576 -0.21699616 -0.07926414 0.12473397

linears.1.bias f4 [64]
00000000: c4ef 0bbb 3602 423d 544d 61bd 216e 01be
00000010: 378a df3c b6a0 8a3d f266 bdbd c8b9 11be
00000020: e951 783c 104f 88bd 9805 bdbc 2d14 6ebd
00000030: 2a4d 3a3e 51fe 20bd 4a80 c7bd d0cd 233b
00000040: bd7d 80bd 62ae 36bd 88b7 c9bc 06c0 0a3e
00000050: 2bc9 be3d 2281 c33c 1014 483c ab43 28bd
00000060: 7041 963d 2b3a a9ba 9832 98bd 3236 1d3e
00000070: f7f6 b13c 95a3 b63c de52 3fbe 7c4b 28bd
00000080: 6932 973c d35e 6fbd d491 393e 3679 52be
00000090: a034 dbbb dfa0 48be 5851 bb3c 3064 9c3d
000000a0: b919 edbb f9ac 78bd 6d6a 08be 7ca5 2fbe
000000b0: c8d5 51be 113b 323e dd51 80bc f605 01bd
000000c0: 62b6 1a3d f7a1 07bd 5a43 1c3d c017 da3d
000000d0: 6632 51be af9d 0bbd 85d0 a53d 5658 11be
000000e0: b812 2f3c 9f85 833c 2d43 8abc 9365 04bc
000000f0: 852f 1cbb 3a1b 623d 21e3 79bd 8a45 34bb
-0.0021352628 0.04736539 -0.055005386 -0.12639667 0.027287586 0.067689344 -0.09248151 -0.14231026
0.015156248 -0.06655705 -0.023073956 -0.05812471 0.18193498 -0.039305035 -0.09741266 0.00249945
-0.06273983 -0.0445999 -0.024623647 0.13549814 0.093157135 0.023865286 0.0122118145 -0.04108016
0.073367 -0.0012911012 -0.07431525 0.15352705 0.021724207 0.022294799 -0.18683955 -0.041087613
0.018456655 -0.05844004 0.18122035 -0.20554051 -0.006689623 -0.19592617 0.022865936 0.07636297
-0.0072357324 -0.060711835 -0.13321848 -0.17152971 -0.20491707 0.17405345 -0.015664035 -0.031499825
0.03777159 -0.033113446 0.03815017 0.10649061 -0.20429382 -0.034085926 0.080964126 -0.14193854
0.010685615 0.016054926 -0.016877735 -0.008080858 -0.0023832035 0.055201747 -0.061007623 -0.0027507269

linears.2.weight f4 [64, 64]
00000000: 1ef6 1abe 7729 273e 16fe 1cbe bdff 3abd
00000010: 480d 32be 5f0a dfbd ca14 243e 9c9c ec3d
00000020: 4a3b 59bd 1306 33be 61b8 9e3d 9cee 97bc
00000030: 3360 383e 89a0 293e 326d 993d a85f 993e
00000040: d480 0a3e f9f4 00bd 9aee 4d3d 0aa0 12bd
00000050: f918 0bbe 1c73 abbc de69 a9bd a2de b1bd
00000060: cd08 92bd 735d 2cbe 226f a8bd 89a4 75be
00000070: ad98 14be e9e6 c2bd 9134 cf3d 7b8c b73d
00000080: 3a75 63bd 8e9b 903d 808b 363e 737e 62bd
00000090: 17b0 33be b18a d4bd 7a10 3abe 2a28 1fbe
000000a0: 6216 ea3d a6b2 383e adcb 2c3e c38d 33be
000000b0: 107b dabd dec5 21be 7377 c63c a7ae c5bc
000000c0: 3489 463e dbc6 073a 27ce 2fbc ca2d 04be
000000d0: cb2b 933d 1e13 093e fbe9 53bd dbf8 353d
000000e0: 2d84 113e 2833 2c3e 42de 963e 5ccf 803d
000000f0: 2b62 4c3e b4a4 b7bd c323 3abe 8d12 cbbd
00000100: d569 afbd 482a d1bc 0c0b 15be 98fd 96bd
00000110: 3b6a 0b3e 020b a9bd 67da 20bd 478c 9c3c
00000120: f779 8dbd 8b4f fb3d a843 61be 2b02 243e
00000130: 39ec 0c3e 2ecc f1bc 0423 abbd c4ca 2e3d
00000140: 7192 2cbe 6a01 723e d6d2 d63d 2b91 91bd
00000150: 7a90 0abe 487c 533e d2d1 e23c 5c74 2f3e
00000160: d60e 2dbe 9e8c 753d 043f 76be ba7c 6e3d
00000170: 6521 b8bb 2da3 84bc ba5c 653e 7e51 27bd
00000180: 3700 02be dea0 e33d 47d7 48be c3d7 74bd
00000190: c885 acbd 3663 8fbd 349c 92bb 09f3 5e3d
000001a0: 988e aa3d 662b 693d da0d 893d 4abf a83d
000001b0: 8a7d 2fbe 8b4e ce3d 5ed1 91ba 6fb2 96bd
000001c0: bb22 473e 9f24 0f3e a290 e43c a609 913d
000001d0: 047d 75bc a0a3 44bc 3fb2 08be 176f 6a3c
000001e0: 98ed 0f3e 37d9 4c3d 9463 e03d 1a0d 233d
000001f0: 6e48 acbc 8137 7c3c cb8c 133d 7e28 44be
00000200: c92b 4fbe 4b5e ed3d 8ced 3dbe 48d6 e43d
00000210: 3e7c 1d3e 9b61 cf3d 53cf ba3d f83b 0a3e
00000220: c626 ac3c 4a5e aa3d 8035 1c3e c7fb c43d
00000230: 365e ef3d c2ed 2f3e 86ca 263e 1cc0 f13d
00000240: 5b5a cdbd f554 08be ef64 353d 8d56 f2bd
00000250: 0f8d c3bd a361 23be 1ac2 c1bc 7e44 2d3d
00000260: 4e34 63be a3ab c3bd 180d b1bd df29 213e
00000270: 7d73 5bbd 2497 14bc 2e6f 093d b1db 30be
00000280: 4530 653e d3db abbc 9295 3abe bc31 2a3e
00000290: 7aa7 33be 4e20 943d 8ba7 753d c3a8 5c3c
000002a0: 07e8 693d 772c 113b 414a 2a3e 6c89 b23d
000002b0: c682 353d b666 4bbe 969f 2a3d 01ef 753c
000002c0: 5741 cbbd 188e 643e 621f 95bd 7407 1e3d
000002d0: 9481 20be 007e 70bd 6404 3bbe 60ac 8cbc
000002e0: fb34 16be 2a5c 26be 9355 3abe 6cc9 1bbd
000002f0: 5872 b43d 320c bbbd b663 48bd 699b e7bd
00000300: e62b dbbd 66c8 123e a6c8 bf3d d933 bbbd
00000310: 48c9 833e a697 0a3e 8046 73be 7f43 f2bd
00000320: 8226 29be 145f 94be 0a5e 4f3e 6213 293e
00000330: 5f5d f63d f9c3 513e 0e1f 80be e39b b8bb
00000340: 0e30 96bd aaa8 c03b a744 303e 4b21 8f3e
00000350: ff9f 7b3e dc03 183e b57f 0a3d 5604 ad3d
00000360: 5fdf 00be cf8a de3c d708 16be 3105 0d3e
00000370: fa87 873e e021 d6bd 1488 efbc 770d 8ebe
00000380: c9f8 243e bea9 80be f00b d83d 276d 8fbe
00000390: 8519 42be e3b8 efbc c3b9 cdbd 52fe 0d3e
000003a0: 15c4 f43d c546 0bbe 26c6 19be 23d0 20be
000003b0: 69cc 85be 9864 623e 05e4 e9bd 322b 1cbe
000003c0: a4c6 273d e2cb 7cbe 180d b3bd 9e01 863d
000003d0: 6ef9 4ebe 9c2b 3a3d 50c8 38be 16cb c4bd
000003e0: 1681 93bd 0f38 af3d add9 abbd 2b27 4fbe
000003f0: 1e90 bb3d ab43 6a3a d5af 81be 165d db3d
-0.15132949 0.16324411 -0.15331301 -0.045654047 -0.17387879 -0.1089065 0.16023555 0.11553308
-0.053035058 -0.17482786 0.07750011 -0.018546395 0.18005447 0.16565146 0.074915305 0.29955792
0.13525707 -0.031483624 0.050276376 -0.035797156 -0.13583745 -0.020928912 -0.08272146 -0.08685042
-0.07130585 -0.16832523 -0.08224322 -0.23988546 -0.14511366 -0.09516699 0.10117448 0.089623414
-0.055531718 0.0706092 0.17826653 -0.055296373 -0.17547642 -0.10378016 -0.18170348 -0.15542665
0.114300504 0.18036899 0.16874571 -0.17534547 -0.106680036 -0.15798137 0.02422688 -0.024131132
0.19388276 0.0005179473 -0.010730303 -0.12908092 0.07186087 0.13386199 -0.051736813 0.04442678
0.14210577 0.1681639 0.29466444 0.06289551 0.19959323 -0.089669615 -0.18177705 -0.09915648
-0.08565108 -0.025532857 -0.14554995 -0.07372588 0.13614742 -0.08254053 -0.039270785 0.019109858
-0.069080286 0.12271031 -0.21998465 0.16016452 0.13761987 -0.029516306 -0.08356288 0.04267384
-0.16852738 0.23633352 0.104894325 -0.07107767 -0.13531676 0.20652878 0.02768794 0.17134231
-0.1690019 0.059948556 -0.24047476 0.058224417 -0.0056192153 -0.01619109 0.22398654 -0.0408492
-0.12695394 0.11114667 -0.19613372 -0.05977608 -0.08423954 -0.07001345 -0.0044741873 0.054430995
0.08327979 0.056926154 0.06692095 0.082396105 -0.17137733 0.10073575 -0.0011125018 -0.07358252
0.19446842 0.13978814 0.027900998 0.070819184 -0.014983419 -0.012001902 -0.13349245 0.014308712
0.14055479 0.05001184 0.10956493 0.039807416 -0.02103063 0.015394093 0.036022943 -0.19156072
-0.20231546 0.115902506 -0.18547648 0.111736834 0.15379426 0.10126039 0.09121575 0.13499439
0.021014582 0.083187655 0.15254784 0.09618335 0.11687891 0.17180541 0.16288194 0.1180422
-0.100269996 -0.13313659 0.04428571 -0.118329145 -0.09548389 -0.15955214 -0.023652125 0.042301647
-0.22187921 -0.095542215 -0.086450756 0.15738629 -0.053576935 -0.009069238 0.033553295 -0.17271306
0.22381695 -0.020978844 -0.18221119 0.16620535 -0.17544356 0.07232724 0.059974235 0.01346797
0.057106044 0.0022151747 0.16629888 0.087176174 0.04431417 -0.198634 0.0416561 0.015010596
-0.09924572 0.2231983 -0.072813764 0.038581327 -0.1567443 -0.058713913 -0.18263394 -0.017172039
-0.14668648 -0.16246095 -0.18196706 -0.038033888 0.08810872 -0.091331854 -0.048923217 -0.11308939
-0.10701732 0.14334258 0.093644425 -0.091407485 0.25739503 0.13534412 -0.23757362 -0.1182928
-0.16518596 -0.2897879 0.20250717 0.165113 0.12029528 0.20484914 -0.25023693 -0.0056338175
-0.073333845 0.0058794813 0.17213689 0.27955088 0.24572752 0.14845222 0.033813197 0.08448093
-0.1258521 0.027165798 -0.1465181 0.13771512 0.2647093 -0.1045568 -0.029239692 -0.27744648
0.16110529 -0.25129503 0.10549152 -0.28012964 -0.18955047 -0.029262966 -0.10045197 0.13866547
0.11951462 -0.13601215 -0.15016994 -0.15704398 -0.26132515 0.22108686 -0.114204444 -0.15250853
0.040960923 -0.2468715 -0.08742732 0.06543277 -0.20212337 0.045451745 -0.18045163 -0.09609048
-0.072023556 0.08555614 -0.08391128 -0.20229785 0.091583475 0.0008936475 -0.25329462 0.10711114

linears.2.bias f4 [64]
00000000: a8cc 19bd 246a 083d 7965 0fbc 1826 413d
00000010: 24a6 b63b bd16 9a3d 1e3b afbd 5b92 a9bc
00000020: 314c c2bc 8731 b53c 9426 00bd d9ef f03c
00000030: f092 16bb 8e9a a23d b85d 083c 8991 f33c
00000040: 1181 853d 250c 08bd a91c 883d 3def 15bc
00000050: c3d9 813d 5a59 48bc 63ab a43d 845d 2b3d
00000060: 624f b03c dbf6 b9bc 9b71 e6bc a720 543d
00000070: 8b18 dd3c 89ce a6bd ea3b e9bc 9ef9 ec3c
00000080: 4209 31bb 23a0 a3bc ddf9 e83b 3ebc a8bc
00000090: 7220 68bd aec6 25bd 5676 1ebd 1ca0 ecbc
000000a0: c059 edbd 0004 81bb 75a5 02bd be67 fabd
000000b0: 931a 893c 21d9 90bc ad8f e5bc 0db0 723b
000000c0: 81d7 fdbd 83b6 78bd d872 f13c 8451 42bd
000000d0: a67a f0bc 977f 613d e4e9 a03c e065 23bb
000000e0: 53d7 ddbc 487f 5a3d 0bb8 edbb d06d bbbd
000000f0: 80de 113d 66ee 7b3c 29fc 073d 836e c1bc
-0.03754869 0.03330435 -0.00875222 0.04715547 0.0055740047 0.07523868 -0.085561976 -0.02069967
-0.023717972 0.022118343 -0.03128679 0.029411243 -0.0022975765 0.07939635 0.008323126 0.029732483
0.06518758 -0.033214707 0.066460915 -0.009151277 0.06340363 -0.012228334 0.08040502 0.04183723
0.021522228 -0.022700718 -0.028130343 0.051788952 0.026989242 -0.08144862 -0.028470952 0.02892762
-0.0027013575 -0.01997382 0.007109864 -0.020597573 -0.056671567 -0.04047268 -0.038687073 -0.02888494
-0.11589384 -0.0039372444 -0.031896073 -0.122268185 0.016736304 -0.01768166 -0.028022612 0.0037031204
-0.1239462 -0.06072093 0.029473707 -0.04744102 -0.029355358 0.05505332 0.019642778 -0.0024932548
-0.027080214 0.05334404 -0.0072546056 -0.091518044 0.035612583 0.015376663 0.033199463 -0.023612266

linears.3.weight f4 [64, 64]
00000000: 5b48 64be a694 2c3e c1ee 9e3d cfd5 a93d
00000010: 456a 423e f977 bdbc c36b cf3d 21fe 43be
00000020: c9fb e33d 3a36 45be 7ee5 9f3d 0135 283e
00000030: 6e75 6bbd 5a94 1c3d b01b 1e3e 33c5 263d
00000040: 1a11 29be 5d15 05be 87e6 5bbe 7165 dbbd
00000050: c1e0 1d3e 31e4 cb3d 8315 e83d 17f5 2a3d
00000060: 00b0 423d 596f 1c3d 4cac c2bc 567c 753d
00000070: d8ac 80bd 26a5 043e 7983 9f3d b8ab e13d
00000080: 8d9b ec3d b8b3 253e 01cb 37be 78d1 993e
00000090: 3b38 213e 24f1 b4bd 81f5 523e 36ff 433d
000000a0: 9055 f63d 6469 06be fb71 ac3c 3247 89be
000000b0: 7daf e93d 9ff3 17be 1a53 49bd ebc4 b7bd
000000c0: 7352 c93c 176a 923c 9545 4cbe 3429 543e
000000d0: 0946 73bd f664 c83c 1303 debc 036b 02be
000000e0: df64 1f3e fa07 2abe 1a6e 16bd d6a3 fe3d
000000f0: 5e8e 28be fad1 a3be 8c31 b43d 17c4 2fbb
00000100: d789 44bd bdbd b8bd 6ab7 923c 75d3 10be
00000110: 6361 b3bd c456 bebd d4b2 e8bc b438 9cbd
00000120: f8b3 19be 1bfd 37be 9889 ecbd 9bb6 17bd
00000130: 0bfa 483d 7d7b 12be d1e9 013d 25a6 d43c
00000140: e334 06bd 980a 2b3e ca74 4e3e 0652 02be
00000150: 5cfc 83bd 6d35 b33d 558f 233d 57d2 63bd
00000160: 330e d63c 63bc a1bd 78b8 943d de71 94bd
00000170: 0582 183e 674b 0ebe 9581 91bc 44aa 37be
00000180: 0c6e d63d d2d2 1b3e d594 353d 0847 c3bc
00000190: a82d d0bd 577d c1bd 9f9b afbd 3bf3 2abe
000001a0: 52f4 323e ed51 2d3e 0e2b 853d d657 d13d
000001b0: ef60 14bd 0e50 c53c e2c7 403d 51e4 23bd
000001c0: d460 bdbd b0bb 28be 0f19 493e 7b9c 423e
000001d0: 7ea8 0bbe 98a8 25be 6fb4 ee3c 13c8 44be
000001e0: 2937 f43d c9b2 2b3e e1e0 80be 8644 13be
000001f0: 7eff 373d 2ba7 063e 0b06 28be 10be 483e
00000200: 36d0 fabd fc32 87bb 8cce dc3c f05e 0a3b
00000210: e45a e2bc 5e8d 6c3d 1252 da3c 3181 61be
00000220: 6d97 61be bb61 d03d 34df 5c3e a999 b63c
00000230: 4594 c6bd 69b2 9ebc 4f1d 57be 4242 1cbd
00000240: cc81 1abe 2612 dbbc 2642 69be de03 1fbe
00000250: 21b4 a83d 2b93 a6bd fadd 01be 5ff7 1d3d
00000260: b887 79bc bdf9 c2bd 7d29 2e3e 587c 253e
00000270: c0bf 7cbe d9fb 7bbe e671 15be 41a1 e4bd
00000280: 58f8 d6bd b6de 913b 9263 b03d fc4d eebd
00000290: d1a3 643e 3f04 8b3e 055a 143e bf4d e1bc
000002a0: c825 943c c9f0 93bd 4e7e 833d fbc3 973d
000002b0: c633 43be 36fe 08be 3089 9b3e 1b1a 5fbe
000002c0: b0c3 eebd 13cc 803e d4ed 0bbd 07af 94bc
000002d0: 6e59 3f3e 63be 443e 1642 343e d9f6 d63c
000002e0: d26f 9c3d 847b c2bd 713c d53a b24d 813e
000002f0: b191 ef3d 75bd e3bd 9bc1 2f3e 2a83 183e
00000300: bc02 2e3e e73f 113d 9ec1 383e d515 d03d
00000310: a4f0 11be 3c94 c73b c3f9 a2be 2ac4 aebd
00000320: 1181 fbbd 3f7d 5c3e ca0b 2bbe c347 96bc
00000330: 9465 94bd 77be b93d 22e5 10be 1628 51bd
00000340: e9ac 90bd 68c1 65bd 0bd6 623e 8335 72bd
00000350: 3d3b f5bd b6b9 2cbc 2651 05be d0dd ef3d
00000360: 0d8f af3e ba76 273d 4a63 8c3d df88 2abe
00000370: 4655 9f3d 0f71 99bc b42a d5bd 6006 f33d
00000380: 9b85 d1bd e4eb 28bd 5e66 32be f85e d5bd
00000390: c801 1b3c 51c5 55be f88e f8bd 3829 353e
000003a0: 5356 123b 0724 033e 0859 22be ce89 763d
000003b0: 69ae b4bd 260a 37be 68f6 1abe 09cf 513d
000003c0: 7242 99be 2cb2 fdbc 337e 793e fa28 46bc
000003d0: 88ee dd3c d1d6 dc3d af49 18bd a678 033e
000003e0: d685 393d 14eb 0fbe f653 c63d 31a3 73be
000003f0: cd67 2fbe 9465 3d3e 9d76 70bd 3427 cb3d
-0.22293226 0.1685358 0.077603824 0.08292734 0.18985851 -0.023128496 0.10127976 -0.19139911
0.111320086 -0.19258967 0.07807444 0.1642647 -0.057485037 0.038227417 0.1544025 0.040715408
-0.1651043 -0.1299643 -0.21474658 -0.10712708 0.15417768 0.099556334 0.11332228 0.041737642
0.047531128 0.038192127 -0.023763798 0.05993303 -0.06282967 0.12953624 0.07788748 0.11019081
0.115531065 0.16181839 -0.17948534 0.30042624 0.15744106 -0.088350564 0.20601465 0.04785081
0.120280385 -0.13126141 0.021050444 -0.2681213 0.11410425 -0.14839028 -0.049151517 -0.08973106
0.024575448 0.017872853 -0.19948418 0.20718843 -0.059392963 0.024462204 -0.027101075 -0.12736134
0.15565823 -0.16604605 -0.036726095 0.12433593 -0.16460559 -0.31996137 0.08798513 -0.002681976
-0.047983017 -0.09020565 0.017909724 -0.14143164 -0.087588094 -0.09293893 -0.028405584 -0.07628003
-0.15010059 -0.17967646 -0.115496814 -0.03703938 0.049066585 -0.1430492 0.031717125 0.02595813
-0.03276528 0.1670326 0.20161739 -0.12726602 -0.06444618 0.087504245 0.039931614 -0.055620518
0.026129818 -0.0789726 0.07261747 -0.07248281 0.14893349 -0.13895951 -0.017761985 -0.17936045
0.104702085 0.1521714 0.04433139 -0.023837581 -0.10164958 -0.09447735 -0.08574604 -0.16694348
0.17476013 0.16925783 0.06502353 0.102218315 -0.036225256 0.024086025 0.047065623 -0.04001266
-0.09246984 -0.16477847 0.19638465 0.19005005 -0.13638493 -0.16177595 0.029138772 -0.19216947
0.119245835 0.1676742 -0.2517157 -0.14381608 0.04492139 0.13149707 -0.16408555 0.19603753
-0.12246744 -0.004125951 0.026953958 0.0021113716 -0.02763123 0.057752006 0.026650462 -0.22021939
-0.2203042 0.101748906 0.2156952 0.022290068 -0.09696249 -0.019372182 -0.21007274 -0.038149126
-0.15088576 -0.026742052 -0.2277914 -0.15528819 0.08237482 -0.08133539 -0.12682334 0.03856599
-0.015230112 -0.0952029 0.17008014 0.16160715 -0.24682522 -0.24607791 -0.1459423 -0.11163569
-0.104965866 0.004451598 0.086127415 -0.11635968 0.22328116 0.27151677 0.14487465 -0.027502893
0.018084422 -0.072236605 0.06420575 0.07410427 -0.19062719 -0.13378224 0.30378103 -0.21787302
-0.11658418 0.25155696 -0.034162357 -0.018149866 0.18686458 0.19213252 0.17603335 0.026240753
0.076385155 -0.09496215 0.0016268623 0.2525459 0.1169771 -0.111201204 0.17163698 0.14893785
0.1699323 0.035461333 0.18042609 0.10160414 -0.14251953 0.006090669 -0.31831178 -0.08533509
-0.12280477 0.21532153 -0.16703716 -0.018344766 -0.07245937 0.090695314 -0.14149907 -0.05106362
-0.0706423 -0.05609265 0.22151963 -0.059133064 -0.119741894 -0.010542324 -0.13019237 0.11712229
0.34288827 0.04088471 0.068548754 -0.16653775 0.077799365 -0.018730668 -0.104085356 0.1186645
-0.10230561 -0.041240588 -0.17421862 -0.104185045 0.009460874 -0.20876051 -0.12136644 0.17691505
0.0022329285 0.12806712 -0.15854275 0.060190015 -0.088223286 -0.17874965 -0.15133059 0.051222835
-0.29933506 -0.030968748 0.24364547 -0.0120947305 0.02709128 0.107831605 -0.037179645 0.12838992
0.04529365 -0.14054519 0.09683983 -0.23792721 -0.1712944 0.1849578 -0.05870687 0.09919587

linears.3.bias f4 [64]
00000000: 1829 ce3c 56f2 20bd 3915 26bd e9cb 4e3d
00000010: cad4 1c3d 5df4 a23a 929a cb3c b3d1 05bd
00000020: 3edf 053d 9021 babc 8cd1 083d 9d35 733d
00000030: dc93 d93c acce 083d be63 6fbd 80bd 903d
00000040: 66fc 9e3d 56e2 033d 4651 e8bc c39c 22bd
00000050: e2e6 1cbc b25c 9dbd 98fa 86bd 07b5 853c
00000060: 8ed8 ca3c 8564 5bbc 7216 8abd be7a a7bc
00000070: 909e 823a 1fe7 57bc 65f8 393d 91e4 93bb
00000080: 28bd f23c 0346 73bd ffd1 483c 8943 273c
00000090: 1a4d c9bc 4529 313c 5ca3 ccbc 17da 163c
000000a0: adf3 943c f1a9 b7bc 8e8c eabc d09c e03c
000000b0: b48b 54bd b2a6 71bc 924f 00bd 6142 9f3d
000000c0: 5068 4b3d 7c07 933c 1b0c 883d 7bed c8bc
000000d0: e00c 6fbc f8dc 77bb 155d d23c 7ae9 6cbc
000000e0: 9305 d53c e8fe ea3c 1812 7d3c 4924 193d
000000f0: 0ae1 be3c 87ad 21bc 2d8d f9bb e68e 48bd
0.02516608 -0.03929361 -0.040547583 0.050487433 0.03828887 0.0012432445 0.024853978 -0.032670688
0.032683603 -0.022721082 0.033402964 0.0593773 0.026559763 0.033400223 -0.05844473 0.07067394
0.07762985 0.032198273 -0.028359067 -0.03970028 -0.009576531 -0.07683696 -0.06590766 0.016321672
0.024761464 -0.013390665 -0.06742562 -0.02044427 0.0009965468 -0.013177662 0.045402903 -0.004513331
0.029631212 -0.05939294 0.012257098 0.010208973 -0.024572898 0.010813062 -0.02498024 0.00920727
0.0181826 -0.022419902 -0.028631475 0.027418524 -0.051891044 -0.014749216 -0.031325884 0.07776333
0.049660027 0.017947905 0.06642934 -0.024527302 -0.014590472 -0.0037820917 0.02567915 -0.014459962
0.026003635 0.028686002 0.015446208 0.03738812 0.023300666 -0.009868032 -0.0076157064 -0.048964404

linears.4.weight f4 [64, 64]
00000000: 29dc 52be c62e cbbd 0d0f 0cbe 24f0 8d3c
00000010: 7f83 393d f702 b83d b92c 5b3e 5110 883d
00000020: 4d06 123d 35a8 10bd b3d6 41be d157 53be
00000030: 33b1 133e 4ef9 9fbb 08f5 3fbe 886b a6be
00000040: 985c 89bd f6ab 153e afd6 5a3e 3868 8ebd
00000050: 4318 583c ecf4 ca3d b309 11bd f80d 4bbc
00000060: 29e1 b63d ae44 cc3d aff5 2abe 3fba 17be
00000070: 9c27 7abe 3781 413a 1c04 cebd 89a5 1cbd
00000080: 4708 d1bc c553 23be 476b 793d 19cc 6a3e
00000090: 4061 f73c 5e61 a4bc 51c7 0bbe 74a0 74be
000000a0: fdd7 2bbe 2554 463e 45f7 233e b630 143e
000000b0: 9a37 da3b 507c 28be a829 293e 6fad 183e
000000c0: c942 3bbe 8f46 d8bd 59cc 4bbd b406 afbd
000000d0: 55ea 35be c3ba 853d 9b83 323e e22d 8b3b
000000e0: 65f9 6cbe 6f5f a8bd 7666 4f3e b4d2 62be
000000f0: 0d1a 31be 9138 26be 0215 cabc d52d 5c3e
00000100: ca15 2bbd 29c9 3e3e f863 f93d 9714 0cbe
00000110: 23a2 eabb 5711 083d a9bc 4cbe 8d10 583d
00000120: 6e33 0c3e ef34 3a3e a0f7 413e d78d b43d
00000130: 7f42 f5bd fa4a 26bd 2e94 2e3e 65fc 873e
00000140: 8166 eabd e71b f4bd 839a 293d c176 4c3e
00000150: 0243 4b3e 5e59 cfbd 6238 ea3c 71b9 573e
00000160: 489c 3cbe e927 5fbe 1695 4b3d d611 823e
00000170: f538 9dba 0cb2 08bd ab4c 4f3d 12a6 5cbb
00000180: 3dab b13d 5327 27be 9813 37be 04dd 123e
00000190: 6c02 783e 7c7f 643e 7abb 0b3e 02ed 3fbe
000001a0: b3db a3bd c840 2a3e 27f7 fe3d fc72 63be
000001b0: 10e2 843e 9f41 283e 7043 813b 2ab7 bfbd
000001c0: e727 eabd 3651 843d 64e5 1fbe d2e2 afbc
000001d0: 92f8 05be a0ae 2e3d b527 b8bd e940 2bbe
000001e0: ae04 213d d579 ae3c 2890 df3d 47d5 45bd
000001f0: 61f4 b8bd 8f44 5cbe 5068 46be 94b5 883e
00000200: 6387 663e 0772 183c cd59 1e3d b400 90be
00000210: b5a7 4ebd 4c6c bf3d 255c bcbc 95b3 333e
00000220: e5e1 bcbe 9b2b 2bbe 6915 86be cf16 80bd
00000230: 73e3 16be 7757 45be 693e 353d 2961 85be
00000240: 3d71 0ebe 1f1a 74be c376 babc 5323 4f3e
00000250: 09d5 36be 3d71 2fbc 0e32 323e 0695 9c3c
00000260: d122 97be 8ebd 893e 4e32 c2bc 663e 483e
00000270: 4921 8cbe afde 253e c908 0fbe 432a 3c3e
00000280: 54fe adbd 935b 0dbe 5afc babe 4330 ef3d
00000290: cfd1 54bd 8422 efbb f0fe 203d be82 edba
000002a0: f722 40bd 4deb 16be f9e8 843e 98d4 77be
000002b0: 4bdc 0c3d 5072 753e 73ee 043f 8ddf bdbd
000002c0: 64b5 e5bd 9e25 373e 3004 9c3d abf6 57be
000002d0: d05d 243e b4ba 413e 7933 e73a cf01 f0bb
000002e0: fad1 883d 0969 383e 1d9a 583e 5183 d5be
000002f0: 197e 5ebe f4a3 ddbd 8439 e23d 10da 603e
00000300: 9d13 403e cb76 913e b63f c23d ec0c 683e
00000310: 5b34 0abd 9d64 cbbd a109 adbd c692 d93d
00000320: ce94 803d 8441 2c3e 7d9a 1dbe 25b8 6bbe
00000330: bd10 92bd 564e 3fbe 2bc1 5c3d c91c 503e
00000340: c882 b53d a391 1dbd 87b3 ccbd 13c8 0d3d
00000350: 172f 3c3e b1b3 423e a74a 5e3e c22b 183d
00000360: 002f 82bc 8f2f 743e 93aa 69bd b528 af3e
00000370: bf60 4f3d e98e 58bc 300a 5f3e 524a 28bd
00000380: 8d2f 3cbe d8ed 48bd 79e6 4d3e 6370 c93c
00000390: 2400 13be 015e 213e 6d9b 063e 0f68 c4bd
000003a0: c113 023e 8e9b d93d a76a 0d3e c8b7 bebd
000003b0: ea51 153e 9324 423d 8653 c73d 941a 703e
000003c0: 72c7 0fbd e00c 123e c03f dfbd 2413 cbbd
000003d0: 6d07 dd3d 6a47 2a3e 210d a23c 8bda 643d
000003e0: 8345 bdbd 32f0 8d3d ed97 223e 5b75 203e
000003f0: f796 65be 8f39 413d 6a77 363e 634e 9b3b
-0.20591797 -0.09921031 -0.13677616 0.017326422 0.04529142 0.089849405 0.21403779 0.06643737
0.03565054 -0.035316665 -0.18929558 -0.20638968 0.14423065 -0.0048820144 -0.18745816 -0.32503915
-0.06707114 0.14616379 0.21370958 -0.06953472 0.013189378 0.099099964 -0.03540964 -0.012393467
0.08929665 0.09974037 -0.16695283 -0.14817141 -0.24429172 0.000738162 -0.100593776 -0.038243804
-0.025516642 -0.15949924 0.060893323 0.2292942 0.03019774 -0.02006596 -0.13650252 -0.23889333
-0.16781612 0.19368036 0.16012295 0.14471707 0.0066594603 -0.16453671 0.16519797 0.1490991
-0.18287195 -0.10560333 -0.049755428 -0.085462004 -0.17765172 0.065297626 0.17433016 0.004247413
-0.23142011 -0.082213275 0.2025393 -0.2215069 -0.17295094 -0.16232516 -0.02466822 0.21501859
-0.041768827 0.18631424 0.12177271 -0.1367973 -0.0071604415 0.03321966 -0.19993843 0.05275016
0.13691494 0.18184255 0.18942118 0.08816116 -0.11975574 -0.040598847 0.17048714 0.2655975
-0.11445332 -0.119193844 0.04140712 0.19967176 0.1984978 -0.10124467 0.028591339 0.21066834
-0.18418992 -0.21792568 0.049702726 0.25404233 -0.0011995124 -0.033372924 0.050610226 -0.0033668322
0.08675239 -0.16323595 -0.17878568 0.14342123 0.24219674 0.22314256 0.13645735 -0.18742755
-0.08000889 0.16626275 0.12449484 -0.22211832 0.25953722 0.16431282 0.0039448068 -0.09361108
-0.11433392 0.06460802 -0.1561485 -0.021470461 -0.13083103 0.042647004 -0.089919485 -0.1672398
0.039311104 0.021298328 0.109161675 -0.0482991 -0.090309866 -0.21510528 -0.1937573 0.26701033
0.22512583 0.00930453 0.03865986 -0.28125536 -0.050452907 0.09346828 -0.022993157 0.17548974
-0.36891094 -0.16715853 -0.2618821 -0.062543504 -0.14735202 -0.19271646 0.044248972 -0.2605069
-0.13910384 -0.2383809 -0.022761708 0.20228319 -0.17854704 -0.01070815 0.17401907 0.019114029
-0.2951875 0.2690243 -0.023705628 0.19555053 -0.27369145 0.16198228 -0.13968195 0.18375497
-0.08495775 -0.13804464 -0.36520654 0.11679127 -0.0519579 -0.0072978158 0.039305627 -0.0018120629
-0.046908345 -0.14738198 0.25958994 -0.24202192 0.034389775 0.23969388 0.51926345 -0.092711546
-0.11216238 0.17885444 0.07617986 -0.2109019 0.16051412 0.18918878 0.0017639241 -0.0073244344
0.06680675 0.18008818 0.2115254 -0.4170175 -0.2172779 -0.10822287 0.110461265 0.21958184
0.18757482 0.28410944 0.09484808 0.2266118 -0.033741336 -0.099313 -0.08449102 0.10623698
0.06278382 0.16821867 -0.15390964 -0.23019464 -0.07132099 -0.18682227 0.053895157 0.2032348
0.08862835 -0.038468968 -0.099951796 0.034614634 0.18377338 0.1901386 0.21708165 0.037151106
-0.015891552 0.23846267 -0.057047438 0.34210745 0.050629374 -0.013217666 0.2178123 -0.041086502
-0.18377514 -0.04905495 0.2010745 0.024589723 -0.14355522 0.15758516 0.13145228 -0.0959016
0.12702848 0.10625373 0.13810216 -0.09312397 0.14582029 0.04739816 0.09732728 0.23447639
-0.035102315 0.14262724 -0.10900831 -0.0991576 0.10792432 0.16628805 0.019781651 0.05587248
-0.09241774 0.06930579 0.15878268 0.15669768 -0.2242087 0.047174033 0.1781899 0.004739569

linears.4.bias f4 [64]
00000000: a86f 74ba 573b d3bc f4f7 32bd 42f4 20bd
00000010: 8827 483d 8239 523d 9c89 25bd 8bb8 a9bd
00000020: b896 13bc d3f0 903d 055e 26bc 013d d1bc
00000030: 092f 80bd a65f cfbc 74a5 813d 1e7d 113d
00000040: 9570 82bd b43b 04bd 57d2 5cbd bedb c4bb
00000050: 4151 80bc aebd d53c c58c 013d ecbb a1bd
00000060: 660b a03c 3f04 b43c f7c3 9cbc cfc9 11bd
00000070: b417 393a a491 043d 5553 07bc b3d1 72bd
00000080: ed40 483d a9c3 64bc 7df9 88bc 4aef c9bd
00000090: d576 6e3d a5bd eebd 1ca0 33bd ec16 54bc
000000a0: 51e5 473d 5ec3 b93d c5af be3b 9567 b5bc
000000b0: a1e6 b3bc 978b 3ebd 8037 4b3d 0231 2ebd
000000c0: 95e1 393d 5e43 383d e141 0dbc 66d4 dc3c
000000d0: 139b 67bd 782f 3d3b 1d44 80bd 2413 f73c
000000e0: 45f8 60bd bb0e 6a3c f3df 52bd 1ac7 55bc
000000f0: bebe 123c 70b9 41bd b0bc 653d 0141 1f3d
-0.00093244994 -0.025785131 -0.043693498 -0.039295442 0.048865825 0.051324375 -0.040414438 -0.08287152
-0.009008102 0.070771836 -0.010154252 -0.025541784 -0.06258971 -0.025314163 0.06330386 0.03551971
-0.063691296 -0.0322835 -0.053911533 -0.0060076406 -0.015663745 0.026091423 0.03162839 -0.078971714
0.019536685 0.021974681 -0.019136412 -0.03559285 0.0007060722 0.032365456 -0.008259614 -0.059282016
0.048890043 -0.013962665 -0.016720528 -0.09860094 0.058218796 -0.116572656 -0.043853864 -0.012944918
0.048802678 0.090704665 0.005819293 -0.022144118 -0.021960558 -0.046519842 0.049613476 -0.042527206
0.045381147 0.04498612 -0.008621664 0.026956748 -0.056544375 0.0028867405 -0.062629916 0.030160494
-0.05492427 0.014285739 -0.051483106 -0.013047958 0.008956609 -0.047295988 0.05608815 0.038880352

linears.5.weight f4 [3, 64]
00000000: dffd 423e 4904 e63d 2a42 bd3e 4bb4 383d
00000010: 969c 233e 6cd4 ac3d 19a5 aa3e 215d 64be
00000020: 6fdc bb3e 6073 d73d 90ed 36be 1e9b b63d
00000030: c2ce 4fbe d852 333e f71e f6bd 0672 993e
00000040: 566d 7dbe 3f26 a6bb 4fc9 2e3e cb17 1bbe
00000050: 528b c03d 6f8d 60bd 5506 3abe 86a0 043e
00000060: e7a4 b7be 2d33 96be 9fd1 a53e 9728 6a3e
00000070: faf6 2e3e 1d68 e23c c884 a6be dda1 36bc
00000080: 1803 b83d 0234 963e 767a 203e 3370 b6bd
00000090: bb5e 933e b5e8 7a3b a1b7 bf3d d834 1a3e
000000a0: 528c bf3e 6a83 8f3c 8773 d63d 96ae 843e
000000b0: 2a39 3bbc 9fa1 4f3e 681e afbd 1077 88bd
000000c0: e11a 643e 7c2a 573e 6e73 d83e f2e1 ae3e
000000d0: 5007 723d 9f75 f13e 9c34 a4be 41e5 6a3e
000000e0: 68f1 a63e 6ef9 ad3d 4d5a 8cbe 67f3 e1bd
000000f0: fada 72be 15b0 7abe d56c 88be 6451 b03d
00000100: 2f3d 30be f2f8 8cbd 470c 743e 48be 083d
00000110: da09 59be 7c19 e0bc eb0f 2c3e 1073 e5bd
00000120: 13e5 6bbe b793 38bd fc06 603e 8f39 373e
00000130: f7f0 563e eba7 463c 7102 e4bd 5b48 2fbd
00000140: 9e76 b3bd fad1 0abe f433 19bd 9cbc 053e
00000150: 242b 9dbe 8619 efbd a997 61bd b33a f6bd
00000160: 4ed5 553e f5a0 8dbe 7f31 40bc 69b6 4e3e
00000170: 510c d73d 5205 e4bd 33b9 81be f640 0c3d
00000180: 6094 e6bd 578c 26be 8485 6dbe 1224 7a3d
00000190: d7df 633e 943f 47bc da92 0b3e e505 04be
000001a0: ccb2 ef3d dfc0 4cbc 1f59 ba3e 1802 723c
000001b0: dd46 0abe 8a60 89bd 1edd b0bd 59c8 19be
000001c0: a339 593e cbff 81bd fd80 ecbd a67f a2bc
000001d0: 2fc1 5cbd 1032 9abe a5d9 203d ca3e e9bd
000001e0: 1dda 6ebc 0088 c23e 863f 04be 33cc 8b3e
000001f0: aefb 9ebe f3a2 7f3e 352f 7b3e b616 03be
00000200: eaf9 793d e942 8ebe dfb8 91be 4e1f 72be
00000210: fca6 c03e 0a8b aa3e 2b5e a0be 3783 e2be
00000220: 490e c0be 95c5 8c3e 24d7 88be c70a a6be
00000230: d55c 05bf 57db 17bf 435f 013f bef6 f73e
00000240: 5993 f9be 1301 ccbe 65b5 ddbd db31 4c3d
00000250: 8ce5 0bbe f03f 563e 895e d63e 83d6 9cbe
00000260: 9990 0ebd e138 ba3e 0612 adbe 1d74 1fbf
00000270: df26 b2be 2e7b 513e 3852 a9be e91a 92be
00000280: 2854 ba3e 8d16 d2bd 9912 8ebe cb49 86be
00000290: 58a8 2d3f 36bf b5be a1f4 edbe 8cbd 8abe
000002a0: 5f9c 843e 8457 083f f607 7f3e 08c4 aebe
000002b0: ad3d 5bbe 410c f7be a28e ca3e 562e b7be
000002c0: 3acd 953e 6381 aa3e 9bcf 5fbe 4ff5 8bbd
000002d0: a1a5 98be 54fe 263c 5757 adbe 4f72 723e
000002e0: dda4 febe 6b16 263e 48d6 82be 096b 40bd
000002f0: 5e65 573d ba42 cdbe fee7 cb3e a8ad fe3e
0.19042157 0.11231286 0.36964542 0.045093816 0.15977702 0.08438954 0.33329085 -0.22301151
0.36691615 0.10520053 -0.1786406 0.08916305 -0.20293716 0.17512071 -0.12017625 0.29969805
-0.2474874 -0.0050704773 0.1706898 -0.15145795 0.09401573 -0.05482238 -0.18166478 0.1295186
-0.35867998 -0.2933592 0.3238649 0.22867046 0.17086402 0.027637536 -0.3252318 -0.01114699
0.08984965 0.29336554 0.15671715 -0.08908119 0.2878321 0.0038285677 0.09361196 0.15059221
0.37411743 0.017518718 0.10471254 0.25914448 -0.011427203 0.20276497 -0.085507214 -0.06663334
0.22275878 0.210123 0.42275566 0.34156758 0.059089005 0.4716005 -0.32071388 0.22939016
0.32606053 0.084948406 -0.27412644 -0.110327534 -0.23716345 -0.24481232 -0.26645532 0.08609274
-0.1721084 -0.0688342 0.23832808 0.03338459 -0.21195164 -0.027355902 0.16802947 -0.11203587
-0.23036604 -0.045062747 0.21877664 0.1789305 0.20990358 0.012124996 -0.11133278 -0.042793613
-0.08762859 -0.13556662 -0.037403062 0.1306023 -0.30696976 -0.1167479 -0.055076275 -0.12022915
0.2088215 -0.27661863 -0.011730551 0.20186771 0.10500396 -0.11133827 -0.25336608 0.03424164
-0.11258769 -0.16264473 -0.23195463 0.061069556 0.22253357 -0.012161154 0.13630238 -0.12892874
0.11704025 -0.012497156 0.3639612 0.014771007 -0.13503595 -0.067078665 -0.08635925 -0.15017833
0.21213393 -0.06347617 -0.1154804 -0.019836258 -0.05389517 -0.3011632 0.039270062 -0.11388929
-0.014578369 0.37994385 -0.12914857 0.2730423 -0.3105139 0.24964504 0.24529727 -0.12801632
0.061029352 -0.27785423 -0.28461358 -0.23644754 0.376274 0.33309203 -0.31321844 -0.44240734
-0.375109 0.27494493 -0.2672664 -0.32430097 -0.52094775 -0.5931906 0.5053598 0.48430437
-0.4874523 -0.3984457 -0.10825614 0.049852233 -0.13661784 0.20922828 0.41869 -0.3063241
-0.034805868 0.3637152 -0.33802813 -0.6228655 -0.3479528 0.20457146 -0.3307054 -0.28536156
0.3639233 -0.102582075 -0.27748564 -0.26228175 0.67835 -0.35497445 -0.464757 -0.27097738
0.25900552 0.5325854 0.2490538 -0.34133935 -0.21410246 -0.48251536 0.39561945 -0.3577754
0.29258138 0.3330184 -0.21856539 -0.06833898 -0.29813865 0.0101924725 -0.33855698 0.23676418
-0.49735156 0.1621949 -0.2555411 -0.046977077 0.052586906 -0.4008997 0.39825433 0.49741864

linears.5.bias f4 [3]
00000000: 082f 78bc a401 923b db35 393e
-0.015147932 0.004455762 0.1808695

exp_avg f4 [64, 2]
00000000: 6a5d 723b 7670 46bc 9758 c239 1bb2 5bbc
00000010: 6130 0b3a 595d bcbb 8d46 c9bb d90d 153c
00000020: 5d80 d6bb 2169 d1bc 29c7 3dba ef66 0bbc
00000030: 04f5 68ba 57cb b23c 6625 5dbb 9f4a acbb
00000040: 011d 9abb f9dc 0eba 6194 57bb 6d92 e4b8
00000050: 4988 2abb 113a 3ebc 771b 90ba 9d59 7dba
00000060: e92f 18ba f378 8f3c fdd0 83b9 ca7f 65bc
00000070: e33d 9b3a b736 403c d456 33bb d3ca 17ba
00000080: 711a 8b3a 816f 443b cd2b 263a d523 573c
00000090: d66a d73a b9e9 78bc 9d61 d5b9 d000 63bc
000000a0: 9afd 59bb 66f5 04bc 05db 513b f476 a83a
000000b0: 1c5b 7abb ed84 973c 643a 9d39 2121 273c
000000c0: 97b6 a33a 7e98 ccbc 5adc 04b9 0735 bcbb
000000d0: 934a a8ba f6f1 79bc 7c99 9cba b810 113a
000000e0: 3c08 1d3a 55fd 3cbc 8958 38bb a347 3c3c
000000f0: 2cd2 9fba 1180 653c 1470 8eba f957 12bb
00000100: ea3b ac38 fd6d df3b e89f fe3a 6077 50bb
00000110: 8348 79ba bf74 3f3c d674 283b 0d35 633a
00000120: 4752 263b bb5b 91bb e125 153b c60b cbbc
00000130: ec5f 9d3b 3caa 493c e81a 19bb 4db2 363b
00000140: 865e 0a39 a4ba 80bb 2d9a 4c3b 63d7 c939
00000150: 07e5 483b da5d 453c 5776 023b a791 ce3b
00000160: 59fd 013b df4e 6d3b 048f d03a 9602 6a3b
00000170: f964 12bb 7a05 0dbc bd9d 7bba 9300 643c
00000180: 30a9 483b 41ae 04bb c05d bcba 6de5 303c
00000190: 95c1 863b 4730 533a ed7d 703a e9ff 5c3c
000001a0: afb6 993a c297 493b d1b2 14bb 3e94 0cbc
000001b0: e83c 6ebb ce96 ae3b 0a4e bbba fb93 90bb
000001c0: ac31 f83a e4a9 ad3b 0996 0a3b b10b a43c
000001d0: 8ee4 99ba 1c18 9bbb 31e2 03ba f7fb 34bc
000001e0: 320d 5f3b 4b93 513c 1965 773b 05bf 4dbc
000001f0: 4c3a 8e3b a30d d63b 10df 273b addd 823c
0.0036981949 -0.012111774 0.00037068568 -0.013409163 0.0005309638 -0.0057484326 -0.0061424435 0.00909754
-0.006546064 -0.025562825 -0.0007239455 -0.008508428 -0.0008886608 0.021825476 -0.0033744215 -0.005257919
-0.0047031646 -0.00054497976 -0.0032894837 -0.00010899161 -0.0026021174 -0.011610524 -0.0010994513 -0.00096645375
-0.0005805479 0.017513728 -0.00025141975 -0.014007518 0.0011844005 0.011731795 -0.0027364986 -0.0005790416
0.0010612739 0.0029973688 0.0006338924 0.013131102 0.0016435038 -0.015192443 -0.00040699253 -0.013855174
-0.003326273 -0.008115148 0.0032021415 0.0012852834 -0.0038201278 0.018496001 0.00029988878 0.01020077
0.0012490329 -0.024975058 -0.00012670588 -0.005743626 -0.0012839608 -0.015255442 -0.0011947597 0.00055338023
0.0005990302 -0.011535008 -0.0028128943 0.011491689 -0.0012193373 0.014007584 -0.0010867142 -0.0022330268
8.212759e-05 0.0068185315 0.0019426318 -0.0031809434 -0.0009509401 0.011685549 0.0025704405 0.0008667268
0.002537863 -0.004435984 0.0022758173 -0.024785887 0.0048026945 0.012308653 -0.0023361985 0.0027877272
0.00013195918 -0.0039284993 0.0031219826 0.00038498183 0.003065409 0.012046302 0.0019906962 0.006303984
0.0019834845 0.003621034 0.0015911763 0.0035707108 -0.0022338016 -0.008607263 -0.0009598395 0.0139161525
0.0030618422 -0.0020245465 -0.0014371201 0.010796887 0.0041124322 0.0008056205 0.0009174038 0.013488748
0.0011727418 0.003076062 -0.002268959 -0.008580266 -0.003635222 0.005328036 -0.0014290225 -0.004412172
0.0018935702 0.0052997936 0.0021146557 0.020025106 -0.0011741088 -0.0047330987 -0.00050309586 -0.011046401
0.0034034965 0.012791465 0.0037749468 -0.01255775 0.0043404456 0.0065323873 0.0025615133 0.015974844

exp_avg_sq f4 [64, 2]
00000000: 6dd9 323c ada7 543d a212 cf3b dfd1 453c
00000010: 202b 4139 b079 853c 0227 bb3b b0a6 3e3d
00000020: 0d21 043e 4015 4b3d 2eae 6d3c 4b01 923c
00000030: 93f3 a03d a5ea 853d c989 9d3c e790 043d
00000040: f2a5 343c 6125 fc3b 07f0 2b3c 98a5 a53b
00000050: 59a5 5b3d 8611 503c 9cd2 213c 208c 4e3b
00000060: 7425 f83c ffff 123d d923 5c3b 15f6 5c3d
00000070: 8b16 fe3b e663 473c 5d38 8a3c 600c 2f3c
00000080: 8c33 0f3c db46 0c3d 40af d03c 8e9e bb3c
00000090: 6ad3 9b3c db1e 193d 1e1b 1e3c 64dd 2d3d
000000a0: 92b0 b43c 5177 c53b 73ec c43a b4de 133b
000000b0: c794 3a3d 8848 8b3c 98d1 9f3c aeeb 783c
000000c0: 217a 1a3d cefa 353d 3f45 823c 373a 263d
000000d0: c00d af3c c43b 993c 4a31 833c 428a 083c
000000e0: dfb8 f73b 604e 653c a30a 763c 1ba4 153d
000000f0: eb5d 9a3c f15d 023d d1cf 3c3b 3ff9 123d
00000100: 184f 8e3c 9336 523b b375 2b3a 0b52 b13c
00000110: 3765 153d 37aa 153c 9fe1 0b3c eb4c 4f3d
00000120: ef71 9b3b dbdf 853c 5a52 053d 82b5 983d
00000130: 71bb 003d fab5 b73c 5074 123a a3a7 183d
00000140: ae89 043c 03dc c83a b570 d33b b95a fd3b
00000150: 0dc5 393d 9f15 f33c a6f2 583c 4b8f 543d
00000160: 43c6 3f3c 1850 a13b a68e 9e3b 5509 883c
00000170: e15c 8f3c b1dc 023d 1000 963b 19dc 643d
00000180: 127c f13b 5035 473b 5ac8 1a3b 6da4 cb3c
00000190: 36f9 c03c c976 d43c 95d0 7f3c 2ac8 013d
000001a0: c668 1f3c 0e92 1c3a 00e3 433d 5438 0f3c
000001b0: 1338 e23b 2a11 e53a 6eca aa3c dcb7 f33a
000001c0: cc33 3c3c 18bd f43b 2bdf 533d b3ad de3c
000001d0: 6177 223b a89a c63c bfd6 153d 7b92 b83b
000001e0: 2f9d 4c3c e9c8 5f3c d9d9 ea3a 453d 143d
000001f0: e897 3c3d f87f 163b 1eae 1c3d e764 073d
0.010916096 0.05191772 0.00631936 0.012073963 0.0001842198 0.016293377 0.005711437 0.046545684
0.12903233 0.049580812 0.01450686 0.017822882 0.07858958 0.065388955 0.01923074 0.032364752
0.011025893 0.0076948856 0.010494239 0.0050551407 0.053624485 0.01269949 0.009876873 0.0031516626
0.030291297 0.03588867 0.0033590703 0.05394562 0.007754152 0.012169814 0.01687258 0.010684103
0.008740317 0.03424726 0.02547419 0.022902753 0.019021709 0.03738294 0.00965002 0.042447463
0.022056852 0.0060261865 0.0015024081 0.0022563161 0.04555204 0.017002359 0.019509122 0.015192909
0.037714127 0.04442864 0.01590216 0.04058286 0.021368861 0.018705256 0.016014714 0.0083337445
0.00755988 0.013995737 0.015017184 0.036533456 0.018843612 0.03182787 0.0028810392 0.03588223
0.0173717 0.0032075986 0.0006540671 0.021645566 0.03647348 0.009134821 0.008537679 0.050610464
0.0047438066 0.016342094 0.03254924 0.07456495 0.031428758 0.02242564 0.000558679 0.037269246
0.008089466 0.0015324358 0.0064526447 0.0077317622 0.045353938 0.029673396 0.013241446 0.051894467
0.011704984 0.004922878 0.0048387824 0.016606012 0.017500343 0.03194875 0.004577644 0.055873964
0.0073695267 0.0030396767 0.0023617954 0.024858678 0.023556333 0.025935547 0.015613695 0.031685032
0.00972957 0.00059726916 0.047823906 0.008741457 0.006903657 0.0017476429 0.02084848 0.0018594223
0.011486959 0.007468831 0.0517265 0.027182436 0.0024790394 0.024243668 0.03658175 0.005632696
0.012488647 0.013658741 0.0017917707 0.036191244 0.046043307 0.002296446 0.03825199 0.033055212

exp_avg f4 [64]
00000000: 192c 63bb cc9d bbbb 2378 4aba 9a38 e33b
00000010: 3bae fdba 838e 003b 77fe 0e3b 973e 103b
00000020: 16bd 853a 32c3 b6ba b2ac 20ba 2499 26bb
00000030: 2242 c63b 36bc b7ba 073c ba3b 8af6 9f3b
00000040: 6f35 143b 81f9 293a 0114 16bb 74e2 e8b9
00000050: a999 a23b c722 77bb b15d da3b e541 5a3a
00000060: a0b4 fcbb 4b3e 20bb 4108 c3bb fa5c ac3b
00000070: 89be 3abb 0780 0c3a 6454 813b fe70 b9b9
00000080: cd16 66ba adf0 0ebb 92ee adbb ee95 cbba
00000090: eaf5 4d3b 88e6 d5bb f223 6f3b fcf1 573b
000000a0: 448b 82bb e459 66ba de5b cfbb 0a13 52ba
000000b0: d673 763b 75f0 cdb9 ae32 d73a c1b6 d43b
000000c0: 6c1e 16bb 7803 6b3b 65bc 81ba 8304 dbba
000000d0: db90 163b 1b4f 08bb bb87 073c 3df9 c93a
000000e0: 2acf 03bb da8a 0e3b 120a babb 4042 b63a
000000f0: 7016 293b f538 0fbc 01c5 bdbb 5761 5a3b
-0.0034663735 -0.005725598 -0.000772359 0.0069342377 -0.0019354293 0.0019616194 0.0021819153 0.0022009963
0.0010203447 -0.0013943671 -0.0006129249 -0.0025420869 0.006050364 -0.0014017883 0.0056834253 0.0048816847
0.0022614857 0.00064840174 -0.0022900107 -0.0004441921 0.0049621654 -0.0037709938 0.006664001 0.0008325859
-0.007711962 -0.0024451192 -0.0059519117 0.005260107 -0.0028494915 0.0005359654 0.0039468277 -0.00035370135
-0.00087772013 -0.0021810934 -0.005307981 -0.0015532353 0.0031427094 -0.0065277256 0.003648993 0.003295063
-0.003983887 -0.00087871985 -0.00632809 -0.00080137013 0.0037605665 -0.000392798 0.0016418302 0.0064915125
-0.0022906316 0.0035860222 -0.0009898065 -0.0016709719 0.0022974524 -0.0020799104 0.008272107 0.0015409362
-0.0020112493 0.0021750242 -0.00567747 0.0013905242 0.0025800727 -0.008741607 -0.005791307 0.003332218
