model.ckpt-6000.pt (torch, 219174 bytes, 36 tensors)

linears.0.weight f4 [64, 2]
-0.095823556 0.33450103 -0.17165086 -0.13351634 -0.036964454 -0.2617333 0.053897068 -0.15025426
-0.2905815 0.32343784 -0.17952937 -0.23375621 0.20028453 0.22952133 -0.1363485 0.23917049
-0.25492677 0.16358891 0.16885892 -0.14648141 -0.12506436 -0.020672882 -0.19912414 0.11213539
0.14014296 0.38746998 0.016545285 0.21771975 0.12969553 0.024675254 -0.15732959 0.17929672
0.29936144 -0.31827202 0.15364513 -0.19622292 -0.1989453 -0.21268895 -0.07290101 -0.21713491
-0.2626725 0.06666624 -0.037298165 0.08149382 0.20150217 0.31311357 0.22321405 0.19422604
-0.072216816 -0.23633654 -0.1255334 0.2094271 -0.13962454 -0.055510737 -0.15402976 0.18163171
-0.26017052 -0.23511335 0.11783135 -0.20722806 0.18523256 -0.3873675 -0.01823807 0.301255
0.27456143 0.116381645 -0.017396018 0.17591591 0.26140282 0.22652806 0.027063556 -0.28973156
0.25050703 0.12585868 0.020714907 0.237829 0.27512765 0.18039533 0.046329506 -0.22481146
0.27168268 -0.045008015 0.07214338 -0.1713647 0.15349786 0.1288274 0.2789409 0.30828157
0.31316423 -0.17499217 -0.003333367 -0.29367167 -0.13535576 -0.25260702 -0.010484076 0.29261082
0.340367 -0.28238875 0.012510973 -0.22055027 -0.066910796 0.15229978 0.16526912 -0.28567135
0.2904742 0.03853082 -0.15713525 0.058421783 -0.35591078 0.08199578 -0.24446014 -0.084746264
0.25164053 0.29149285 0.15411513 0.28806993 0.038738642 -0.13085784 -0.2266226 -0.051710468
0.0731444 0.049431067 0.13045633 -0.12941621 0.28125778 -0.044615045 0.14275178 -0.22338013
00000000: 243f c4bd b843 ab3e 3ec5 2fbe 82b8 08be
00000010: 0a68 17bd e801 86be 2cc3 5c3d 41dc 19be
00000020: 19c7 94be a599 a53e 8cd6 37be ca5d 6fbe
00000030: 6317 4d3e a407 6b3e f19e 0bbe 1ce9 743e
00000040: c385 82be da83 273e 5ae9 2c3e 39ff 15be
00000050: df10 00be 2d5a a9bc 33e7 4bbe 3da7 e53d
00000060: a381 0f3e 7762 c63e fa89 873c edf1 5e3e
00000070: e8ce 043e c223 ca3c 021b 21be 8f99 373e
00000080: e745 993e 8df4 a2be 2655 1d3e a9ee 48be
00000090: 51b8 4bbe 22cb 59be 204d 95bd 9d58 5ebe
000000a0: 037d 86be 4f88 883d f6c5 18bd 3be6 a63d
000000b0: 9656 4e3e 6c50 a03e 3992 643e 31e3 463e
000000c0: 69e6 93bd 3502 72be d48b 00be 0f74 563e
000000d0: bcf9 0ebe 3a5f 63bd fab9 1dbe aafd 393e
000000e0: 1235 85be 8ec1 70be 9051 f13d 9833 54be
000000f0: 9bad 3d3e 0855 c6be 0168 95bc 183e 9a3e
00000100: 5193 8c3e 8059 ee3d 1882 8ebc 4d23 343e
00000110: 97d6 853e f9f6 673e 64b4 dd3c b257 94be
00000120: 7542 803e 19e1 003e 4fb2 a93c 7289 733e
00000130: 88dd 8c3e 8eb9 383e 02c4 3d3d fa34 66be
00000140: fe19 8b3e 535a 38bd e9bf 933d 3a7a 2fbe
00000150: 8b2e 1d3e 54eb 033e 57d1 8e3e 15d7 9d3e
00000160: 1057 a03e 2631 33be 9e74 5abb 225c 96be
00000170: b39a 0abe b555 81be 67c5 2bbc 16d1 953e
00000180: 9544 ae3e 4295 90be d3fa 4c3c eed7 61be
00000190: 8708 89bd 79f4 1b3e 4f3c 293e 8443 92be
000001a0: 09b9 943e 7ed2 1d3d 10e8 20be ae4b 6f3d
000001b0: f039 b6be 67ed a73d c253 7abe 738f adbd
000001c0: 07d7 803e 8d3e 953e 5bd0 1d3e e77d 933e
000001d0: 69ac 1e3d 99ff 05be c10f 68be 5bce 53bd
000001e0: bbcc 953d 3b78 4a3d 5896 053e af85 04be
000001f0: 0501 903e 44be 36bd 862d 123e c3bd 64be

linears.0.bias f4 [64]
0.106343955 0.18996377 -0.0149915125 -0.011274038 0.07366306 0.04859202 0.021670446 -0.008419674
-0.010843463 0.11370007 -0.020059878 -0.08920975 -0.17551838 0.19698523 -0.24096055 -0.16747893
0.08821751 -0.035223275 0.018962763 0.045812864 0.013118932 0.02251421 -0.021684704 -0.047279444
0.37111515 -0.018762914 0.07563306 -0.27302524 0.08276647 -0.02235014 -0.10397161 0.094514556
0.088760175 0.09828048 0.052942175 0.079383835 0.15667622 0.27029142 -0.06241302 -0.06109291
0.203834 0.04639479 0.055762704 0.07799898 -0.094372086 -0.023048427 -0.051495403 -0.10741827
0.22567327 -0.17423275 -0.2156044 -0.21261889 -0.0437669 0.05523703 -0.28630888 -0.120905824
0.0726988 -0.06688303 0.038330317 -0.056475125 -0.03768388 0.13981637 0.065916225 -0.1293966
00000000: dcca d93d dd85 423e f69e 75bc beb6 38bc
00000010: a9dc 963d 6d08 473d 3886 b13c acf2 09bc
00000020: c8a8 31bc 95db e83d 9d54 a4bc 9ab3 b6bd
00000030: 17bb 33be 7fb6 493e 5dbe 76be 997f 2bbe
00000040: 62ab b43d 4846 10bd cc57 9b3c 45a6 3b3d
00000050: caf0 563c b86f b83c 1fa4 b1bc 17a8 41bd
00000060: ce02 be3e afb4 99bc 81e5 9a3d f7c9 8bbe
00000070: 7881 a93d a417 b7bc 11ef d4bd d990 c13d
00000080: e5c7 b53d 4747 c93d e5d9 583d fe93 a23d
00000090: bb6f 203e a363 8a3e cba4 7fbd 8f3c 7abd
000000a0: dcb9 503e 7708 3e3d 6f67 643d eebd 9f3d
000000b0: 2746 c1bd 0ed0 bcbc d8ec 52bd 1cfe dbbd
000000c0: e516 673e 126a 32be 66c7 5cbe c4b8 59be
000000d0: ec44 33bd 3940 623d 1497 92be 799d f7bd
000000e0: 1ce3 943d f8f9 88bd 4000 1d3d 7652 67bd
000000f0: 6a5a 1abd 062c 0f3e 16ff 863d 8b80 04be

linears.1.weight f4 [64, 64]
-0.17102367 0.07814608 -0.14719205 0.21972536 0.036993697 0.15727292 -0.030263774 -0.18693747
0.082600154 -0.07956552 0.19186297 -0.12163797 -0.0593944 0.14021826 -0.12218728 0.13427176
0.041776307 0.12053293 -0.007498134 0.21850334 0.086671226 -0.12870987 -0.049224753 -0.15863886
0.19967031 0.044001672 -0.11397843 -0.12810628 -0.18161874 0.00062234316 0.035727337 0.042201087
0.053759187 -0.04062028 -0.122121386 0.0511093 -0.08592294 -0.05878848 -0.14165889 0.1906642
-0.21385376 -0.18246081 -0.21500012 -0.20736083 -0.097401075 0.06467414 -0.019636914 -0.02125966
0.20698859 0.045895394 -0.06411773 0.16849637 0.035021313 0.06087258 0.22056453 -0.09934773
0.07243644 -0.22806922 -0.15566625 -0.0029827177 -0.10186498 -0.0575633 -0.04896954 0.14953539
-0.106036104 0.14888735 -0.20793879 -0.02055535 -0.029812464 -0.16958594 0.1267207 0.016609054
-0.14140853 0.06372425 0.017990988 0.13949913 -0.022856435 0.20177491 0.1716779 -0.17203158
-0.120209575 0.20333429 -0.1064099 0.106852174 -0.14083001 -0.15741925 0.20525981 0.19146392
-0.05642569 -0.060753103 -0.08318764 -0.087798916 0.14809082 0.06300718 -0.024165751 -0.09552215
0.17864493 0.18732151 0.24553555 -0.0007023111 -0.1730632 0.2232783 -0.20037866 -0.23791824
-0.17803922 -0.21139589 0.24820878 0.24131809 -0.18082727 0.14582203 -0.22808845 0.032561466
0.12492996 0.04659951 -0.14468531 -0.039844085 -0.10694562 0.017317915 0.012246012 -0.14745568
0.08068415 0.18054529 -0.19657262 0.072562814 0.19172783 -0.07415543 0.080437 0.18774302
0.067498155 -0.13645172 -0.17666651 0.18280824 -0.0040016165 0.14208281 -0.07835591 -0.03965444
-0.10245152 0.07490365 0.16447335 -0.20494515 -0.08354502 -0.24044816 -0.033126883 -0.08128515
0.17465128 -0.0642705 -0.04270953 0.2075132 0.18959226 -0.027714442 -0.04750114 -0.13977623
0.16399598 -0.081255235 0.088380225 0.10790452 0.19575743 -0.0027670288 0.18060678 -0.15759896
-0.061779257 -0.01992344 0.1492818 -0.041125853 -0.024201214 -0.239224 0.1823064 0.017406803
-0.04400334 0.15037988 0.13113952 0.044661745 0.22571377 0.18158574 0.013139237 0.05985408
0.2152129 0.1752729 -0.24331787 0.1781035 0.21488622 -0.19914927 0.16466656 0.049890406
-0.094720155 0.15708266 -0.023188269 0.049987033 -0.062845804 -0.01300381 -0.13896723 0.18812273
0.03736072 0.100023806 0.16973786 -0.010028421 -0.014134575 0.10163305 0.05459799 0.20926777
0.14262873 0.13115896 0.08798308 0.009872359 -0.053782016 0.015769832 0.18941203 0.19983459
0.20945679 0.14175132 -0.00494727 -0.13887775 0.012964364 -0.033577755 -0.034705505 0.116200745
-0.095339544 -0.15389457 -0.071702026 0.077148296 -0.1362957 0.12139075 0.20103675 0.013728825
-0.06346837 -0.047478117 -0.21413003 0.090957515 0.0517014 -0.23897935 -0.12538253 0.16142155
-0.0691038 0.0050145956 -0.08871534 -0.10910745 0.08934251 -0.12594058 0.10607831 0.07254263
-0.16865821 -0.11940741 0.06278385 0.019604934 -0.13555686 0.09443305 -0.031013329 0.13751516
-0.24885836 -0.10156528 -0.10607402 0.13919137 0.15091532 -0.21501762 -0.0754331 0.12325159
00000000: d420 2fbe 0d0b a03d 83b9 16be afff 603e
00000010: b486 173d 270c 213e bceb f7bc 896c 3fbe
00000020: 452a a93d 3ff3 a2bd ba77 443e 541d f9bd
00000030: 8b47 73bd 6095 0f3e 533d fabd 897e 093e
00000040: a21d 2b3d f8d9 f63d e8b2 f5bb 57bf 5f3e
00000050: af80 b13d 85cc 03be e59f 49bd 3a72 22be
00000060: 6076 4c3e 193b 343d 866d e9bd 4b2e 03be
00000070: 43fa 39be be24 233a d456 123d 0cdb 2c3d
00000080: 9832 5c3d 7361 26bd c71a fabd fc57 513d
00000090: 5ef8 afbd 30cc 70bd 070f 11be 7a3d 433e
000000a0: 7bfc 5abe 02d7 3abe fe28 5cbe 6656 54be
000000b0: 377a c7bd e073 843d 98dd a0bc bd28 aebc
000000c0: d1f4 533e cffc 3b3d 2850 83bd 508a 2c3e
000000d0: 8272 0f3d 8755 793d abdb 613e d376 cbbd
000000e0: 8e59 943d fa8a 69be f966 1fbe b379 43bb
000000f0: 969e d0bd 7fc7 6bbd 4994 48bd ce1f 193e
00000100: 7529 d9bd ed75 183e e8ed 54be b263 a8bc
00000110: 4539 f4bc f0a7 2dbe 12c3 013e b60f 883c
00000120: 66cd 10be dc81 823d d661 933c dcd8 0e3e
00000130: 6b3d bbbc 159e 4e3e 55cc 2f3e 0c29 30be
00000140: 7030 f6bd dd36 503e 6fed d9bd 50d5 da3d
00000150: be35 10be 8332 21be a12f 523e 1e0f 443e
00000160: a01e 67bd 3fd8 78bd 485e aabd ebcf b3bd
00000170: 1fa5 173e e909 813d 41f7 c5bc 1ea1 c3bd
00000180: b2ee 363e 36d1 3f3e ac6d 7b3e 4d1b 38ba
00000190: 7b37 31be 11a3 643e 1030 4dbe d7a0 73be
000001a0: ea4f 36be 2a78 58be 712a 7e3e 171c 773e
000001b0: c92a 39be 5f52 153e 0590 69be 2c5f 053d
000001c0: 47db ff3d 21df 3e3d 6328 14be 8d33 23bd
000001d0: 4e06 dbbd 4dde 8d3c 7fa3 483c 9ffe 16be
000001e0: bb3d a53d dde0 383e 554a 49be d09b 943d
000001f0: 4d54 443e cdde 97bd 27bc a43d b53f 403e
00000200: 793c 8a3d 00ba 0bbe 11e8 34be 1532 3b3e
00000210: fe1f 83bb 287e 113e 1079 a0bd b26c 22bd
00000220: 1ad2 d1bd 1667 993d b46b 283e 24dd 51be
00000230: a719 abbd 0b38 76be 0eb0 07bd d478 a6bd
00000240: c9d7 323e 40a0 83bd 30f0 2ebd 577e 543e
00000250: 7924 423e 6609 e3bc 8e90 42bd 8021 0fbe
00000260: 90ee 273e 2569 a6bd b100 b53d 0cfd dc3d
00000270: a374 483e 0a57 35bb fcf0 383e 9f61 21be
00000280: 3f0c 7dbd 7b36 a3bc 54dd 183e 9573 28bd
00000290: a041 c6bc 23f7 74be 87ae 3a3e b698 8e3c
000002a0: d93c 34bd 2ffd 193e 7049 063e 3cef 363d
000002b0: 8321 673e 9df1 393e f445 573c 8d29 753d
000002c0: c560 5c3e bd7a 333e 5228 79be c460 363e
000002d0: 220b 5c3e c9ed 4bbe 5a9e 283e e259 4c3d
000002e0: a4fc c1bd 47da 203e 53f5 bdbc 34bf 4c3d
000002f0: 4db5 80bd ef0d 55bc 6d4d 0ebe 3fa3 403e
00000300: 8e07 193d 48d9 cc3d c3cf 2d3e 3f4e 24bc
00000310: b494 67bc fd24 d03d 24a2 5f3d 4a4a 563e
00000320: 440d 123e 894e 063e 7930 b43d adbf 213c
00000330: 884a 5cbd bc2f 813c 3af5 413e 70a1 4c3e
00000340: d77b 563e 4227 113e b51c a2bb f835 0ebe
00000350: 7c68 543c d488 09bd 5c27 0ebd a8fa ed3d
00000360: 6141 c3bd 8a96 1dbe 83d8 92bd edff 9d3d
00000370: 1a91 0bbe b79b f83d 94dc 4d3e deee 603c
00000380: b4fb 81bd 6a78 42bd e744 5bbe ef47 ba3d
00000390: d9c4 533d 01b7 74be 4764 00be b14b 253e
000003a0: 4b86 8dbd 7a51 a43b 63b0 b5bd ba73 dfbd
000003b0: 35f9 b63d 91f6 00be 963f d93d 3b91 943d
000003c0: bdb4 2cbe df8b f4bd d294 803d 879a a03c
000003d0: 6bcf 0abe 1d66 c13d aa0f febc c6d0 0c3e
000003e0: bad4 7ebe 7501 d0bd 563d d9bd 2f88 0e3e
000003f0: 8c89 1a3e 942d 5cbe ab7c 9abd 546b fc3d

linears.1.bias f4 [64]
-0.0014530411 0.04391112 -0.052819207 -0.12281533 0.027566092 0.066188164 -0.08904672 -0.14173631
0.013619624 -0.06764528 -0.025270093 -0.052661236 0.17979056 -0.036410745 -0.09342221 0.00050407124
-0.061046116 -0.04144728 -0.01690207 0.13449194 0.092518575 0.02681429 0.011333875 -0.040023733
0.072533 -0.0015614666 -0.07622988 0.15326083 0.022204377 0.021164712 -0.17663375 -0.04074455
0.01712762 -0.05797934 0.16885085 -0.20386152 -0.007944077 -0.1885519 0.02272808 0.07049204
-0.0073453323 -0.05823073 -0.12176986 -0.16330616 -0.20326048 0.16509259 -0.010974928 -0.03144056
0.03545705 -0.034903113 0.035178944 0.09904853 -0.19563434 -0.032056738 0.07525864 -0.1429042
0.00980672 0.013632658 -0.016506413 -0.007935029 -0.0016115692 0.05251743 -0.062073123 -0.0022420431
00000000: f873 beba 26dc 333d f458 58bd 9b86 fbbd
00000010: 49d2 e13c a98d 873d 205e b6bd 5323 11be
00000020: d824 5f3c 9c89 8abd 3a03 cfbc 4fb3 57bd
00000030: 041b 383e 6f23 15bd 2554 bfbd a623 043a
00000040: 7e0b 7abd a0c4 29bd 3676 8abc 41b8 093e
00000050: 617a bd3d a4a9 db3c b8b1 393c edef 23bd
00000060: 2e8c 943d 20aa ccba 691e 9cbd 68f0 1c3e
00000070: f4e5 b53c 9e61 ad3c 7adf 34be c2e3 26bd
00000080: 394f 8c3c bf7b 6dbd 3de7 2c3e 13c1 50be
00000090: e027 02bc c013 41be 3d30 ba3c 215e 903d
000000a0: 1db1 f0bb 5983 6ebd 7a62 f9bd bb39 27be
000000b0: 8423 50be 080e 293e 2fd0 33bc d1c7 00bd
000000c0: 693b 113d 91f6 0ebd cc17 103d f5d9 ca3d
000000d0: 5e54 48be ed4d 03bd 3421 9a3d 7b55 12be
000000e0: 5dac 203c 835b 5f3c 7538 87bc ed01 02bc
000000f0: 4a3b d3ba 841c 573d 6340 7ebd 3eef 12bb

linears.2.weight f4 [64, 64]
-0.14361425 0.15990578 -0.14428376 -0.045735683 -0.17125872 -0.10465909 0.16680385 0.114680864
-0.05961758 -0.17302318 0.073842585 -0.019284617 0.18127245 0.16085827 0.07285175 0.2937667
0.12872231 -0.02899624 0.058360588 -0.032184996 -0.1316777 -0.014276645 -0.084374174 -0.07936596
-0.06357981 -0.17392106 -0.08656627 -0.23485571 -0.13957265 -0.099994965 0.09894545 0.0952642
-0.05813298 0.07669076 0.17772523 -0.058106814 -0.16642815 -0.10291595 -0.17890072 -0.15337539
0.106465384 0.17686187 0.16447571 -0.17775145 -0.10979137 -0.15532713 0.022467287 -0.02506357
0.18917899 -0.0063555627 -0.017338598 -0.12652458 0.07148185 0.13433538 -0.053689763 0.03957555
0.13942629 0.17030084 0.28987157 0.06531118 0.19424368 -0.09193949 -0.17674874 -0.092218846
-0.08511269 -0.024284123 -0.14756453 -0.076875284 0.13684918 -0.08089571 -0.041987088 0.013702479
-0.06778592 0.122609615 -0.21922418 0.15717773 0.13725379 -0.032005135 -0.08290665 0.042927563
-0.16932976 0.23445837 0.1030378 -0.072601564 -0.1359863 0.20652512 0.023686262 0.17082545
-0.16734627 0.06023958 -0.24107076 0.061061088 -0.005225732 -0.017414324 0.22364306 -0.038957268
-0.12837571 0.11336724 -0.19535683 -0.05757161 -0.084115274 -0.07282852 -0.004821481 0.055893622
0.084175535 0.05495005 0.06972068 0.08274329 -0.1686645 0.10076246 -0.0018021122 -0.0725269
0.19684975 0.13813533 0.028117176 0.071407355 -0.01568783 -0.014125785 -0.12868863 0.012011071
0.14498833 0.05095702 0.10663154 0.04146804 -0.019799715 0.01487565 0.037052393 -0.18979158
-0.20293753 0.120763965 -0.18395571 0.11014348 0.1578385 0.104302935 0.09249958 0.13378116
0.017587675 0.085302494 0.15285186 0.09216623 0.12295395 0.16767912 0.15633592 0.114596255
-0.10028786 -0.13779703 0.04562289 -0.12091299 -0.098756656 -0.16187023 -0.030123219 0.040880185
-0.22072436 -0.0919844 -0.08630226 0.1606644 -0.055832807 -0.013885563 0.0280591 -0.16874781
0.21973285 -0.017894568 -0.1784177 0.16801466 -0.17273471 0.070106275 0.058682382 0.018818958
0.055225957 -0.0021071404 0.16994393 0.079456195 0.049258582 -0.19270729 0.035895016 0.020163804
-0.10243939 0.22251809 -0.07487671 0.044986606 -0.15976712 -0.06585783 -0.18304208 -0.018840201
-0.14557844 -0.15681419 -0.18663496 -0.034333024 0.09454235 -0.09424405 -0.045490064 -0.10941165
-0.11169547 0.1477074 0.108312115 -0.09443171 0.26017168 0.13802233 -0.2099288 -0.12122715
-0.1727743 -0.27368167 0.19608723 0.1621502 0.12215674 0.20031932 -0.25235242 -0.0074715563
-0.05990265 0.001911182 0.17175035 0.26588073 0.22898327 0.13402653 0.028900608 0.07937758
-0.13263784 0.040277895 -0.14693038 0.14179482 0.2545993 -0.11100677 -0.03187783 -0.26583648
0.15472558 -0.2452856 0.108361736 -0.25272453 -0.19352625 -0.032507837 -0.10099187 0.14175475
0.12165846 -0.13977659 -0.1412807 -0.1589462 -0.25347108 0.22370146 -0.11907064 -0.14103341
0.023460897 -0.23506147 -0.09539827 0.06791544 -0.20442238 0.041528124 -0.17881954 -0.09843039
-0.07102451 0.08970426 -0.08850516 -0.19254237 0.09651402 -0.019940961 -0.24675395 0.115091875
00000000: 9d0f 13be 57be 233e 1fbf 13be 5755 3bbd
00000010: 725e 2fbe 8157 d6bd a1ce 2a3e cddd ea3d
00000020: 9031 74bd fd2c 31be c83a 973d c6fa 9dbc
00000030: 7c9f 393e 08b8 243e 4c33 953d 9768 963e
00000040: c8cf 033e 8689 edbc 830b 6f3d 6ad4 03bd
00000050: 85d6 06be 97e8 69bc 5ecc acbd 9f8a a2bd
00000060: 2236 82bd 5d18 32be a849 b1bd 047e 70be
00000070: 22ec 0ebe 29ca ccbd e9a3 ca3d e019 c33d
00000080: d91c 6ebd 0c10 9d3d 9afd 353e 6901 6ebd
00000090: 246c 2abe 99c5 d2bd c031 37be 700e 1dbe
000000a0: 860a da3d 471b 353e 526c 283e 7a04 36be
000000b0: 4cda e0bd 130e 1fbe 510d b83c 1e52 cdbc
000000c0: 23b8 413e 5342 d0bb ad09 8ebc a98f 01be
000000d0: 1465 923d 378f 093e cce9 5bbd f919 223d
000000e0: c4c5 0e3e 5863 2e3e 0c6a 943e dec1 853d
000000f0: d1e7 463e c54a bcbd 9ffd 34be 3cdd bcbd
00000100: 904f aebd 7fef c6bc 281b 17be ca70 9dbd
00000110: 3122 0c3e a6ac a5bd a7fa 2bbd 5d80 603c
00000120: 58d3 8abd c01a fb3d 4e7c 60be 33f3 203e
00000130: 428c 0c3e d117 03bd f6ca a9bd d0d4 2f3d
00000140: c864 2dbe db15 703e 7b05 d33d 21b0 94bd
00000150: fe3f 0bbe 527b 533e b109 c23c deec 2e3e
00000160: d25c 2bbe c7bd 763d 41db 76be 311b 7a3d
00000170: 9e3c abbb 7ca8 8ebc b002 653e a891 1fbd
00000180: ec74 03be 152d e83d 9f0b 48be 35d0 6bbd
00000190: a144 acbd 1e27 95bd 84fd 9dbb b6f0 643d
000001a0: 3964 ac3d 4e13 613d b7c9 8e3d 5075 a93d
000001b0: 63b6 2cbe 8c5c ce3d da34 ecba fc88 94bd
000001c0: fb92 493e 5973 0d3e fe55 e63c 053e 923d
000001d0: c483 80bc d66f 67bc f4c6 03be 15ca 443c
000001e0: d277 143e 4fb8 503d a361 da3d 64da 293d
000001f0: 0333 a2bc 00b9 733c 40c4 173d b958 42be
00000200: dbce 4fbe 1953 f73d e35e 3cbe e892 e13d
00000210: 6aa0 213e c79c d53d 6b70 bd3d eefd 083e
00000220: 0714 903c 13b3 ae3d 3385 1c3e a6c1 bc3d
00000230: 48cf fb3d 13b4 2b3e 8616 203e 71b1 ea3d
00000240: b963 cdbd aa1a 0dbe 11df 3a3d 3ba1 f7bd
00000250: ee40 cabd 4fc1 25be f8c4 f6bc fb71 273d
00000260: 9105 62be 5162 bcbd 3dbf b0bd 3585 243e
00000270: f1b0 64bd 4680 63bc 33dc e53c 3acc 2cbe
00000280: a601 613e a197 92bc 21b3 36be 090c 2c3e
00000290: 5ee1 30be e193 8f3d f05c 703d 372a 9a3c
000002a0: 9d34 623d f317 0abb c805 2e3e eeb9 a23d
000002b0: 5ec3 493d 0f55 45be a706 133d 902e a53c
000002c0: becb d1bd c8db 633e f658 99bd e043 383d
000002d0: fe99 23be 78e0 86bd 626f 3bbe c456 9abc
000002e0: 8412 15be e693 20be 3c1d 3fbe c9a0 0cbd
000002f0: 6b9f c13d 0603 c1bd ca53 3abd 3713 e0bd
00000300: 98c0 e4bd 9c40 173e bed2 dd3d 6a65 c1bd
00000310: 3935 853e ba55 0d3e 93f7 56be f145 f8bd
00000320: bfeb 30be 0120 8cbe 17cb 483e b40a 263e
00000330: 502d fa3d 8220 4d3e 5634 81be f5d3 f4bb
00000340: 7b5c 75bd a080 fa3a 53df 2f3e 8521 883e
00000350: 977a 6a3e 403e 093e f8c0 ec3c b690 a23d
00000360: 37d2 07be 6ffa 243d eb74 16be a932 113e
00000370: d75a 823e 8457 e3bd 5492 02bd b81b 88be
00000380: 6270 1e3e 262c 7bbe c2ec dd3d 1c65 81be
00000390: bf2b 46be f026 05bd d3d4 cebd 2828 113e
000003a0: 1228 f93d 9821 0fbe e3ab 10be cbc2 22be
000003b0: f6c6 81be ff11 653e 4fdb f3bd 106b 10be
000003c0: 1131 c03c f4b3 70be 2b60 c3bd 4017 8b3d
000003d0: 1a54 51be 6519 2a3d 781c 37be df95 c9bd
000003e0: 4c75 91bd deb6 b73d 3142 b5bd d429 45be
000003f0: 24a9 c53d 3a5b a3bc 11ad 7cbe 4ab5 eb3d

linears.2.bias f4 [64]
-0.03529972 0.03309174 -0.008452171 0.048521385 0.006281248 0.074429356 -0.079586424 -0.018207401
-0.022867823 0.021602128 -0.03219879 0.032769036 -0.0020232173 0.07881808 0.008410799 0.029839547
0.06362161 -0.03227046 0.06358251 -0.0077748066 0.049435776 -0.012118973 0.08089936 0.042016663
0.024566753 -0.02167121 -0.026856484 0.044989944 0.025984233 -0.07859095 -0.02900515 0.028065788
-0.0029881708 -0.018183421 0.0066093146 -0.02058968 -0.053172596 -0.038026553 -0.028969763 -0.02748598
-0.115929745 -0.0034016054 -0.02766997 -0.12008911 0.015856905 -0.017092695 -0.026845464 0.0037072268
-0.11733441 -0.058847066 0.023423757 -0.046850603 -0.026910009 0.05495116 0.01765264 -0.000114092014
-0.023994112 0.045951746 -0.0076556816 -0.09219071 0.03517155 0.015286141 0.032296747 -0.02098832
00000000: 7096 10bd 348b 073d fa7a 0abc 5cbe 463d
00000010: edd2 cd3b 6b6e 983d 35fe a2bd b027 95bc
00000020: 4d55 bbbc f2f6 b03c e1e2 03bd d338 063d
00000030: f497 04bb 606b a13d 73cd 093c 1172 f43c
00000040: 0c4c 823d 082e 04bd 8c37 823d cec3 febb
00000050: 2b7d 4a3d a88e 46bc 90ae a53d aa19 2c3d
00000060: 3740 c93c d287 b1bc 2102 dcbc 6047 383d
00000070: e3dc d43c 4bf4 a0bd 359c edbc 39ea e53c
00000080: 30d5 43bb 66f5 94bc f392 d83b b0ab a8bc
00000090: 82cb 59bd bbc1 1bbd ff51 edbc 472a e1bc
000000a0: 936c edbd 78ed 5ebb 22ac e2bc 48f1 f5bd
000000b0: 57e6 813c fb05 8cbc 05eb dbbc f2f4 723b
000000c0: 064d f0bd 9f09 71bd 2ee3 bf3c 6be6 3fbd
000000d0: 6172 dcbc 7814 613d 459c 903c af44 efb8
000000e0: 4d8f c4bc e637 3c3d 83dc fabb 7cce bcbd
000000f0: 0b10 103d b972 7a3c 9849 043d b2ef abbc

linears.3.weight f4 [64, 64]
-0.20913133 0.17192043 0.08453737 0.08308859 0.182327 -0.021485483 0.08459947 -0.18198985
0.1074169 -0.18086843 0.0817885 0.16132553 -0.058350112 0.0374285 0.14680268 0.035559546
-0.17403649 -0.12647144 -0.2155253 -0.10800628 0.13330626 0.097482175 0.114314064 0.040793817
0.051757567 0.045353953 -0.011077619 0.05297173 -0.057751335 0.12058395 0.09701032 0.1104166
0.10978699 0.1673508 -0.17769314 0.26248488 0.16326416 -0.08610466 0.20508915 0.046146393
0.117504366 -0.13024382 0.028273484 -0.2458058 0.116023794 -0.15040623 -0.047310498 -0.09094172
0.017170401 0.017664213 -0.18847486 0.20351979 -0.05842108 0.025528198 -0.044646315 -0.11229329
0.14715289 -0.18131743 -0.026192486 0.1270103 -0.16534269 -0.30938965 0.099671714 -0.0021408065
-0.042443044 -0.095862776 0.021465885 -0.13902387 -0.09108039 -0.09053759 -0.029286245 -0.071516305
-0.15130551 -0.17879626 -0.11434145 -0.039530125 0.04851151 -0.14196616 0.02776264 0.024719866
-0.03503377 0.17002293 0.19953713 -0.125806 -0.06321311 0.08571982 0.04173448 -0.05327498
0.027917242 -0.07710179 0.076404214 -0.07509938 0.15085356 -0.13991687 -0.018353947 -0.17972453
0.10211804 0.14957453 0.043044947 -0.023695637 -0.100687474 -0.095661104 -0.08813668 -0.16682546
0.17401415 0.16917945 0.06419148 0.100311816 -0.03482457 0.02454542 0.047908094 -0.039806727
-0.09792536 -0.16422217 0.19754517 0.18925844 -0.13772649 -0.16214135 0.027053012 -0.18437709
0.11756036 0.16843688 -0.24802886 -0.14363046 0.04546024 0.13410266 -0.15833946 0.1955982
-0.12420701 -0.004816907 0.027510636 0.0051503433 -0.030178461 0.057656705 0.027691886 -0.2188308
-0.21955216 0.101402305 0.21343452 0.02480743 -0.09815969 -0.0153780235 -0.21130998 -0.037576348
-0.14863014 -0.029348481 -0.22743689 -0.15413567 0.083916634 -0.08208129 -0.12575299 0.03971283
-0.01600365 -0.094079025 0.17070095 0.16391733 -0.24722153 -0.24586588 -0.14443348 -0.113287024
-0.10462834 0.0044743135 0.08187867 -0.11675393 0.22172187 0.2685565 0.14528382 -0.027835513
0.011306881 -0.073153384 0.06366893 0.07012222 -0.18938571 -0.13420577 0.301452 -0.21454795
-0.11757372 0.24996987 -0.034079883 -0.017832069 0.1841141 0.19514789 0.17589355 0.024657074
0.07676631 -0.094676666 -0.0010386751 0.25055107 0.11969363 -0.10762916 0.17056142 0.14423586
0.16331571 0.03865947 0.17515388 0.104390375 -0.13800183 0.0023296534 -0.31609598 -0.083314516
-0.12049545 0.21132049 -0.17080398 -0.014549801 -0.07552164 0.09296935 -0.13599089 -0.045135368
-0.070858054 -0.059723917 0.22145748 -0.059260666 -0.11707868 -0.010697504 -0.13015051 0.11989234
0.33909696 0.040468972 0.06267922 -0.16706009 0.0768305 -0.012468631 -0.11236403 0.11770945
-0.104697 -0.039115902 -0.1719904 -0.09685221 0.010106136 -0.209074 -0.11774656 0.17320262
0.0005892943 0.12525615 -0.15613624 0.061022338 -0.08579549 -0.18010417 -0.15481877 0.053427197
-0.28503346 -0.033732623 0.23521458 -0.008547956 0.02689395 0.1100425 -0.035101257 0.12555142
0.05170946 -0.1394632 0.09356166 -0.24337867 -0.16793649 0.18374479 -0.06204889 0.09815095
00000000: 8626 56be e90b 303e ee21 ad3d 5a2a aa3d
00000010: eeb3 3a3e 5302 b0bc 7d42 ad3d 8c5b 3abe
00000020: 64fd db3d 9335 39be bb80 a73d 8532 253e
00000030: 8700 6fbd a04e 193d 7153 163e e3a6 113d
00000040: 9f36 32be bb81 01be aab2 5cbe 6632 ddbd
00000050: 7081 083e bca4 c73d 7e1d ea3d 6b17 273d
00000060: beff 533d 11c5 393d e77e 35bc e2f8 583d
00000070: aa8c 6cbd b8f4 f63d 59ad c63d 1922 e23d
00000080: 00d8 e03d 025e 2b3e 31f5 35be 6b64 863e
00000090: b82e 273e a457 b0bd e402 523e 0004 3d3d
000000a0: 21a6 f03d a35e 05be cb9d e73c 84b4 7bbe
000000b0: e29d ed3d 1704 1abe a7c8 41bd a73f babd
000000c0: f1a8 8c3c 8ab4 903c 8eff 40be 7e67 503e
000000d0: f14a 6fbd 8320 d13c 0edf 36bd 06fa e5bd
000000e0: 3faf 163e 47ab 39be a091 d6bc fd0e 023e
000000f0: 984f 29be 5268 9ebe af20 cc3d c64c 0cbb
00000100: c2d8 2dbd b453 c4bd 39d9 af3c 465c 0ebe
00000110: 5b88 babd c66b b9bd b5e9 efbc 2477 92bd
00000120: d5ef 1abe 5e16 37be da2b eabd 57ea 21bd
00000130: 01b4 463d 945f 11be 7a6e e33c 5181 ca3c
00000140: 927f 0fbd 7e1a 2e3e 7653 4c3e 4ad3 00be
00000150: e075 81bd df8d af3d c6f1 2a3d de36 5abd
00000160: b3b2 e43c 8be7 9dbd d079 9c3d b4cd 99bd
00000170: 5b79 1a3e 5e46 0fbe 045b 96bc b509 38be
00000180: 4323 d13d 112a 193e e64f 303d 5a1d c2bc
00000190: 3c35 cebd f8e9 c3bd 0181 b4bd 4bd4 2abe
000001a0: c430 323e 613d 2d3e d376 833d 4870 cd3d
000001b0: 35a4 0ebd 7a13 c93c 473b 443d 610c 23bd
000001c0: 178d c8bd db29 28be 4849 4a3e f7cc 413e
000001d0: 2c08 0dbe 6208 26be 479e dd3c 59cd 3cbe
000001e0: 7cc3 f03d b87a 2c3e 47fb 7dbe dd13 13be
000001f0: 8434 3a3d 3552 093e bd23 22be e54a 483e
00000200: 3f60 febd 25d7 9dbb fc5d e13c 36c4 a83b
00000210: d238 f7bc 7029 6c3d 18da e23c 2e15 60be
00000220: 48d2 60be 03ac cf3d 948e 5a3e f438 cb3c
00000230: f307 c9bd 1bf4 7bbc a561 58be a8e9 19bd
00000240: 8032 18be 3a6c f0bc 37e5 68be bed5 1dbe
00000250: 7cdc ab3d 3c1a a8bd 64c5 00be eca9 223d
00000260: 161a 83bc 81ac c0bd 3bcc 2e3e f2d9 273e
00000270: a427 7dbe 44c4 7bbe 5fe6 13be 0703 e8bd
00000280: 6247 d6bd 439d 923b 01b0 a73d af1c efbd
00000290: 0f0b 633e 3d80 893e 48c5 143e 4d07 e4bc
000002a0: 7f40 393c 71d1 95bd db64 823d 3d9c 8f3d
000002b0: 54ee 41be 3d6d 09be eb57 9a3e 75b2 5bbe
000002c0: 7eca f0bd 1af8 7f3e 5997 0bbd 8f14 92bc
000002d0: 6888 3c3e d9d4 473e 701d 343e a2fd c93c
000002e0: a837 9d3d d7e5 c1bd 2724 88ba 3b48 803e
000002f0: ef21 f53d ad6c dcbd a7a7 2e3e 91b2 133e
00000300: 3c3c 273e 6459 1e3d 8a5b 333e 9fca d53d
00000310: 5a50 0dbe 19ad 183b 55d7 a1be cda0 aabd
00000320: 52c6 f6bd 6664 583e 3de7 2ebe 4a62 6ebc
00000330: 17ab 9abd b766 be3d 3241 0bbe dddf 38bd
00000340: 071e 91bd 11a1 74bd c0c5 623e 50bb 72bd
00000350: f2c6 efbd 9544 2fbc 2d46 05be 1d8a f53d
00000360: 1e9e ad3e cbc2 253d f75d 803d cd11 2bbe
00000370: 4f59 9d3d 3b49 4cbc 1d1f e6bd a711 f13d
00000380: 616b d6bd ff37 20bd 401e 30be 745a c6bd
00000390: 3594 253c 7f17 56be 1c25 f1bd 075c 313e
000003a0: df7a 1a3a 2643 003e 2ee2 1fbe 8ff2 793d
000003b0: 8cb5 afbd 3a6d 38be d088 1ebe 7ad6 5a3d
000003c0: e8ef 91be 382b 0abd 17dc 703e ba0c 0cbc
000003d0: b350 dc3c f65d e13d 56c6 0fbd 8d90 003e
000003e0: 4ccd 533d 71cf 0ebe 419d bf3d 4238 79be
000003f0: 8bf7 2bbe 9827 3c3e fa26 7ebd 5e03 c93d

linears.3.bias f4 [64]
0.025581025 -0.03666551 -0.03632192 0.053289723 0.03664027 0.0006270403 0.023888523 -0.03162052
0.028891735 -0.022386022 0.029860282 0.057969525 0.02637119 0.032126825 -0.061843354 0.06910674
0.0709075 0.031044584 -0.028361943 -0.03928982 -0.010045525 -0.07084273 -0.06436504 0.015099377
0.025580876 -0.011794906 -0.06553436 -0.02367729 0.00014546074 -0.011935742 0.046693947 -0.0024741516
0.02982561 -0.058624472 0.009270222 0.010355889 -0.024609184 0.010578623 -0.023671253 0.008608465
0.017887717 -0.016690705 -0.027536076 0.026124565 -0.053099047 -0.01497493 -0.028511243 0.078022145
0.047446206 0.020576248 0.065121554 -0.024810739 -0.015505429 -0.008728752 0.019642126 -0.015845185
0.027990298 0.026382174 0.01567831 0.039410032 0.022478485 -0.011632903 -0.008747914 -0.047611296
00000000: 4c8f d13c 932e 16bd 4bc6 14bd 5346 5a3d
00000010: 1c14 163d f65f 243a ddb1 c33c 8584 01bd
00000020: 5cae ec3c e462 b7bc 8d9d f43c 7471 6d3d
00000030: 6508 d83c 6b97 033d 754f 7dbd d687 8d3d
00000040: f437 913d 3651 fe3c 4e57 e8bc 5dee 20bd
00000050: fc95 24bc fe15 91bd d1d1 83bd 6163 773c
00000060: fc8e d13c 6c3f 41bc e136 86bd e0f6 c1bc
00000070: d286 1839 218e 43bc 2742 3f3d 6025 22bb
00000080: d654 f43c 3720 70bd 21e2 173c bfab 293c
00000090: 3399 c9bc f651 2d3c 37ea c1bc 850a 0d3c
000000a0: 4389 923c f2ba 88bc 5693 e1bc 2f03 d63c
000000b0: 637e 59bd 6959 75bc 6990 e9bc 13ca 9f3d
000000c0: f456 423d 858f a83c 735e 853d e43f cbbc
000000d0: 7c0a 7ebc 0a03 0fbc 86e8 a03c c3cd 81bc
000000e0: e94b e53c 6e1f d83c cd6f 803c 6a6c 213d
000000f0: cd24 b83c ee97 3ebc 6953 0fbc 1004 43bd

linears.4.weight f4 [64, 64]
-0.19480658 -0.1012862 -0.13385679 0.010532758 0.045408696 0.08928941 0.21148103 0.064540006
0.039495725 -0.035987258 -0.18999085 -0.20273674 0.14529926 -0.004146572 -0.18730111 -0.3104487
-0.06790585 0.143711 0.21961659 -0.061765593 0.012162589 0.09956439 -0.034843232 -0.012510497
0.092223436 0.09292433 -0.1652263 -0.14910632 -0.23344506 -0.01205363 -0.10024733 -0.043702625
-0.02529199 -0.15917808 0.061766416 0.2314105 0.031227434 -0.020972738 -0.13466468 -0.2381856
-0.16855812 0.19203803 0.16031429 0.14495526 0.007306615 -0.16363564 0.16440716 0.1528971
-0.1822551 -0.10537619 -0.049172383 -0.08318007 -0.16855396 0.066425264 0.17236729 0.008061796
-0.22762786 -0.08018612 0.19985072 -0.22511406 -0.16914111 -0.16053914 -0.020790698 0.21454619
-0.044582855 0.18380341 0.122077584 -0.13854432 -0.0053036613 0.034562152 -0.19766547 0.052588582
0.13748458 0.17666104 0.19143353 0.095566384 -0.11913626 -0.034574043 0.16916773 0.26008487
-0.11521441 -0.118154444 0.039958466 0.20106582 0.19521897 -0.10248195 0.028384926 0.21128432
-0.18168488 -0.21539116 0.047867708 0.25339258 -0.00251783 -0.030670322 0.05338183 0.00044833895
0.088992834 -0.16204801 -0.17776069 0.14756517 0.24003263 0.2264007 0.13709189 -0.18837921
-0.07659548 0.16828689 0.12301536 -0.22151294 0.26038063 0.16306962 0.0018901251 -0.080950625
-0.11110762 0.07152447 -0.15668838 -0.025028426 -0.12734233 0.041100286 -0.088322364 -0.16856655
0.038960762 0.019669333 0.10997597 -0.045799904 -0.09201877 -0.21583338 -0.19537885 0.26528773
0.22505926 0.0060722847 0.036555253 -0.2797937 -0.047467176 0.09647011 -0.017670002 0.17231639
-0.3534324 -0.16992107 -0.26098943 -0.06000664 -0.14452524 -0.18914743 0.04145238 -0.2592853
-0.13667203 -0.23501417 -0.024550606 0.18480897 -0.18135573 -0.013529411 0.17132142 0.021235367
-0.29444173 0.26575214 -0.026479455 0.18312806 -0.27328348 0.15465328 -0.14063193 0.18417299
-0.08253551 -0.14076334 -0.3599613 0.1040284 -0.054910533 -0.01112572 0.03861941 -0.00018461987
-0.044046786 -0.1440978 0.25686708 -0.23892806 0.027675709 0.23670538 0.5179436 -0.09014047
-0.10892613 0.1816884 0.078711316 -0.21286264 0.1518354 0.18698029 0.0036434135 -0.010141647
0.07848948 0.17911497 0.2156135 -0.45031914 -0.22929259 -0.11103284 0.110615924 0.21672048
0.1754868 0.28135222 0.0950753 0.23584378 -0.029195849 -0.09797325 -0.082880236 0.10593523
0.06847585 0.16804129 -0.15542737 -0.2276698 -0.0705785 -0.18142289 0.053352617 0.18912598
0.09084331 -0.036285043 -0.10236534 0.016778974 0.18191229 0.18926765 0.21391055 0.032617226
-0.010083045 0.23754565 -0.052064195 0.33076674 0.051270682 -0.001410378 0.21679886 -0.021640157
-0.1844691 -0.04954871 0.20403872 0.025830843 -0.14605562 0.15244196 0.13220094 -0.09519673
0.12889457 0.10758412 0.13565025 -0.08664278 0.14268021 0.04481306 0.09188069 0.22319937
-0.027205376 0.14239407 -0.10840324 -0.10041827 0.10599984 0.16304769 0.02003048 0.05759596
-0.094409406 0.06906332 0.15268141 0.15683259 -0.21990083 0.05139138 0.1783594 0.0030826337
00000000: 607b 47be 246f cfbd c111 09be 9791 2c3c
00000010: 78fe 393d 5edd b63d 7c8e 583e 8d2d 843d
00000020: 45c6 213d 6067 13bd f68c 42be 389a 4fbe
00000030: 54c9 143e f8df 87bb ddcb 3fbe 22f3 9ebe
00000040: 3912 8bbd fa28 133e 2ce3 603e ebfd 7cbd
00000050: 9845 473c 6ae8 cb3d c7b7 0ebd d4f8 4cbc
00000060: a4df bc3d 1c4f be3d 1531 29be 54af 18be
00000070: 390c 6fbe 977c 45bc 794e cdbd 8601 33bd
00000080: 2631 cfbc 94ff 22be c8fe 7c3d e0f6 6c3e
00000090: add0 ff3c 05cf abbc 8ae5 09be ede6 73be
000000a0: 809a 2cbe 9ea5 443e 6e29 243e 276f 143e
000000b0: 546c ef3b 1a90 27be 5a5a 283e 0f91 1c3e
000000c0: 15a1 3abe 79cf d7bd fb68 49bd 505a aabd
000000d0: 6999 2cbe f809 883d 0d81 303e a015 043c
000000e0: 4717 69be 9f38 a4bd aba5 4c3e 4d84 66be
000000f0: 5433 2dbe 5f64 24be 4151 aabc ffb1 5b3e
00000100: 839c 36bd f636 3c3e d003 fa3d 90de 0dbe
00000110: 56ca adbb 0b91 0d3d d168 4abe 2067 573d
00000120: c2c8 0c3e a2e6 343e 2707 443e 4fb8 c33d
00000130: b6fd f3bd 839d 0dbd 4e3a 2d3e d829 853e
00000140: 88f5 ebbd f5fa f1bd 7dab 233d 33e4 4d3e
00000150: 7be7 473e 0ee2 d1bd 8187 e83c eb5a 583e
00000160: 9a0b 3abe 808f 5cbe ee10 443d acbc 813e
00000170: 2e02 25bb 5440 fbbc e8a6 5a3d 090f eb39
00000180: e041 b63d eaef 25be e606 36be 531b 173e
00000190: 1dcb 753e 96d5 673e d161 0c3e 7be6 40be
000001a0: 17de 9cbd 6653 2c3e 7aef fb3d 4ad4 62be
000001b0: 9c50 853e b9fb 263e 13be f73a 71c9 a5bd
000001c0: 648c e3bd 6c7b 923d eb72 20be 6a08 cdbc
000001d0: 0766 02be c658 283d 5be2 b4bd b69c 2cbe
000001e0: 5295 1f3d 9521 a13c 153b e13d ae98 3bbd
000001f0: 5674 bcbd 6d03 5dbe 6511 48be cbd3 873e
00000200: ef75 663e 04fa c63b f6ba 153d 1f41 8fbe
00000210: f16c 42bd 1f92 c53d aec0 90bc b573 303e
00000220: 17f5 b4be caff 2dbe 68a0 85be 86c9 75bd
00000230: 6dfe 13be ddaf 41be f9c9 293d 0bc1 84be
00000240: c1f3 0bbe 8ea7 70be 5a1e c9bc 903e 3d3e
00000250: 51b5 39be 76aa 5dbc e26e 2f3e cbf5 ad3c
00000260: 11c1 96be aa10 883e 71eb d8bc ec85 3b3e
00000270: d0eb 8bbe 6e5d 1e3e d101 10be d897 3c3e
00000280: 6108 a9bd 4424 10be d94c b8be d70c d53d
00000290: dee9 60bd a748 36bc 632f 1e3d 8596 41b9
000002a0: 676a 34bd 608e 13be 1584 833e 8fa9 74be
000002b0: 2bb8 e23c e562 723e f497 043f 919b b8bd
000002c0: aa14 dfbd 860c 3a3e 6633 a13d aaf8 59be
000002d0: bd7a 1b3e c377 3f3e 56c6 6e3b 2729 26bc
000002e0: 18bf a03d ea69 373e c9c9 5c3e 3b90 e6be
000002f0: adcb 6abe 3065 e3bd 9a8a e23d f9eb 5d3e
00000300: d0b2 333e 660d 903e d7b6 c23d 0881 713e
00000310: 222c efbc 33a6 c8bd 1dbd a9bd 92f4 d83d
00000320: 113d 8c3d 0413 2c3e 5a28 1fbe 4622 69be
00000330: 768b 90bd ecc6 39be 4688 5a3d 3eaa 413e
00000340: 0f0c ba3d a09f 14bd eba4 d1bd 0f74 893c
00000350: 3747 3a3e 61cf 413e 5e0b 5b3e a499 053d
00000360: 5b33 25bc 2b3f 733e 4441 55bd 425a a93e
00000370: 3501 523d 6fdc b8ba 8500 5e3e b346 b1bc
00000380: 78e5 3cbe 97f3 4abd 87ef 503e 349b d33c
00000390: 9b8f 15be bf19 1c3e af5f 073e 81f6 c2bd
000003a0: f0fc 033e 1055 dc3d e6e7 0a3e c571 b1bd
000003b0: c31a 123e e68d 373d f12b bc3d 608e 643e
000003c0: cfdd debc c0cf 113e 8502 debd 18a8 cdbd
000003d0: 7216 d93d f9f5 263e f616 a43c bee9 6b3d
000003e0: b859 c1bd 1271 8d3d 8458 1c3e b998 203e
000003f0: af2d 61be c57f 523d d9a3 363e 0306 4a3b

linears.4.bias f4 [64]
-0.00074164727 -0.024049055 -0.04073503 -0.036002867 0.047445968 0.052825287 -0.03970922 -0.07814069
-0.0074110893 0.07023998 -0.0066156466 -0.024296114 -0.05963672 -0.021506602 0.06043677 0.030797152
-0.062345542 -0.033150554 -0.04473307 -0.0032016516 -0.017307771 0.022704614 0.0321205 -0.06783057
0.019209996 0.022109015 -0.027036922 -0.035872158 -0.0020536748 0.0349215 -0.0062526767 -0.061767533
0.045020226 -0.012091713 -0.014380518 -0.0943676 0.04793315 -0.10706941 -0.046173796 -0.012235388
0.047068663 0.08324612 0.0063562305 -0.022173421 -0.027190331 -0.03976305 0.04673443 -0.041877102
0.035570055 0.045911275 -0.0076438645 0.025497742 -0.057066035 0.0026232179 -0.061959144 0.028259957
-0.050753478 0.009037361 -0.04034006 -0.0137897525 0.009283823 -0.04486911 0.04895899 0.03784097
00000000: 1b6b 42ba 8602 c5bc c6d9 26bd be77 13bd
00000010: b456 423d 545f 583d 23a6 22bd 3a08 a0bd
00000020: b9d8 f2bb fbd9 8f3d 11c8 d8bb a508 c7bc
00000030: a245 74bd 9d2e b0bc 8c8c 773d 4f4a fc3c
00000040: 0a5e 7fbd e0c8 07bd 063a 37bd cdd2 51bb
00000050: 07c9 8dbc 07ff b93c c990 033d c1ea 8abd
00000060: 485e 9d3c f71d b53c 897c ddbc afee 12bd
00000070: f296 06bb d909 0f3d 41e3 ccbb f4ff 7cbd
00000080: 2167 383d 521c 46bc 449c 6bbc cd43 c1bd
00000090: 8d55 443d 3547 dbbd bc20 3dbd f076 48bc
000000a0: 12cb 403d f17c aa3d ed47 d03b 09a5 b5bc
000000b0: 42be debc 94de 22bd 9a6c 3f3d 5387 2bbd
000000c0: e8b1 113d 760d 3c3d 6279 fabb a4e0 d03c
000000d0: 13be 69bd 4bea 2b3b dfc8 7dbd 6d81 e73c
000000e0: e1e2 4fbd 7011 143c 9e3b 25bd 6aee 61bc
000000f0: 2d1b 183c acc8 37bd 3989 483d 22ff 1a3d

linears.5.weight f4 [3, 64]
0.18892209 0.117366135 0.3600042 0.049309656 0.1775814 0.07659856 0.32541934 -0.22379303
0.36725467 0.10165671 -0.18349332 0.08947677 -0.20327407 0.17630127 -0.10919406 0.29765484
-0.24044718 -0.0038424844 0.1701279 -0.14274889 0.09080239 -0.060673818 -0.1822689 0.124211155
-0.3257155 -0.29784635 0.32838643 0.22455803 0.16686825 0.02873579 -0.32576707 -0.009946708
0.08683818 0.29681095 0.16893336 -0.0873987 0.2857297 0.0025278039 0.099066235 0.15500258
0.37293103 0.018871853 0.10803899 0.2359831 -0.0042969557 0.19618884 -0.07451828 -0.074383125
0.22057825 0.21031287 0.3815277 0.33931386 0.063529514 0.480766 -0.31816465 0.22987986
0.3157841 0.054455753 -0.27191955 -0.11630821 -0.23344861 -0.25590998 -0.27171433 0.082520865
-0.17104098 -0.090505846 0.24158913 0.026866568 -0.19852692 -0.030753035 0.16668443 -0.11076299
-0.23264089 -0.046854217 0.21907876 0.1870809 0.2096901 -0.002010134 -0.11065615 -0.043325394
-0.08544248 -0.13711295 -0.041508712 0.13444631 -0.30027038 -0.123015866 -0.05824749 -0.121103935
0.22011338 -0.27852666 -0.009524598 0.2024579 0.11123161 -0.11095107 -0.25113326 0.048933882
-0.11402389 -0.1613761 -0.23188134 0.062055714 0.22187008 -0.010953574 0.13689613 -0.13634123
0.11775516 -0.013695336 0.3597803 0.013449603 -0.13273068 -0.067442 -0.08493279 -0.15321311
0.21315952 -0.057965778 -0.11566072 -0.019502236 -0.05166483 -0.30501434 0.04032163 -0.11126472
-0.01542719 0.36314693 -0.13137159 0.272533 -0.3075207 0.2429479 0.24563979 -0.12853754
0.059287634 -0.26342818 -0.27043322 -0.22073874 0.35680166 0.32310247 -0.2886341 -0.42421722
-0.36928755 0.26610512 -0.26303893 -0.31583428 -0.48901746 -0.5849826 0.48444104 0.43269554
-0.4692411 -0.3890395 -0.102923915 0.056630738 -0.124823734 0.2005735 0.40749797 -0.28599146
-0.03504648 0.35668775 -0.3137619 -0.58157486 -0.33786893 0.1792596 -0.32743725 -0.2753689
0.3581164 -0.09023153 -0.26746884 -0.24167913 0.6504615 -0.3366681 -0.4516114 -0.2602841
0.23513433 0.51407874 0.2549772 -0.2836968 -0.20287128 -0.46266016 0.36694852 -0.34821656
0.22929414 0.32409832 -0.2116468 -0.079686604 -0.28884193 0.008830486 -0.31093445 0.2028114
-0.46607614 0.11514346 -0.21793784 -0.05234003 0.044008914 -0.36293778 0.36132252 0.48105356
00000000: cb74 413e a85d f03d 7852 b83e ecf8 493d
00000010: e6d7 353e b5df 9c3d 5d9d a63e 002a 65be
00000020: ce08 bc3e 6531 d03d ace5 3bbe 993f b73d
00000030: 1427 50be 5288 343e 23a1 dfbd 3766 983e
00000040: c937 76be 31d2 7bbb 0236 2e3e c42c 12be
00000050: 9af6 b93d 1c85 78bd b3a4 3abe 6b62 fe3d
00000060: 2fc4 a6be 517f 98be 4422 a83e 8af2 653e
00000070: 83df 2a3e 5267 eb3c f1ca a6be 84f7 22bc
00000080: 37d8 b13d 9bf7 973e defc 2c3e 17fe b2bd
00000090: 2a4b 923e 83a9 253b 3de3 ca3d ffb8 1e3e
000000a0: d1f0 be3e 2599 9a3c 8c43 dd3d 8ea5 713e
000000b0: 7acd 8cbb bae5 483e 0a9d 98bd 2e56 98bd
000000c0: 44df 613e 425c 573e 9957 c33e 8cba ad3e
000000d0: c31b 823d f626 f63e 7ae6 a2be a065 6b3e
000000e0: 74ae a13e ff0c 5f3d 0a39 8bbe 0033 eebd
000000f0: 270d 6fbe a206 83be 241e 8bbe b300 a93d
00000100: 5e25 2fbe 215b b9bd 2463 773e 4717 dc3c
00000110: a44a 4bbe caed fbbc 53af 2a3e b5d7 e2bd
00000120: 6a39 6ebe 35ea 3fbd 2f56 603e 2392 3f3e
00000130: 00b9 563e 74bc 03bb b19f e2bd f875 31bd
00000140: 78fc aebd 5667 0cbe 0a05 2abd 4bac 093e
00000150: 0abd 99be beef fbbd ec94 6ebd 5705 f8bd
00000160: 6765 613e 0c9b 8ebe 0f0d 1cbc 2051 4f3e
00000170: 66cd e33d 513a e3bd 8a94 80be e56e 483d
00000180: 5b85 e9bd c73f 25be 4d72 6dbe 222e 7e3d
00000190: e931 633e 9f76 33bc 802e 0c3e 099d 0bbe
000001a0: 9e29 f13d 6762 60bc 2035 b83e b95b 5c3c
000001b0: 8dea 07be 081f 8abd 3ef1 adbd e6e3 1cbe
000001c0: 7d46 5a3e 866d 6dbd 87df ecbd 27c3 9fbc
000001d0: 809e 53bd d72a 9cbe 4b28 253d c2de e3bd
000001e0: 53c2 7cbc 65ee b93e 4686 06be 7289 8b3e
000001f0: 5a73 9dbe 56c7 783e ff88 7b3e 589f 03be
00000200: 97d7 723d 0fe0 86be 3976 8abe 5609 62be
00000210: b5ae b63e b06d a53e d9c7 93be 0033 d9be
00000220: 4213 bdbe ee3e 883e 0aad 86be 08b5 a1be
00000230: 7f60 fabe 6bc1 15bf a808 f83e 458a dd3e
00000240: 5f40 f0be 2f30 c7be c6c9 d2bd a2f5 673d
00000250: 96a3 ffbd 2463 4d3e 93a3 d03e 796d 92be
00000260: e68c 0fbd c79f b63e 66a5 a0be 17e2 14bf
00000270: 28fd acbe d48f 373e dba5 a7be 27fd 8cbe
00000280: 085b b73e 4fcb b8bd adf1 88be bc7a 77be
00000290: a584 263f c35f acbe 9c39 e7be f543 85be
000002a0: 0ec7 703e aa9a 033f 5f8c 823e b540 91be
000002b0: 7dbd 4fbe cbe1 ecbe ade0 bb3e 7149 b2be
000002c0: 15cc 6a3e 37f0 a53e f0b9 58be bb32 a3bd
000002d0: 17e3 93be bead 103c cd32 9fbe cbad 4f3e
000002e0: 88a1 eebe 56d0 eb3d 192b 5fbe 8062 56bd
000002f0: b142 343d fbd2 b9be 44ff b83e a74c f63e

linears.5.bias f4 [3]
-0.013818528 0.0027481492 0.16283059
00000000: 1b67 62bc 4b1a 343b 10bd 263e

exp_avg f4 [64, 2]
0.0071036285 0.0045072245 0.0032742496 -0.004617469 -0.00036482964 -0.0051230364 -0.0048642238 -0.005138543
0.02022594 -0.0017522888 0.0074364385 -0.0062215594 -0.019156171 0.013080593 0.0067483396 0.0048785126
0.0059613106 0.0025189794 -0.0077437395 -0.001426528 0.015785594 -0.0060841767 0.006118204 0.0012275203
-0.010991109 0.009113288 -0.0008056866 0.004789978 -0.0040787 0.0050954195 0.008967417 0.0026302678
-0.0050651636 -0.005532641 -0.010082458 -0.0004213039 0.008448493 -0.009078942 0.0052396175 -0.00951783
0.008419595 -0.00025856722 -0.00032109703 0.0017372638 -0.014866775 0.0061894506 -0.009139578 0.0059733833
0.011828847 -0.009835762 0.008529523 0.005138101 0.008628649 -0.0068132966 0.008829302 0.002346922
0.0050764917 -0.0055535412 -0.007948123 -0.003355821 -0.008132844 -0.0020833965 0.002903506 0.006232008
-0.008498578 0.0030969111 0.0017725211 0.004377851 -0.012590952 0.0050782817 -0.006252746 -0.0074954876
-0.004439428 0.0039237477 0.009668433 0.0018740658 -0.009005652 0.0069598244 -0.0007728101 -0.006000491
-0.006531611 -0.0012211741 -0.0048870547 -0.0025712673 -0.013467099 0.0085442215 -0.006768284 0.009680129
-0.0060602333 -0.001565138 -0.0035987773 -0.0036008134 0.007445442 -0.008099127 -0.002275275 0.010333489
-0.004527024 -0.0019635765 -0.00078875985 -0.0023126325 0.01046101 0.0047495603 -0.006385885 -0.0025756308
-0.006465922 0.0006311454 0.014021756 -0.00020462554 0.005708243 0.001373469 0.00966875 -0.0023963398
-0.0056424355 0.0037893022 -0.012577412 0.007949386 0.001904099 -0.0063718306 0.012751312 -0.003069954
-0.005401074 0.0058151023 0.0009295914 -0.008367794 -0.013577967 0.0018895096 -0.011639784 -0.0007998379
00000000: 8ec5 e83b 57b1 933b cb94 563b 234e 97bb
00000010: 9b46 bfb9 25df a7bb 1164 9fbb 3961 a8bb
00000020: dfb0 a53c 0ead e5ba 5ead f33b 39de cbbb
00000030: 67ed 9cbc fc4f 563c 2d21 dd3b eedb 9f3b
00000040: 1957 c33b 7615 253b 32bf fdbb 56fa baba
00000050: ca50 813c c65d c7bb 377b c83b bfe4 a03a
00000060: 0d14 34bc e64f 153c b634 53ba 3ff5 9c3b
00000070: 9ea6 85bb 7af7 a63b 13ec 123c 9260 2c3b
00000080: acf9 a5bb 284b b5bb e530 25bc 74e2 dcb9
00000090: 8c6b 0a3c d8bf 14bc 19b1 ab3b acf0 1bbc
000000a0: 57f2 093c 4e90 87b9 ea58 a8b9 e6b4 e33a
000000b0: c693 73bc e0d0 ca3b 2bbe 15bc 5fbc c33b
000000c0: c8cd 413c 2d26 21bc 6abf 0b3c 845d a83b
000000d0: 2d5f 0d3c 1342 dfbb c7a8 103c d1ce 193b
000000e0: b358 a63b 7bfa b5bb d838 02bc 55ed 5bbb
000000f0: 9f3f 05bc 9889 08bb bf48 3e3b df35 cc3b
00000100: 9f3d 0bbc 8cf5 4a3b f053 e83a 1374 8f3b
00000110: 484a 4ebc b767 a63b d6e3 ccbb b59c f5bb
00000120: 9f78 91bb c892 803b 5968 1e3c 37a3 f53a
00000130: 718c 13bc 3d0f e43b 6896 4aba c49f c4bb
00000140: 2007 d6bb ce0f a0ba 9623 a0bb b582 28bb
00000150: 1ba5 5cbc 10fd 0b3c 7bc8 ddbb 6799 1e3c
00000160: ec94 c6bb 5125 cdba 77d9 6bbb a0fb 6bbb
00000170: e5f8 f33b 33b2 04bc c81c 15bb cb4d 293c
00000180: 6e57 94bb 59af 00bb c7c4 4eba 898f 17bb
00000190: a864 2b3c 33a2 9b3b b040 d1bb eacb 28bb
000001a0: 16e0 d3bb 7373 253a 82bb 653c c090 56b9
000001b0: 370c bb3b f905 b43a ad69 1e3c e90b 1dbb
000001c0: 2ee4 b8bb f155 783b 7d11 4ebc 243e 023c
000001d0: f692 f93a caca d0bb e1ea 503c 4831 49bb
000001e0: 7efb b0bb 9d8c be3b d3af 733a 1219 09bc
000001f0: 1f76 5ebc 6ca9 f73a cbb4 3ebc 36ac 51ba

exp_avg_sq f4 [64, 2]
0.011461954 0.05085529 0.005365633 0.008826136 0.00036423217 0.012728668 0.003491907 0.045979533
0.12711969 0.046772573 0.012286301 0.015531431 0.07567816 0.05521251 0.016664457 0.02959953
0.009311089 0.0058065024 0.008748418 0.004029566 0.053043164 0.011479247 0.00718011 0.0024313768
0.028173419 0.02966568 0.0039243577 0.050825056 0.006726086 0.011539859 0.015646208 0.00853592
0.007760963 0.03140228 0.02322793 0.020228285 0.016913896 0.030779123 0.010318266 0.037185173
0.022146966 0.006021103 0.0026160749 0.0017117979 0.04499314 0.013888615 0.018062899 0.012663342
0.04109626 0.037824526 0.013548992 0.03751584 0.020656388 0.016583275 0.013883012 0.006577787
0.0058707274 0.011019842 0.012063499 0.034115955 0.017382968 0.028509863 0.0027631712 0.03344857
0.014999401 0.0023744104 0.0006412137 0.01975388 0.032961387 0.0063709533 0.009753646 0.04894705
0.0034800442 0.014324445 0.036870535 0.071622945 0.026963977 0.019517932 0.00042391647 0.034783643
0.0058332076 0.0013995141 0.006371954 0.005921233 0.044846967 0.02549731 0.012343326 0.04794311
0.008791011 0.0041281837 0.0057268064 0.015119047 0.017388461 0.027312925 0.0050546806 0.049277082
0.0045696045 0.0020884024 0.002727535 0.023527581 0.017092878 0.024894072 0.015616959 0.029116
0.009600943 0.0006870562 0.04433223 0.007831107 0.0048831827 0.0012155661 0.018294714 0.0011582291
0.008641577 0.005305177 0.05081968 0.021631923 0.0032015108 0.020699635 0.034758918 0.0054679224
0.012584616 0.012001628 0.0020406141 0.03065775 0.04461046 0.0023876277 0.03716294 0.030176042
00000000: ebca 3b3c a34d 503d 31d2 af3b 7f9b 103c
00000010: 6af6 be39 e78b 503c 7ad8 643b 0955 3c3d
00000020: aa2b 023e 9994 3f3d 7b4c 493c 8b77 7e3c
00000030: 27fd 9a3d 8326 623d e683 883c b77a f23c
00000040: 8a8d 183c 7944 be3b 8655 0f3c 730a 843b
00000050: ca43 593d 7413 3c3c 2147 eb3b bc57 1f3b
00000060: f1cb e63c 7105 f33c e697 803b ef2d 503d
00000070: 8066 dc3b ad11 3d3c 7a2c 803c 3eda 0b3c
00000080: ad4f fe3b ad9f 003d 8048 be3c cab5 a53c
00000090: 038f 8a3c 8024 fc3c f20d 293c 7b4f 183d
000000a0: 8e6d b53c ac4c c53b 7472 2b3b 685e e03a
000000b0: ba4a 383d 138d 633c a5f8 933c e879 4f3c
000000c0: 8d54 283d e4ed 1a3d 97fc 5d3c 36aa 193d
000000d0: 9637 a93c a6d9 873c 9375 633c 7a8a d73b
000000e0: 3b5f c03b 918c 343c fba5 453c 2cbd 0b3d
000000f0: ba66 8e3c 848d e93c 5216 353b 5e01 093d
00000100: 0cc0 753c ff9b 1b3b 1f17 283a e4d2 a13c
00000110: 8502 073d 6ec3 d03b c2cd 1f3c b47c 483d
00000120: 7411 643b 14b1 6a3c 8f05 173d 0daf 923d
00000130: 8fe3 dc3c 12e4 9f3c 1b41 de39 4b79 0e3d
00000140: 7e24 bf3b e76f b73a d3cb d03b e706 c23b
00000150: 74b1 373d bcdf d03c a93b 4a3c ff5f 443d
00000160: 2c08 103c b745 873b efa7 bb3b e1b5 773c
00000170: 3f72 8e3c 5bbf df3c bca1 a53b c4d6 493d
00000180: 9fbc 953b 94dd 083b 72c0 323b eabc c03c
00000190: 5d06 8c3c a7ee cb3c 46de 7f3c ad84 ee3c
000001a0: 464d 1d3c 901b 343a b695 353d 0b4e 003c
000001b0: 1b03 a03b a153 9f3a ccde 953c b8cf 973a
000001c0: 6795 0d3c 0dd7 ad3b 4c28 503d 6e35 b13c
000001d0: 70d0 513b 4892 a93c 5e5f 0e3d 422c b33b
000001e0: b52f 4e3c 7aa2 443c d3bb 053b f625 fb3c
000001f0: 75b9 363d bf79 1c3b 2b38 183d bf33 f73c

exp_avg f4 [64]
0.0027674923 0.005110925 -0.0033812353 0.0034170726 0.01352784 0.00493183 -0.006381862 0.004082701
0.0041275895 0.000827838 0.004066792 -0.0010737579 -0.0046838196 0.004827322 -0.00654356 0.0008686596
-0.0005155493 -0.002979176 0.0039203656 0.002161054 0.0061083087 -0.0024083625 -0.00420381 -0.0037381016
0.010132069 -0.00072398386 0.006215233 -0.0025218048 0.0018470322 -0.00062127213 -0.0025352559 0.002772483
-0.00021163445 0.0013663294 -0.0035824587 -0.0025550912 0.004782316 0.008829265 -0.007837574 0.00040519817
0.0024337026 -0.00116783 -0.0041679833 -0.0033052706 -0.0023241786 -0.0026121784 0.0015043524 -0.0038105142
0.0043113283 -0.0048127943 -0.006054022 -0.008404166 -0.0023021575 0.007384015 -0.0031013098 9.9593555e-05
-7.4277153e-07 -0.009282979 0.002884378 0.002971079 -0.005300294 0.0031228361 -0.0062785326 -0.009079135
00000000: d15e 353b 8c79 a73b b797 5dbb f7f0 5f3b
00000010: e0a3 5d3c 309b a13b f01e d1bb 2ec8 853b
00000020: bb40 873b 4503 593a b942 853b 56bd 8cba
00000030: ba7a 99bb 832e 9e3b 5c6b d6bb c2b6 633a
00000040: ee25 07ba 473e 43bb 6976 803b 78a0 0d3b
00000050: 3528 c83b 9ed5 1dbb 1dc0 89bb f0fa 74bb
00000060: fa00 263c bcc9 3dba 27a9 cb3b dd44 25bb
00000070: 1e18 f23a dedc 22ba 8926 26bb 8cb2 353b
00000080: 31ea 5db9 6816 b33a afc7 6abb 5173 27bb
00000090: f9b4 9c3b 9fa8 103c 2b69 00bc c770 d439
000000a0: c17e 1f3b df11 99ba 9493 88bb 3d9d 58bb
000000b0: 3f51 18bb 1531 2bbb b12d c53a d2b9 79bb
000000c0: 0b46 8d3b a5b4 9dbb d160 c6bb a1b1 09bc
000000d0: cbdf 16bb 9bf5 f13b 583f 4bbb e2dc d038
000000e0: df62 47b5 a317 18bc d507 3d3b 6fb6 423b
000000f0: 17ae adbb 7fa8 4c3b 26bc cdbb a7c0 14bc
