model.ckpt-4000.pt (torch, 219174 bytes, 36 tensors)

linears.0.weight f4 [64, 2]
0	0xbdc3302b	-0.09530672
1	0x3ea978c8	0.3309996
2	0xbe344bc3	-0.17607026
3	0xbe06ab5b	-0.13151304
4	0xbd3aa2ee	-0.045565538
5	0xbe84f456	-0.25967664
6	0x3d620200	0.05517769
7	0xbe1686fd	-0.14699931
8	0xbe940e66	-0.28917235
9	0x3ea49cf4	0.32150996
10	0xbe368d86	-0.17827424
11	0xbe6c9238	-0.23102653
12	0x3e4b18b5	0.19833644
13	0x3e67808f	0.22607635
14	0xbe0a5e53	-0.13512544
15	0x3e7075c3	0.23482423
16	0xbe81ff42	-0.2539006
17	0x3e233717	0.15938984
18	0x3e2be95f	0.16788243
19	0xbe156651	-0.14589812
20	0xbdf8e6a9	-0.1215337
21	0xbc8b3d41	-0.016996982
22	0xbe48f5b3	-0.19624977
23	0x3ddf8b78	0.109152734
24	0x3e0dde2b	0.13854282
25	0x3ec50a72	0.38484532
26	0x3c28f267	0.0103116995
27	0x3e5b2fd8	0.2140497
28	0x3e045bcc	0.12925643
29	0x3cad0faf	0.021125643
30	0xbe1e8cba	-0.1548337
31	0x3e3544b2	0.17701986
32	0x3e99bec1	0.30028346
33	0xbea118e6	-0.31464309
34	0x3e1b64a6	0.15175113
35	0xbe45ca47	-0.19315444
36	0xbe49b454	-0.19697696
37	0xbe56a3fe	-0.20960996
38	0xbd959104	-0.0730305
39	0xbe5a53f1	-0.21321084
40	0xbe85c66d	-0.2612795
41	0x3d85b2da	0.06528254
42	0xbd270163	-0.040772807
43	0x3da58f75	0.08084003
44	0x3e4cd042	0.20001319
45	0x3e9ff11a	0.31238633
46	0x3e64012f	0.22266077
47	0x3e4392e6	0.19099006
48	0xbd92ab77	-0.071616106
49	0xbe6ed7b9	-0.23324479
50	0xbdfe48f3	-0.12416258
51	0x3e53f4ab	0.20698802
52	0xbe0d7881	-0.138155
53	0xbd599176	-0.053117238
54	0xbe169d42	-0.14708427
55	0x3e38b5c7	0.18038093
56	0xbe85911f	-0.2608728
57	0xbe6dd51e	-0.23225829
58	0x3dedd6c3	0.11613228
59	0xbe50d58e	-0.20393965
60	0x3e3ca93b	0.18423931
61	0xbec4f68e	-0.38469356
62	0xbc89b621	-0.016810479
63	0x3e98c87e	0.29840463
64	0x3e8bc4e7	0.27298662
65	0x3df34a49	0.11879403
66	0xbc9869f5	-0.018605212
67	0x3e31db66	0.1736885
68	0x3e8504d3	0.25980243
69	0x3e6462e8	0.22303355
70	0x3cad8f93	0.021186626
71	0xbe929dbb	-0.28635964
72	0x3e7cacea	0.24675336
73	0x3df91132	0.12161483
74	0x3c9ffc64	0.019529529
75	0x3e7039a2	0.23459485
76	0x3e8c657d	0.2742118
77	0x3e36936e	0.17829677
78	0x3d213a0b	0.039361995
79	0xbe6281eb	-0.22119872
80	0x3e891a5b	0.2677792
81	0xbd310848	-0.04322079
82	0x3d8b80bd	0.06811664
83	0xbe2e7212	-0.17035702
84	0x3e1ab078	0.1510638
85	0x3dffa954	0.12483469
86	0x3e8f51de	0.27992147
87	0x3e9c4803	0.3052369
88	0x3ea09765	0.31365505
89	0xbe32ca5e	-0.1746001
90	0xbbd63e32	-0.006538176
91	0xbe957e27	-0.2919781
92	0xbe0a40bc	-0.13501257
93	0xbe7efaf5	-0.2490042
94	0xbc246a0c	-0.010035049
95	0x3e949ec5	0.29027382
96	0x3eaa59f9	0.3327177
97	0xbe8fda1d	-0.28096095
98	0x3ca233f5	0.019800166
99	0xbe5ec5e5	-0.21755178
100	0xbd7de1f5	-0.061983068
101	0x3e17d476	0.14827141
102	0x3e2917c7	0.16512977
103	0xbe90cb57	-0.28280136
104	0x3e94597f	0.2897453
105	0x3d0924ff	0.033482548
106	0xbe1f3c78	-0.15550411
107	0x3d680726	0.056647442
108	0xbeb04d9d	-0.34434214
109	0x3dab12b3	0.08353176
110	0xbe773433	-0.24141006
111	0xbda61f32	-0.08111419
112	0x3e7e57bb	0.24838154
113	0x3e941797	0.28924248
114	0x3e1c1c13	0.15245084
115	0x3e929d57	0.28635666
116	0x3d1b1b50	0.037867844
117	0xbe03771e	-0.12838408
118	0xbe65613e	-0.22400376
119	0xbd516a4a	-0.051126756
120	0x3d9668a1	0.07344175
121	0x3d4b9ace	0.04970818
122	0x3e033d85	0.12816437
123	0xbdff4f32	-0.12466277
124	0x3e8ecdb5	0.27891317
125	0xbd37a34c	-0.044833466
126	0x3e10d0e9	0.14142193
127	0xbe6191b3	-0.22028236

linears.0.bias f4 [64]
0	0x3dc1a61d	0.09455512
1	0x3e333771	0.17501618
2	0xbbc0fdbf	-0.005889624
3	0xbc1855eb	-0.009297828
4	0x3d95ca93	0.073140286
5	0x3d42aec4	0.04752995
6	0x3c80749c	0.015680604
7	0xbbac70df	-0.0052624787
8	0xbb208150	-0.0024491139
9	0x3dd259e3	0.10271051
10	0xbc5cf1ef	-0.013485416
11	0xbd8d69d2	-0.06904949
12	0xbe2f8f07	-0.17144404
13	0x3e3c923e	0.18415162
14	0xbe662242	-0.22474006
15	0xbe21947f	-0.15779303
16	0x3dabbc75	0.08385555
17	0xbd0603d8	-0.03271851
18	0x3c749ab5	0.014929463
19	0x3d2e8dfc	0.042615876
20	0x3c419849	0.011816093
21	0x3cb7bdfc	0.022429459
22	0xbca9a245	-0.020707259
23	0xbd453d3d	-0.048154105
24	0x3ebb395c	0.365672
25	0xbc98e5f4	-0.018664338
26	0x3d974a83	0.07387259
27	0xbe84c155	-0.2592875
28	0x3da12138	0.07867664
29	0xbcaf09fc	-0.021367066
30	0xbdcc6dd0	-0.099818826
31	0x3db66d07	0.08907514
32	0x3d972d72	0.07381715
33	0x3da08e01	0.07839585
34	0x3d45a231	0.04825038
35	0x3d991ed1	0.07476581
36	0x3e0bdbfa	0.13658133
37	0x3e84909f	0.25891587
38	0xbd870f06	-0.06594662
39	0xbd6ab8fc	-0.05730532
40	0x3e3fafda	0.18719426
41	0x3d331975	0.04372545
42	0x3d4a4e69	0.049391184
43	0x3d945743	0.07243206
44	0xbdc14e70	-0.09438789
45	0xbca16427	-0.019701077
46	0xbd359280	-0.044329166
47	0xbdd65a5d	-0.10466454
48	0x3e4b2b16	0.19840655
49	0xbe228f95	-0.15875085
50	0xbe3c781f	-0.18405198
51	0xbe519b6f	-0.2046945
52	0xbd3ffa06	-0.0468693
53	0x3d6c2e38	0.057661265
54	0xbe84998c	-0.25898397
55	0xbdbfe82f	-0.093704574
56	0x3d81c19e	0.06335758
57	0xbd886e75	-0.06661693
58	0x3d1b8735	0.03797074
59	0xbd320bdb	-0.043468338
60	0xbd1f73c8	-0.038928777
61	0x3e017868	0.12643588
62	0x3d7d95ae	0.061910324
63	0xbe00df1a	-0.12585106

linears.1.weight f4 [64, 64]
0	0xbe2ae1a4	-0.16687638
1	0x3d986965	0.074419774
2	0xbe1fbbd5	-0.15598996
3	0x3e5e745e	0.21724078
4	0x3d1aa0c6	0.03775098
5	0x3e1ace45	0.15117748
6	0xbccf66e8	-0.025317624
7	0xbe3dc4f2	-0.1853216
8	0x3da94067	0.08264237
9	0xbda35eb5	-0.07977048
10	0x3e432dba	0.19060412
11	0xbdf9b6a5	-0.1219304
12	0xbd5f27a3	-0.05448116
13	0x3e18b01f	0.14910935
14	0xbdfae355	-0.122503914
15	0x3e09e76d	0.13467188
16	0x3d28d2eb	0.041216772
17	0x3df412b4	0.1191763
18	0xbc4aa0ae	-0.012367411
19	0x3e58ebed	0.21183749
20	0x3db03fdb	0.086059295
21	0xbe02d175	-0.12775214
22	0xbd2c7d1a	-0.042111494
23	0xbe1e154b	-0.1543781
24	0x3e4bae7e	0.19890782
25	0x3d39c4eb	0.04535381
26	0xbdee654f	-0.11640417
27	0xbe02fa21	-0.12790729
28	0xbe3eaa42	-0.18619636
29	0xba9eca79	-0.0012114785
30	0x3d095f9b	0.033538442
31	0x3d532f1f	0.05155861
32	0x3d657023	0.056015145
33	0xbcfaadb6	-0.03060041
34	0xbdf2965f	-0.11845087
35	0x3d4356c7	0.04769018
36	0xbdaacd46	-0.08339934
37	0xbd56f4d3	-0.052479576
38	0xbe0d9458	-0.1382612
39	0x3e3eb405	0.1862336
40	0xbe5a05b0	-0.21291232
41	0xbe3cc68d	-0.18435116
42	0xbe58cc52	-0.21171692
43	0xbe4fd4aa	-0.20295969
44	0xbdc74385	-0.09729675
45	0x3d6bc519	0.057561014
46	0xbcda176b	-0.026622495
47	0xbc98878b	-0.01861932
48	0x3e53ad4c	0.20671576
49	0x3cfc04a9	0.03076394
50	0xbd82526f	-0.06363379
51	0x3e28bb3e	0.16477677
52	0x3d1611fc	0.036638245
53	0x3d794b73	0.06086297
54	0x3e6118a8	0.21982062
55	0xbdcf93b6	-0.101355955
56	0x3d9e08ac	0.07716498
57	0xbe61c0c4	-0.2204619
58	0xbe20736e	-0.15669033
59	0xbb9c60bf	-0.004772275
60	0xbdcb6339	-0.099310346
61	0xbd6b0d2c	-0.05738561
62	0xbd453a22	-0.048151143
63	0x3e162ce7	0.14665566
64	0xbddfe02b	-0.109314285
65	0x3e178964	0.14798504
66	0xbe4efd23	-0.20213751
67	0xbc937794	-0.018001355
68	0xbcfcb761	-0.03084916
69	0xbe268c5d	-0.16264482
70	0x3de7e050	0.11322081
71	0x3c747a69	0.014921763
72	0xbe113677	-0.14180933
73	0x3d8200e5	0.06347827
74	0x3ca0f524	0.019648142
75	0x3e0f8124	0.14014107
76	0xbcd7d916	-0.026348632
77	0x3e42d55c	0.19026703
78	0x3e3477c9	0.1762382
79	0xbe2fe1a6	-0.17175922
80	0xbdf5ada1	-0.11996008
81	0x3e5211d0	0.20514607
82	0xbdc6cff8	-0.09707636
83	0x3de417c2	0.11137344
84	0xbe1054ef	-0.140949
85	0xbe23527f	-0.15949439
86	0x3e481445	0.19538982
87	0x3e3e6ab9	0.18595399
88	0xbd6ab63b	-0.057302695
89	0xbd7ed069	-0.062210474
90	0xbdaa6d5f	-0.08321642
91	0xbdb1ed71	-0.086878665
92	0x3e1c706f	0.15277265
93	0x3d855241	0.06509829
94	0xbcb6a815	-0.022296945
95	0xbdcf295f	-0.10115313
96	0x3e326fb3	0.17425422
97	0x3e394f56	0.1809667
98	0x3e717da2	0.23583081
99	0x3b05e69f	0.002043165
100	0xbe37884f	-0.17923091
101	0x3e582348	0.21107209
102	0xbe504031	-0.20336987
103	0xbe6fba2c	-0.23410863
104	0xbe38c7a5	-0.18044908
105	0xbe56d2f3	-0.20978908
106	0x3e745b36	0.23862919
107	0x3e66e380	0.22547722
108	0xbe3802d8	-0.17969835
109	0x3e1a5d40	0.15074635
110	0xbe59c501	-0.21266557
111	0x3cf86650	0.030322224
112	0x3dfee571	0.12446106
113	0x3d60d01b	0.054885965
114	0xbe136610	-0.14394403
115	0xbd150f0f	-0.036391314
116	0xbddbf9b8	-0.107409894
117	0x3c82c90a	0.015965004
118	0x3c6eeb3e	0.014582453
119	0xbe12c159	-0.14331569
120	0x3d81116f	0.06302153
121	0x3e32f925	0.17477854
122	0xbe4829cb	-0.19547193
123	0x3d9a54d1	0.07535709
124	0x3e438e48	0.19097245
125	0xbd998ef6	-0.07497971
126	0x3da2b8c2	0.07945396
127	0x3e438fe3	0.19097857
128	0x3d8e3a74	0.06944743
129	0xbe0f771f	-0.14010285
130	0xbe3723d9	-0.17884769
131	0x3e37fc28	0.17967284
132	0xbac1ab6d	-0.001477582
133	0x3e0f5575	0.13997443
134	0xbd9d4a99	-0.07680244
135	0xbd138199	-0.036012266
136	0xbdcccf77	-0.10000508
137	0x3d90987b	0.07060333
138	0x3e27efac	0.16400021
139	0xbe4f312d	-0.20233603
140	0xbda38f71	-0.07986344
141	0xbe757da8	-0.23973715
142	0xbcf8b672	-0.030360434
143	0xbd9c3267	-0.07626801
144	0x3e2e4e31	0.17022015
145	0xbd897239	-0.06711239
146	0xbd35d33f	-0.044390913
147	0x3e5169a5	0.20450456
148	0x3e428b74	0.1899851
149	0xbcc74f71	-0.024329873
150	0xbd3a7540	-0.045521975
151	0xbe0d5e79	-0.1380557
152	0x3e2237bb	0.15841572
153	0xbd9d4ec3	-0.07681038
154	0x3db03fa5	0.08605889
155	0x3de588fc	0.11207768
156	0x3e46b4b4	0.1940487
157	0xbbbfc414	-0.0058522318
158	0x3e36c9e9	0.1785046
159	0xbe1fba77	-0.15598474
160	0xbd7a8b7e	-0.061168186
161	0xbc9747ed	-0.018466914
162	0x3e1a11ee	0.15045902
163	0xbd37c95d	-0.04486977
164	0xbcc4a357	-0.024003668
165	0xbe749131	-0.23883511
166	0x3e3c2d20	0.18376589
167	0x3c75abfb	0.014994617
168	0xbd38a320	-0.045077443
169	0x3e156d23	0.14592414
170	0x3e076311	0.13221385
171	0x3d3bef4e	0.045882516
172	0x3e65c573	0.22438602
173	0x3e37c383	0.17945676
174	0x3c3af010	0.011409774
175	0x3d84aded	0.06478486
176	0x3e58ca24	0.2117086
177	0x3e32866c	0.1743409
178	0xbe72707c	-0.23675722
179	0x3e356a28	0.17716277
180	0x3e5cdc35	0.21568377
181	0xbe4c2c2a	-0.19938722
182	0x3e29f74d	0.16598244
183	0x3d4b4180	0.049623013
184	0xbdbf53b8	-0.0934214
185	0x3e23832d	0.15968008
186	0xbcf02490	-0.02931431
187	0x3d4ad69f	0.049521085
188	0xbd74cff0	-0.059768617
189	0xbc94841f	-0.018129406
190	0xbe0ee236	-0.1395348
191	0x3e3f524f	0.18683742
192	0x3d2bf266	0.041979216
193	0x3dd3c049	0.1033941
194	0x3e28eb03	0.164959
195	0xbc4ec316	-0.012619754
196	0xbc41c33f	-0.011826335
197	0x3dc88858	0.097916305
198	0x3d836e3d	0.06417511
199	0x3e583b5d	0.21116395
200	0x3e1240d4	0.14282542
201	0x3e082961	0.13297035
202	0x3da88988	0.08229357
203	0x3bfadf6b	0.007656028
204	0xbd59bd19	-0.053158853
205	0x3cd86557	0.02641551
206	0x3e3abecb	0.18236844
207	0x3e4a8a47	0.19779311
208	0x3e569cd9	0.2095827
209	0x3e0eb70a	0.13937011
210	0xbc3f0cc1	-0.011660756
211	0xbe11383a	-0.14181605
212	0x3c4cac9d	0.012492326
213	0xbcfa6cde	-0.03056949
214	0xbcf146f4	-0.029452778
215	0x3df6b63d	0.12046478
216	0xbdbbd702	-0.09171869
217	0xbe1c40f0	-0.15259147
218	0xbd8f87fd	-0.070083596
219	0x3d971ab6	0.073781416
220	0xbe0db685	-0.13839157
221	0x3df38d6c	0.118922085
222	0x3e4a2f69	0.19744648
223	0x3ca1d7da	0.019756246
224	0xbd47d888	-0.048790485
225	0xbd266521	-0.040623788
226	0xbe4a6e42	-0.19768623
227	0x3db69b84	0.08916381
228	0x3d8a4147	0.06750732
229	0xbe68f38d	-0.22749157
230	0xbdfb8bfb	-0.122825585
231	0x3e20a281	0.1568699
232	0xbd816dbd	-0.06319759
233	0x3b841173	0.0040304004
234	0xbd878660	-0.06617427
235	0xbdc4d768	-0.09611398
236	0x3db2237b	0.086981736
237	0xbe059ca3	-0.13048033
238	0x3dc79d55	0.097468056
239	0x3d96d513	0.073648594
240	0xbe2a9217	-0.16657291
241	0xbe03610e	-0.12829992
242	0x3d743363	0.05961932
243	0x3c5e7f54	0.013580162
244	0xbe0999a4	-0.13437515
245	0x3dc63852	0.09678711
246	0xbd16fece	-0.036864094
247	0x3e000545	0.1250201
248	0xbe724266	-0.23658141
249	0xbdca098f	-0.098651044
250	0xbdda5dee	-0.10662447
251	0x3e0592eb	0.13044326
252	0x3e1aab1c	0.15104336
253	0xbe598d24	-0.21245247
254	0xbd93c03e	-0.07214402
255	0x3df20849	0.118179865

linears.1.bias f4 [64]
0	0xb9414108	-0.0001843014
1	0x3d1f9532	0.038960643
2	0xbd5f871f	-0.05457222
3	0xbdebfd7b	-0.11522957
4	0x3cdd348e	0.0270026
5	0x3d73afd6	0.059493862
6	0xbdb1e22b	-0.08685716
7	0xbe0f854f	-0.14015697
8	0x3c400ef9	0.01172232
9	0xbd88e6a9	-0.0668462
10	0xbce0e11b	-0.027451089
11	0xbd32d185	-0.043656845
12	0x3e2ce071	0.16882493
13	0xbd125a58	-0.03573069
14	0xbdaf6a11	-0.085651524
15	0x3801644d	3.084941e-05
16	0xbd80a7ec	-0.062820286
17	0xbd1133c8	-0.035449773
18	0xbc5ab244	-0.013348166
19	0x3e045dee	0.12926456
20	0x3db9154c	0.09037265
21	0x3ce47ea2	0.027892414
22	0x3c2456dd	0.010030475
23	0xbd204a20	-0.03913319
24	0x3d91c526	0.07117681
25	0xbaedf0b0	-0.0018153396
26	0xbd9c67e7	-0.07637005
27	0x3e18a81e	0.14907882
28	0x3cba9808	0.022777572
29	0x3c9cfe81	0.019164326
30	0xbe29e33c	-0.1659059
31	0xbd1f98f5	-0.03896423
32	0x3c92cc7e	0.017919775
33	0xbd6ea17d	-0.058259476
34	0x3e1d6d4d	0.15373726
35	0xbe4e150a	-0.20125213
36	0xbc4e262e	-0.012582345
37	0xbe306a5f	-0.17228077
38	0x3cb1d5d3	0.021708405
39	0x3d6f6524	0.058446065
40	0xbbba0773	-0.0056771575
41	0xbd5ad8cb	-0.053429406
42	0xbdd7b7ae	-0.10533081
43	0xbe1fc1a3	-0.1560121
44	0xbe50d78f	-0.20394729
45	0x3e1ac8e2	0.15115693
46	0xbc0ade10	-0.008475795
47	0xbcffdbea	-0.031232793
48	0x3d03791e	0.03209793
49	0xbd10471d	-0.03522407
50	0x3d00eb95	0.03147467
51	0x3dadb413	0.08481612
52	0xbe3d53d8	-0.18489015
53	0xbcedc708	-0.02902557
54	0x3d8dcc80	0.06923771
55	0xbe0ec682	-0.13942912
56	0x3c03712a	0.008022586
57	0x3c161b13	0.009161728
58	0xbc85b650	-0.016322285
59	0xbc038a88	-0.008028634
60	0x3999f590	0.00029365392
61	0x3d4838ef	0.04888242
62	0xbd84c590	-0.064829946
63	0xbb2377ec	-0.0024943305

linears.2.weight f4 [64, 64]
0	0xbe045f17	-0.12926899
1	0x3e199ec8	0.15001976
2	0xbe0514ca	-0.12996212
3	0xbd34824a	-0.044069566
4	0xbe2b2dd7	-0.16716705
5	0xbdca1b9d	-0.09868548
6	0x3e3e15cb	0.18563001
7	0x3dea674d	0.11445484
8	0xbd8d0aca	-0.068868235
9	0xbe23eed9	-0.16009082
10	0x3d87e706	0.06635861
11	0xbca35b56	-0.019941013
12	0x3e3a32e4	0.18183476
13	0x3e1d7799	0.15377654
14	0x3d914cc8	0.07094723
15	0x3e91f8f0	0.28510237
16	0x3df3d61d	0.11906073
17	0xbcb53f6b	-0.022124967
18	0x3d91188b	0.07084759
19	0xbcdfb369	-0.02730723
20	0xbe005d6a	-0.12535635
21	0xbb68b2f0	-0.0035507046
22	0xbdb1e374	-0.08685961
23	0xbd81bea1	-0.06335188
24	0xbd522ce5	-0.051312346
25	0xbe3b37de	-0.1828303
26	0xbdbdc14f	-0.09265386
27	0xbe690a00	-0.22757721
28	0xbe068409	-0.13136305
29	0xbddb94ea	-0.107217625
30	0x3dc577b5	0.09641973
31	0x3dd3c514	0.10340324
32	0xbd8077f9	-0.06272883
33	0x3dadb99d	0.084826685
34	0x3e32fbd6	0.1747888
35	0xbd783223	-0.06059469
36	0xbe1a3bed	-0.15061922
37	0xbdcacbb0	-0.099021316
38	0xbe3345b5	-0.1750706
39	0xbe1a4273	-0.15064411
40	0x3dafedd2	0.085902825
41	0x3e2fc3fa	0.17164603
42	0x3e263595	0.16231377
43	0xbe388d26	-0.18022594
44	0xbde20643	-0.110363506
45	0xbe1b8dbf	-0.1519079
46	0x3ca36a6d	0.019948209
47	0xbcb1b689	-0.021693485
48	0x3e3c693d	0.1839952
49	0xbc873af2	-0.0165076
50	0xbcd09443	-0.025461322
51	0xbdfca4a2	-0.12336089
52	0x3d93c444	0.07215169
53	0x3e0b9339	0.1363038
54	0xbd826c0f	-0.06368267
55	0x3d0564a0	0.032566667
56	0x3e018ea8	0.12652075
57	0x3e316008	0.1732179
58	0x3e90cb96	0.28280324
59	0x3d908ba0	0.07057881
60	0x3e395690	0.18099427
61	0xbdd8516c	-0.10562405
62	0xbe2d4b3e	-0.16923234
63	0xbdac01a4	-0.083987504
64	0xbdb1070a	-0.08643921
65	0xbcafc38d	-0.02145555
66	0xbe18fa14	-0.14939147
67	0xbda974c1	-0.08274222
68	0x3e091cf0	0.13389945
69	0xbda9ed17	-0.082971744
70	0xbd357c11	-0.044307772
71	0x3bdf2417	0.006809722
72	0xbd838e44	-0.064236194
73	0x3dffec84	0.12496284
74	0xbe63bbed	-0.22239657
75	0x3e1a9f08	0.15099728
76	0x3e09f8b8	0.13473785
77	0xbd033052	-0.032028504
78	0xbda26152	-0.079287186
79	0x3d3ebe13	0.046567988
80	0xbe2bbb64	-0.16770703
81	0x3e6c20e6	0.23059425
82	0x3dc7d759	0.09757871
83	0xbd9e41b3	-0.07727375
84	0xbe0e7b84	-0.13914305
85	0x3e516d32	0.20451811
86	0x3c852c4e	0.016256478
87	0x3e2bf5c6	0.16792974
88	0xbe2a5a95	-0.16636117
89	0x3d80deeb	0.06292518
90	0xbe74ca89	-0.23905386
91	0x3d8016fd	0.06254385
92	0xbbed184d	-0.007235563
93	0xbc85c31d	-0.016328389
94	0x3e64f3b8	0.22358596
95	0xbd0a4ef1	-0.03376669
96	0xbe087a1c	-0.13327831
97	0x3dec763b	0.11545988
98	0xbe45a46f	-0.19301008
99	0xbd52a736	-0.051428996
100	0xbdb34536	-0.08753435
101	0xbda254e8	-0.07926351
102	0xbc196334	-0.009362031
103	0x3d6bac7c	0.05753754
104	0x3db48ac0	0.08815527
105	0x3d5f4303	0.054507267
106	0x3d9ba74e	0.0760027
107	0x3db0cf4f	0.08633291
108	0xbe2666b1	-0.16250111
109	0x3dc88b3b	0.09792181
110	0xbbacb2e8	-0.0052703507
111	0xbd8ba423	-0.06818416
112	0x3e4b477f	0.19851492
113	0x3e0cd5a9	0.1375338
114	0x3ccd2bed	0.02504536
115	0x3d8ea114	0.06964317
116	0xbc88f87e	-0.016720053
117	0xbc957404	-0.018243797
118	0xbdfb2a93	-0.1226398
119	0x3c37c3c8	0.0112161115
120	0x3e1d34fd	0.15352245
121	0x3d5b52ba	0.05354569
122	0x3dd897ef	0.10575854
123	0x3d40a8ef	0.047036108
124	0xbc8e3dbd	-0.017363423
125	0x3c3b4559	0.011430108
126	0x3d24010c	0.04004006
127	0xbe3d8bf3	-0.18510418
128	0xbe421bfa	-0.18955985
129	0x3de281a6	0.11059885
130	0xbe371b4b	-0.17881505
131	0x3de70102	0.11279489
132	0x3e23f083	0.16009717
133	0x3dde2ddf	0.10848593
134	0x3dc78d2e	0.09743725
135	0x3e0b6d4b	0.1361591
136	0x3c22d664	0.00993881
137	0x3db53bef	0.08849322
138	0x3e1b04f1	0.15138604
139	0x3dbd2ce2	0.09237076
140	0x3e0096f1	0.1255758
141	0x3e26503f	0.16241549
142	0x3e1d2c72	0.15348986
143	0x3dd9a632	0.10627402
144	0xbddb29ee	-0.10701357
145	0xbe07789d	-0.13229604
146	0x3d64ff17	0.055907335
147	0xbdf534fd	-0.11972997
148	0xbdc5dac5	-0.096608676
149	0xbe1f6ec2	-0.15569595
150	0xbd053c0a	-0.03252796
151	0x3d737c3b	0.059444647
152	0xbe576295	-0.210337
153	0xbdc5d74f	-0.096602075
154	0xbdb6af36	-0.089201376
155	0x3e2a3031	0.16619946
156	0xbd55146d	-0.052021433
157	0xbca9f0ea	-0.02074476
158	0x3ccf4e13	0.025305783
159	0xbe2a6802	-0.16641238
160	0x3e5e5d78	0.21715343
161	0xbc518f4a	-0.01279051
162	0xbe3791da	-0.17926732
163	0x3e2b0a29	0.16703095
164	0xbe1fc4a6	-0.15602359
165	0x3d9578e5	0.072984494
166	0x3d734ca7	0.059399273
167	0x3cb07754	0.021541275
168	0x3d3fe6a1	0.046850804
169	0xbbbd90dc	-0.005785091
170	0x3e2cb233	0.16864853
171	0x3d99270e	0.07478152
172	0x3d4a7d73	0.049436044
173	0xbe4173e5	-0.18891867
174	0x3d093f1d	0.033507455
175	0x3cb960ad	0.022629106
176	0xbdd30a82	-0.103047386
177	0x3e5bec8c	0.21476954
178	0xbda121db	-0.078677855
179	0x3d476d86	0.048688434
180	0xbe239f60	-0.15978765
181	0xbd8564a7	-0.065133385
182	0xbe3fff58	-0.1874975
183	0xbcbefc2a	-0.0233136
184	0xbe1e8793	-0.15481405
185	0xbe1dc816	-0.15408358
186	0xbe44fda0	-0.19237375
187	0xbd06d843	-0.032921087
188	0x3daa557f	0.08317088
189	0xbdc7e0bc	-0.097596616
190	0xbd2707ba	-0.040778853
191	0xbdd73de9	-0.10509855
192	0xbdecbd52	-0.115595475
193	0x3e1acbdb	0.15116827
194	0x3dee3149	0.11630494
195	0xbdc541b6	-0.09631674
196	0x3e85d607	0.26139852
197	0x3e0f2d76	0.13982186
198	0xbe4b3393	-0.19843893
199	0xbdfeb980	-0.12437725
200	0xbe365de8	-0.1780926
201	0xbe86fe91	-0.26366094
202	0x3e43882e	0.19094917
203	0x3e244a48	0.16043961
204	0x3dfb000a	0.12255867
205	0x3e494029	0.19653381
206	0xbe819c67	-0.25314638
207	0xbbec7bcb	-0.0072169057
208	0xbd357849	-0.044304166
209	0xba96d573	-0.0011507705
210	0x3e309a80	0.17246437
211	0x3e81a379	0.25320032
212	0x3e60526c	0.21906441
213	0x3df98c18	0.12184924
214	0x3cce7926	0.025204252
215	0x3d99d27d	0.075108506
216	0xbe0e4d01	-0.13896562
217	0x3d584541	0.05280042
218	0xbe168f04	-0.14702994
219	0x3e15a0d0	0.14612126
220	0x3e7d5a5f	0.24741505
221	0xbdedf9a9	-0.116198845
222	0xbd08b8a9	-0.03337923
223	0xbe82a760	-0.25518322
224	0x3e195fb7	0.14977919
225	0xbe75f5ce	-0.24019548
226	0x3de167be	0.110061154
227	0xbe6e23d4	-0.23255855
228	0xbe4a068e	-0.19729063
229	0xbd0e7c26	-0.034786366
230	0xbdd0a7a8	-0.10188228
231	0x3e131e49	0.14367022
232	0x3dfbfc5c	0.12303993
233	0xbe11f10b	-0.14252107
234	0xbe0943c4	-0.13404757
235	0xbe232f05	-0.15935905
236	0xbe7c91cb	-0.2466499
237	0x3e668f1e	0.22515532
238	0xbdfacf61	-0.12246586
239	0xbe0612ad	-0.13093062
240	0x3c939050	0.01801315
241	0xbe6545e8	-0.22389948
242	0xbdd01942	-0.101610675
243	0x3d8d876e	0.06910597
244	0xbe525980	-0.20541954
245	0x3d1f1f25	0.03884806
246	0xbe357c8e	-0.17723295
247	0xbdcdf91d	-0.1005728
248	0xbd917f39	-0.07104344
249	0x3dbdbbe5	0.09264354
250	0xbdbdb649	-0.09263284
251	0xbe3cad7f	-0.18425559
252	0x3dcd871b	0.10035535
253	0xbd1598fd	-0.036522854
254	0xbe76eee0	-0.24114561
255	0x3df93f8b	0.12170323

linears.2.bias f4 [64]
0	0xbd049198	-0.03236541
1	0x3cf1b1ae	0.02950367
2	0xbc05cb16	-0.008166095
3	0x3d47c636	0.048773013
4	0x3b81062a	0.0039375024
5	0x3d8faca5	0.07015351
6	0xbd8ce419	-0.06879444
7	0xbc838ba4	-0.016057797
8	0xbca45182	-0.020058397
9	0x3c902b87	0.01759888
10	0xbd037ecd	-0.03210335
11	0x3d0517f3	0.032493543
12	0x3b0d388f	0.0021548604
13	0x3d9f6d0b	0.0778447
14	0x3c395f8e	0.011314286
15	0x3cf62318	0.03004603
16	0x3d79d407	0.06099322
17	0xbd020677	-0.031744447
18	0x3d7062cc	0.05868797
19	0xba98846b	-0.0011636143
20	0x3d0baccc	0.03410034
21	0xbc7e489f	-0.015520244
22	0x3da28702	0.07935907
23	0x3d2d0192	0.042237826
24	0x3cb8ff6c	0.022582732
25	0xbca90c6e	-0.02063581
26	0xbcc8631f	-0.024461327
27	0x3cfe42e3	0.031037753
28	0x3ccd8186	0.025086176
29	0xbd9bdd88	-0.07610613
30	0xbceb705e	-0.028740104
31	0x3cf9809d	0.030456835
32	0xbaddf0cd	-0.0016932726
33	0xbc85b485	-0.01632143
34	0x3bbec4b4	0.0058217887
35	0xbcac7336	-0.02105103
36	0xbd5b25f6	-0.053503
37	0xbd15c880	-0.036568165
38	0xbc901488	-0.017587915
39	0xbcd62aba	-0.02614342
40	0xbdebbf1d	-0.11511061
41	0xbb74e929	-0.003737042
42	0xbcc31c80	-0.0238173
43	0xbdf11bcd	-0.11772881
44	0x3c900fe8	0.01758571
45	0xbc6eb543	-0.014569583
46	0xbc9baff1	-0.019004794
47	0x3b79f722	0.0038141687
48	0xbdcaf5e6	-0.09910183
49	0xbd6196f2	-0.055075593
50	0x3c8c3ba0	0.017118275
51	0xbd23f407	-0.040027644
52	0xbca01102	-0.01953936
53	0x3d61a386	0.05508759
54	0x3c9449a2	0.018101517
55	0x3ba8936c	0.005144527
56	0xbc943e3e	-0.018096086
57	0x3d0fb075	0.035080392
58	0xbbe25224	-0.0069067646
59	0xbdbe051c	-0.09278318
60	0x3d0ad0d0	0.033890545
61	0x3c8acb03	0.016942507
62	0x3cf6389f	0.030056296
63	0xbcaa04a5	-0.020754168

linears.3.weight f4 [64, 64]
0	0xbe3bdfce	-0.18347093
1	0x3e34a6ef	0.17641805
2	0x3dc4bdb2	0.09606494
3	0x3db104d4	0.08643499
4	0x3e240afc	0.16019815
5	0xbc1cdca4	-0.009574089
6	0x3d05e1cf	0.03268605
7	0xbe29ecb9	-0.16594209
8	0x3dc80cd7	0.09768074
9	0xbe1e063a	-0.15432063
10	0x3dadb9d8	0.084827125
11	0x3e23054b	0.15919988
12	0xbd76493f	-0.060128447
13	0x3d2b71fd	0.041856755
14	0x3e043f12	0.12914684
15	0x3c70c44a	0.014695236
16	0xbe46bc67	-0.19407807
17	0xbdf8017d	-0.12109659
18	0xbe5f8915	-0.21829636
19	0xbdcc5b4c	-0.09978351
20	0x3dd48cdf	0.103784315
21	0x3db14ccf	0.08657228
22	0x3df7fdb3	0.12108936
23	0x3d37e567	0.04489651
24	0x3d9e0c6c	0.07717213
25	0x3d4288cd	0.047493745
26	0x3c42bb21	0.011885435
27	0x3d35e2e2	0.044405825
28	0xbd42f05d	-0.04759251
29	0x3db9fab9	0.09081025
30	0x3e12c281	0.1433201
31	0x3ddee026	0.10882597
32	0x3dc31868	0.095261395
33	0x3e2e8178	0.17041576
34	0xbe2e3de9	-0.17015804
35	0x3e4743f3	0.19459514
36	0x3e19780e	0.14987203
37	0xbdb6c532	-0.08924331
38	0x3e431789	0.19051947
39	0x3d2f26d2	0.04276163
40	0x3dd6d8f1	0.10490597
41	0xbe08d39e	-0.13361976
42	0x3d00398b	0.031304877
43	0xbe553e71	-0.20824601
44	0x3df7d2cb	0.121007524
45	0xbe20184e	-0.15634272
46	0xbd3ff559	-0.04686484
47	0xbdb86830	-0.09004247
48	0xbb17f48c	-0.0023186533
49	0x3c5ae7fa	0.013360972
50	0xbe1965eb	-0.14980285
51	0x3e41c7cf	0.18923877
52	0xbd877777	-0.06614583
53	0x3d09a09d	0.03360044
54	0xbd90cca7	-0.07070284
55	0xbda719be	-0.08159207
56	0x3dfa0aa6	0.12209062
57	0xbe4f70a4	-0.20257813
58	0x3b1a677c	0.0023560217
59	0x3dffd01e	0.12490867
60	0xbe264fc3	-0.16241364
61	0xbe8a6c2a	-0.27035648
62	0x3df6b125	0.120455064
63	0xbbb08d23	-0.0053879186
64	0xbd1b42cd	-0.037905503
65	0xbdce3e9b	-0.10070535
66	0x3cc91cb8	0.024549827
67	0xbe0abb86	-0.13548097
68	0xbdc09b0a	-0.09404571
69	0xbdbc7409	-0.092018194
70	0xbcbad695	-0.022807399
71	0xbd835062	-0.06411816
72	0xbe1a942a	-0.15095583
73	0xbe38a31e	-0.18030974
74	0xbdeb84bd	-0.11499927
75	0xbd2b6638	-0.04184553
76	0x3d411542	0.047139414
77	0xbe0e38d2	-0.13888863
78	0x3cc5fe9d	0.02416926
79	0x3ccf7046	0.02532209
80	0xbd197e4b	-0.037473958
81	0x3e307b74	0.17234594
82	0x3e48e6a9	0.1961924
83	0xbdfd0c5b	-0.12355872
84	0xbd72ba45	-0.05925967
85	0x3da9ef85	0.08297638
86	0x3d2d9821	0.04238141
87	0xbd472f2e	-0.04862898
88	0x3cd30213	0.025757825
89	0xbd94a24f	-0.072575204
90	0x3da12f39	0.07870335
91	0xbda065e0	-0.07831931
92	0x3e1dcb07	0.1540948
93	0xbe0bde2e	-0.13658974
94	0xbca94adf	-0.020665584
95	0xbe3999df	-0.18125103
96	0x3dcb55ab	0.09928449
97	0x3e16c878	0.1472491
98	0x3d285c4d	0.04110365
99	0xbca65a69	-0.020306783
100	0xbdc9de4d	-0.09856854
101	0xbdc993a5	-0.09842614
102	0xbdb31581	-0.08744336
103	0xbe2b6b02	-0.16740039
104	0x3e30404d	0.17212029
105	0x3e2b8975	0.16751654
106	0x3d825423	0.06363704
107	0x3dcc8d93	0.09987941
108	0xbd028b88	-0.03187135
109	0x3cc35ea3	0.023848837
110	0x3d473aa5	0.048639912
111	0xbd1d5ed0	-0.0384205
112	0xbdc81550	-0.0976969
113	0xbe27d7d2	-0.16390923
114	0x3e4846f9	0.19558324
115	0x3e42c04e	0.19018671
116	0xbe0fd0fe	-0.14044568
117	0xbe25dc08	-0.16197217
118	0x3cdc8305	0.026917944
119	0xbe3912b0	-0.18073535
120	0x3df1fb1a	0.11815472
121	0x3e2d8b37	0.16947637
122	0xbe7bd03f	-0.24591158
123	0xbe0e1fe5	-0.13879354
124	0x3d3be296	0.045870386
125	0x3e0b42c6	0.13599691
126	0xbe1c8882	-0.15286449
127	0x3e46e71e	0.19424102
128	0xbdfdcf77	-0.123930864
129	0xbbb8b615	-0.0056369402
130	0x3cf74e9e	0.030188855
131	0x3bdea195	0.0067941644
132	0xbd0bb109	-0.03410438
133	0x3d64f607	0.055898692
134	0x3cf5793d	0.029965037
135	0xbe5c7e1a	-0.21532479
136	0xbe5f45bf	-0.2180395
137	0x3dcd7de7	0.100337796
138	0x3e5b9948	0.21445191
139	0x3cd20ca6	0.025640797
140	0xbdcaee59	-0.099087425
141	0xbc9256ea	-0.01786371
142	0xbe5aecf5	-0.21379454
143	0xbd153bde	-0.036434047
144	0xbe1724c4	-0.14760119
145	0xbcf73141	-0.030174853
146	0xbe691f44	-0.22765833
147	0xbe1a0b71	-0.15043427
148	0x3da921ca	0.08258398
149	0xbdb16cb2	-0.0866331
150	0xbe01df58	-0.12682855
151	0x3d15b620	0.03655064
152	0xbc973ab8	-0.018460616
153	0xbdb9a4a2	-0.09064604
154	0x3e318728	0.17336714
155	0x3e294d63	0.16533427
156	0xbe7cfad5	-0.2470506
157	0xbe7a043b	-0.24415676
158	0xbe1259b5	-0.14292033
159	0xbdec9d67	-0.115534596
160	0xbdd17528	-0.10227424
161	0x3bd787ef	0.006577484
162	0x3d9d7f1d	0.076902606
163	0xbdef5dfa	-0.116878465
164	0x3e61a36a	0.22034994
165	0x3e877f44	0.26464283
166	0x3e17221a	0.14759102
167	0xbcdfafaf	-0.027305452
168	0x3c1893e3	0.009312603
169	0xbd915005	-0.07095341
170	0x3d82fa08	0.06395346
171	0x3d8cc507	0.068735175
172	0xbe3f1fb4	-0.18664438
173	0xbe09f23e	-0.13471314
174	0x3e9a2ecc	0.30113828
175	0xbe5973dd	-0.21235605
176	0xbdee1c5a	-0.116265014
177	0x3e809887	0.2511637
178	0xbd0f4868	-0.03498116
179	0xbc83f9aa	-0.01611026
180	0x3e391a1e	0.18076369
181	0x3e480b56	0.19535574
182	0x3e31b77b	0.17355148
183	0x3ccf19ca	0.025280852
184	0x3da07b76	0.07836048
185	0xbdc6f700	-0.0971508
186	0xbb6252fb	-0.0034534323
187	0x3e7b9298	0.2456764
188	0x3df30e9d	0.11868022
189	0xbdd1af0e	-0.10238467
190	0x3e2f95d5	0.17147
191	0x3e111486	0.14167985
192	0x3e1e6229	0.15467133
193	0x3d1a3689	0.037649665
194	0x3e2fa038	0.17150962
195	0x3dd26e79	0.10274977
196	0xbe0afc29	-0.13572754
197	0xbbad7d03	-0.0052944436
198	0xbe9bba45	-0.3041555
199	0xbdaa9549	-0.08329255
200	0xbdf9a1ff	-0.121891014
201	0x3e4d0d4b	0.20024602
202	0xbe2f5bf6	-0.17124924
203	0xbc6074e9	-0.013699749
204	0xbd9612ff	-0.07327842
205	0x3db98106	0.090578124
206	0xbe05a555	-0.1305135
207	0xbd271012	-0.04078681
208	0xbd92d203	-0.07168963
209	0xbd78fa86	-0.060785793
210	0x3e610340	0.21973896
211	0xbd733b34	-0.059382632
212	0xbde9fa64	-0.11424711
213	0xbc1c3e45	-0.009536331
214	0xbe0a4940	-0.13504505
215	0x3df15e27	0.11785536
216	0x3ead6433	0.33865508
217	0x3d06431e	0.03277885
218	0x3d6276d6	0.055289112
219	0xbe2cb18b	-0.16864602
220	0x3d9766a2	0.073926225
221	0xbb51c142	-0.003200606
222	0xbdf5ab9f	-0.11995625
223	0x3df5ecd9	0.12008066
224	0xbdcc5100	-0.09976387
225	0xbd0e70a7	-0.034775402
226	0xbe33195d	-0.17490144
227	0xbda22c1b	-0.07918569
228	0x3c35c567	0.011094428
229	0xbe545dfe	-0.2073898
230	0xbde808fe	-0.1132984
231	0x3e3349a1	0.17508556
232	0x3b89afd5	0.004201869
233	0x3e01a4fe	0.12660596
234	0xbe205498	-0.1565727
235	0x3d458134	0.04821892
236	0xbdb620b8	-0.08892959
237	0xbe352ebb	-0.17693608
238	0xbe1f02f1	-0.15528466
239	0x3d501790	0.05080372
240	0xbe87182c	-0.2638563
241	0xbd033cd3	-0.03204043
242	0x3e6a8ae2	0.22904542
243	0xbc2ce2eb	-0.010552148
244	0x3ce34098	0.027740762
245	0x3ddbf7e6	0.10740642
246	0xbcf8f2b4	-0.030389167
247	0x3df68a09	0.12038047
248	0x3d725f8e	0.05917316
249	0xbe0ca26d	-0.13733836
250	0x3db76ab8	0.08955902
251	0xbe7c4adf	-0.24637936
252	0xbe2cbe5c	-0.16869491
253	0x3e3e855c	0.1860556
254	0xbd8aa65d	-0.067700125
255	0x3dcf84ab	0.10132726

linears.3.bias f4 [64]
0	0x3cedcd76	0.029028635
1	0xbd07a781	-0.03311873
2	0xbd098ad0	-0.033579648
3	0x3d539b81	0.051661972
4	0x3d0c84d8	0.034306377
5	0x3b8de860	0.00433068
6	0x3caf8e1c	0.021430068
7	0xbcf634a9	-0.030054407
8	0x3cb85b18	0.022504374
9	0xbca3c510	-0.019991428
10	0x3cfbafd4	0.03072349
11	0x3d6180cb	0.055054467
12	0x3ce29735	0.027659992
13	0x3d00dc50	0.031460106
14	0xbd86758c	-0.06565389
15	0x3d8860e5	0.06659106
16	0x3d84fdc1	0.06493712
17	0x3cd312ca	0.025765795
18	0xbceb64d3	-0.0287346
19	0xbd1e6230	-0.038667858
20	0xbc338297	-0.010956428
21	0xbd6f1d89	-0.058377776
22	0xbd7d92e9	-0.061907683
23	0x3c20cbb7	0.009814194
24	0x3cd32808	0.025775924
25	0xbc0e6202	-0.008690359
26	0xbd7b9f49	-0.061431203
27	0xbca08516	-0.01959471
28	0xbb2024af	-0.0024435928
29	0xbc5c0baa	-0.013430515
30	0x3d39dd43	0.045377027
31	0x394e7439	0.00019688987
32	0x3ce161ed	0.027512515
33	0xbd6c38f9	-0.05767152
34	0x3bbdffd6	0.0057983203
35	0x3be1ac8b	0.006887024
36	0xbcb4a56b	-0.022051534
37	0x3bd42a52	0.0064747715
38	0xbca26498	-0.019823357
39	0x3bf3642c	0.007427713
40	0x3c71cd44	0.014758412
41	0xbc62b653	-0.013837415
42	0xbcc6cd60	-0.024267852
43	0x3ccc92d5	0.024972359
44	0xbd46588a	-0.04842428
45	0xbc6bdc66	-0.014395809
46	0xbcfb9ab9	-0.030713426
47	0x3d915865	0.07096938
48	0x3d24021b	0.04004107
49	0x3caf6c6e	0.021414008
50	0x3d7fa36a	0.062411703
51	0xbcc73e92	-0.024321828
52	0xbc86112f	-0.016365616
53	0xbc6b6ec8	-0.014369674
54	0x3c79bc2e	0.015242619
55	0xbc71ae91	-0.0147510925
56	0x3ce898b6	0.02839313
57	0x3cc81010	0.024421722
58	0x3c2e2b76	0.010630479
59	0x3d2311ea	0.039812006
60	0x3cbacdce	0.022803213
61	0xbc3cd63e	-0.011525689
62	0xbbf8e831	-0.0075960387
63	0xbd38a8a5	-0.045082707

linears.4.weight f4 [64, 64]
0	0xbe3cd388	-0.18440068
1	0xbdd52855	-0.10408083
2	0xbe09f5be	-0.1347265
3	0x3c2e735d	0.010647622
4	0x3d45f6e0	0.04833114
5	0x3db71239	0.089390226
6	0x3e553a9d	0.2082314
7	0x3d553921	0.052056435
8	0x3d364c0c	0.044506118
9	0xbd1b4afa	-0.0379133
10	0xbe43609f	-0.19079827
11	0xbe48f342	-0.19624045
12	0x3e1a0e73	0.15044574
13	0xba323185	-0.000679754
14	0xbe40f13a	-0.1884202
15	0xbe89fff6	-0.26953095
16	0xbd8297df	-0.06376623
17	0x3e0f76cf	0.14010166
18	0x3e67bd81	0.22630884
19	0xbd977570	-0.07395446
20	0x3c11cd5e	0.008899061
21	0x3dcc0d94	0.09963527
22	0xbd1cc9a7	-0.03827825
23	0xbc5c0938	-0.013429932
24	0x3dc42401	0.0957718
25	0x3db1fcfb	0.0869083
26	0xbe24d227	-0.16095792
27	0xbe1ca2c0	-0.15296459
28	0xbe516b84	-0.2045117
29	0xbce2af9a	-0.027671624
30	0xbdd9ea4a	-0.1064039
31	0xbd8e3669	-0.06943972
32	0xbcd09871	-0.025463315
33	0xbe2add9a	-0.16686097
34	0x3d86b1f6	0.06576912
35	0x3e69ed8d	0.22844525
36	0x3cf05e71	0.029341908
37	0xbcd48f6a	-0.025947291
38	0xbe0537eb	-0.13009612
39	0xbe6b972c	-0.23006886
40	0xbe2cb428	-0.16865599
41	0x3e46860a	0.1938707
42	0x3e213e35	0.15746386
43	0x3e192b4a	0.1495792
44	0x3bd7f06a	0.006589939
45	0xbe27fa16	-0.16403994
46	0x3e27440f	0.16334556
47	0x3e167f85	0.14697082
48	0xbe36da03	-0.17856602
49	0xbdd91ca5	-0.10601167
50	0xbd1c8642	-0.038213976
51	0xbda817fa	-0.08207698
52	0xbe2c0023	-0.16796927
53	0x3d867e73	0.06567087
54	0x3e318635	0.17336352
55	0x3c6c8909	0.014436969
56	0xbe5529c0	-0.20816708
57	0xbda78d10	-0.081812024
58	0x3e48e883	0.19619946
59	0xbe6b4dbe	-0.22978875
60	0xbe269aa7	-0.16269933
61	0xbe1d164f	-0.15340541
62	0xbcb8c366	-0.02255411
63	0x3e5768c9	0.21036066
64	0xbd28fdb8	-0.04125759
65	0x3e355d3d	0.17711349
66	0x3df5d300	0.12003136
67	0xbe126379	-0.14295758
68	0xbb5f5fb9	-0.0034084155
69	0x3d2ad910	0.041710913
70	0xbe43efa7	-0.19134389
71	0x3d583574	0.052785352
72	0x3e0c8fe8	0.13726771
73	0x3e2e964d	0.17049523
74	0x3e445269	0.19172062
75	0x3dd29b98	0.102835834
76	0xbdf41cf6	-0.11919586
77	0xbcf2fccb	-0.029661557
78	0x3e2ce81a	0.16885415
79	0x3e803937	0.2504365
80	0xbde9728a	-0.113988
81	0xbde41a2b	-0.11137804
82	0x3d2334ef	0.039845403
83	0x3e4bf170	0.1991632
84	0x3e441d18	0.19151723
85	0xbdd199da	-0.10234423
86	0x3ccfb20a	0.02535345
87	0x3e55dc2c	0.2088477
88	0xbe392e15	-0.18083985
89	0xbe597f6d	-0.21240015
90	0x3d457a7c	0.048212513
91	0x3e7d3257	0.24726234
92	0xbbb6952e	-0.005571983
93	0xbce937c3	-0.028468972
94	0x3d583266	0.05278244
95	0x3bcaca79	0.0061886874
96	0x3dbeca23	0.09315898
97	0xbe26eb34	-0.1630066
98	0xbe36feb5	-0.178706
99	0x3e18d488	0.14924824
100	0x3e72015d	0.23633333
101	0x3e68fa0e	0.22751638
102	0x3e08b04c	0.13348502
103	0xbe422b4a	-0.18961826
104	0xbd9486a2	-0.07252242
105	0x3e32736a	0.1742684
106	0x3dfb5c78	0.122734964
107	0xbe627e00	-0.22118378
108	0x3e831706	0.25603503
109	0x3e242a60	0.1603179
110	0x3aab932c	0.0013090125
111	0xbd892fb2	-0.0669855
112	0xbddc3a48	-0.10753304
113	0x3d9ff59a	0.07810517
114	0xbe21ea86	-0.1581212
115	0xbd06f247	-0.032945897
116	0xbe0078b7	-0.12546049
117	0x3d27f3fe	0.041004173
118	0xbdb681a4	-0.08911446
119	0xbe3075d9	-0.17232455
120	0x3d240e44	0.040052667
121	0x3c8d34ce	0.017237093
122	0x3de94dc7	0.11391788
123	0xbd345c74	-0.044033483
124	0xbdc1ff71	-0.0947255
125	0xbe5a0a1b	-0.21292917
126	0xbe4b9282	-0.19880107
127	0x3e855a59	0.26045492
128	0x3e5d61db	0.2161936
129	0x3b718091	0.0036850313
130	0x3d11c2a6	0.03558602
131	0xbe8681db	-0.26270947
132	0xbd302666	-0.04300537
133	0x3dce5700	0.10075188
134	0xbc3ca78a	-0.011514554
135	0x3e2fe94e	0.17178842
136	0xbea20f34	-0.31652224
137	0xbe318ae8	-0.17338145
138	0xbe859a9e	-0.26094526
139	0xbd67968c	-0.056540057
140	0xbe101a73	-0.1407259
141	0xbe3c6977	-0.18399607
142	0x3d1829d2	0.037149258
143	0xbea1a3e3	-0.31570348
144	0xbe0a5968	-0.13510668
145	0xbe6c0397	-0.23048244
146	0xbce91b4e	-0.028455403
147	0x3de9bab2	0.114125624
148	0xbe3da35c	-0.18519348
149	0xbc8c6616	-0.017138522
150	0x3e2c226a	0.16810003
151	0x3cb73de6	0.022368383
152	0xbe91e477	-0.28494617
153	0x3e80ac82	0.25131613
154	0xbcf4a8af	-0.02986559
155	0x3e22bfad	0.15893431
156	0xbe7f3d0c	-0.24925631
157	0x3e010497	0.12599407
158	0xbe157257	-0.14594398
159	0x3e6558c5	0.22397144
160	0xbda287a5	-0.079360284
161	0xbe11aaf8	-0.14225376
162	0xbeb0a5f1	-0.34501603
163	0x3d8ccc5e	0.068749174
164	0xbd6b9588	-0.05751565
165	0xbd0def68	-0.034652144
166	0x3d25dbe6	0.040492915
167	0xbad5fd0f	-0.0016326028
168	0xbd244fe7	-0.040115263
169	0xbe0d5c8f	-0.1380484
170	0x3e810c58	0.2520473
171	0xbe6e5a6f	-0.23276685
172	0x3c9ee78e	0.019397523
173	0x3e6d8e60	0.23198843
174	0x3ee60f96	0.44933766
175	0xbdb56f46	-0.08859114
176	0xbdd558cf	-0.104173295
177	0x3e3dbac7	0.18528281
178	0x3da043bb	0.078254186
179	0xbe5b02af	-0.21387742
180	0x3df3a0d7	0.11895912
181	0x3e3a405d	0.18188615
182	0x3ba5cc23	0.0050597354
183	0xbc5da66b	-0.013528447
184	0x3db69d17	0.08916681
185	0x3e34b8a0	0.17648554
186	0x3e605674	0.21907979
187	0xbeccb6d8	-0.3998325
188	0xbe66f1cb	-0.22553174
189	0xbdea93da	-0.11453982
190	0x3de90782	0.11378385
191	0x3e5a82ac	0.2133891
192	0x3e31d0b6	0.17364773
193	0x3e8d82cb	0.2763885
194	0x3dc01e73	0.09380808
195	0x3e76b85a	0.24093762
196	0xbc88deb1	-0.01670775
197	0xbdc1d79a	-0.09464951
198	0xbda67912	-0.08128561
199	0x3dcfaf96	0.10140912
200	0x3d95aac0	0.073079586
201	0x3e298e05	0.16558082
202	0xbe1bfed0	-0.15233922
203	0xbe5b9b8d	-0.21446057
204	0xbd860177	-0.06543248
205	0xbe2be24f	-0.16785549
206	0x3d43076d	0.047614504
207	0x3e31a494	0.17347938
208	0x3dc510ea	0.09622367
209	0xbd06a0db	-0.032868247
210	0xbdde90f5	-0.10867492
211	0x3b39df19	0.0028361736
212	0x3e35087d	0.1767902
213	0x3e3eaa45	0.1861964
214	0x3e52bd1d	0.20579953
215	0x3ce7c690	0.028292924
216	0xbbbd3a73	-0.00577479
217	0x3e722bdb	0.23649542
218	0xbd408969	-0.047006045
219	0x3ea4747a	0.32120115
220	0x3d5a0187	0.053224113
221	0x3c117c8d	0.008879793
222	0x3e60571c	0.2190823
223	0x3b8e0114	0.0043336246
224	0xbe3a9777	-0.18221842
225	0xbd5ce09c	-0.05392514
226	0x3e5525cd	0.20815201
227	0x3ce45775	0.027873734
228	0xbe18be64	-0.14916378
229	0x3e1f66a5	0.155665
230	0x3e06c01f	0.13159226
231	0xbdb8a390	-0.09015572
232	0x3e07bc54	0.13255435
233	0x3de171d6	0.110080406
234	0x3e04c784	0.12966734
235	0xbd97ea8c	-0.07417783
236	0x3e10429d	0.14087911
237	0x3d24dca9	0.0402495
238	0x3db237fc	0.087020844
239	0x3e627f3b	0.22118847
240	0xbbe175b9	-0.0068804887
241	0x3e13c578	0.14430797
242	0xbdd6364e	-0.104595765
243	0xbdd37202	-0.1032448
244	0x3ddc4a3a	0.10756345
245	0x3e20ff03	0.15722279
246	0x3cb30442	0.021852616
247	0x3d6c646a	0.05771295
248	0xbdc2a582	-0.09504224
249	0x3d8ae32a	0.06781609
250	0x3e17f80e	0.14840719
251	0x3e27aa56	0.16373572
252	0xbe5d2ea8	-0.21599829
253	0x3d669ad4	0.0563
254	0x3e35816c	0.17725152
255	0xbb477200	-0.003043294

linears.4.bias f4 [64]
0	0x3b24e795	0.0025162448
1	0xbcbc70c0	-0.023002982
2	0xbd143026	-0.03617873
3	0xbcea1d1a	-0.02857833
4	0x3d31e8cc	0.043434903
5	0x3d5efdb5	0.054441173
6	0xbd078f86	-0.03309586
7	0xbd94f99c	-0.07274172
8	0xbc076685	-0.008264189
9	0x3d8da352	0.069159165
10	0xbba1de0e	-0.004939801
11	0xbcba2a90	-0.022725374
12	0xbd5b8228	-0.053590924
13	0xbc57e163	-0.013176295
14	0x3d6ba21d	0.05752765
15	0x3cca35e4	0.0246839
16	0xbd5c296e	-0.053750448
17	0xbd0bc658	-0.034124702
18	0xbd0f4dcc	-0.034986302
19	0xba287639	-0.0006426308
20	0xbc6e112e	-0.014530463
21	0x3ca79a27	0.020459248
22	0x3d0aab61	0.033854846
23	0xbd593e3c	-0.053037867
24	0x3c875644	0.016520627
25	0x3cad598d	0.021160865
26	0xbceaf7e2	-0.028682653
27	0xbd081ed0	-0.03323251
28	0xbbbd667f	-0.0057800408
29	0x3d187236	0.037218295
30	0xbb3bdcea	-0.002866561
31	0xbd827b56	-0.06371181
32	0x3d3bc7bc	0.04584478
33	0xbc443962	-0.011976572
34	0xbc345f62	-0.011009069
35	0xbdad7197	-0.08468931
36	0x3d0b3e3b	0.033994894
37	0xbdc5c7f6	-0.0965728
38	0xbd204342	-0.039126642
39	0xbc29d1a9	-0.010364928
40	0x3d210279	0.039309
41	0x3d9751db	0.073886596
42	0x3bffee93	0.0078104227
43	0xbca9f859	-0.020748304
44	0xbcf1e95a	-0.029530216
45	0xbd06e7ec	-0.03293602
46	0x3d307f51	0.04309017
47	0xbd263333	-0.04057617
48	0x3ccc7a50	0.024960667
49	0x3d3ba21f	0.045808908
50	0xbc1cb585	-0.009564762
51	0x3cc9922a	0.02460583
52	0xbd6b5643	-0.057455312
53	0x3a95838a	0.0011407
54	0xbd5ebb5d	-0.054377902
55	0x3ca7d6b7	0.020488126
56	0xbd368c86	-0.044567607
57	0x3b95c831	0.004570984
58	0xbce1c87f	-0.027561424
59	0xbc7b6d7b	-0.015345926
60	0x3bc3a800	0.005970955
61	0xbd34b2ba	-0.04411576
62	0x3d2463cb	0.040134232
63	0x3d15ef67	0.036605265

linears.5.weight f4 [3, 64]
0	0x3e3bdcaa	0.18345895
1	0x3df8dc6e	0.121514186
2	0x3eaf0145	0.34180656
3	0x3d649088	0.0558019
4	0x3e470e83	0.1943913
5	0x3da1d333	0.07901611
6	0x3ea3f974	0.32026255
7	0xbe5ef1d6	-0.2177194
8	0x3eb93ee8	0.36180806
9	0x3dcb0b27	0.099142365
10	0xbe416074	-0.1888445
11	0x3dbbf16a	0.091769055
12	0xbe518b8e	-0.20463392
13	0x3e39ea81	0.18155862
14	0xbdce8088	-0.10083109
15	0x3e96c966	0.2945053
16	0xbe664a99	-0.22489394
17	0xbb934b4f	-0.0044950615
18	0x3e2eabd5	0.17057736
19	0xbe0d1418	-0.13777196
20	0x3dc6c341	0.097052105
21	0xbd8d68ab	-0.069047295
22	0xbe39ce30	-0.1814506
23	0x3df97c4a	0.121819094
24	0xbe8fb3f8	-0.28066993
25	0xbe9b426b	-0.3032411
26	0x3ea994c4	0.33121312
27	0x3e6155da	0.22005406
28	0x3e277e80	0.1635685
29	0x3d01365c	0.03154598
30	0xbea80289	-0.32814434
31	0xbbfdd5e9	-0.0077464473
32	0x3da7c358	0.08191556
33	0x3e9ade41	0.3024769
34	0x3e378422	0.17921498
35	0xbda77938	-0.081774175
36	0x3e8f9be4	0.28048623
37	0x3b5ee566	0.0034011244
38	0x3dd4c9fa	0.103900865
39	0x3e1f026e	0.1552827
40	0x3ebde930	0.3709197
41	0x3c8e8932	0.017399404
42	0x3de21492	0.1103908
43	0x3e54ac1d	0.20768781
44	0x3aeedfd2	0.0018224663
45	0x3e438899	0.19095077
46	0xbd894f8e	-0.06704627
47	0xbd96b50f	-0.07358753
48	0x3e601994	0.21884757
49	0x3e4e6fb9	0.20159806
50	0x3ea396a7	0.31950876
51	0x3eac6e85	0.3367807
52	0x3d85193f	0.06498956
53	0x3efdb8d2	0.4955507
54	0xbea11d6d	-0.31467763
55	0x3e6d46b6	0.23171505
56	0x3e9cc732	0.30620724
57	0x3b8933d0	0.0041870847
58	0xbe8a0d88	-0.2696345
59	0xbdf045fe	-0.117321
60	0xbe6a98ff	-0.22909926
61	0xbe8d3d37	-0.27585766
62	0xbe8d9841	-0.27655223
63	0x3d9e2272	0.07721414
64	0xbe2efba0	-0.17088175
65	0xbde12714	-0.10993782
66	0x3e7c4dd8	0.2463907
67	0x3c060ba6	0.008181488
68	0xbe3afcff	-0.18260573
69	0xbd11988a	-0.035545863
70	0x3e2c3ece	0.16820833
71	0xbde1e086	-0.110291526
72	0xbe771a8b	-0.24131219
73	0xbd4f8a1a	-0.050668813
74	0x3e5e9618	0.21736944
75	0x3e485605	0.19564064
76	0x3e562e09	0.20915999
77	0xbb4820d8	-0.0030537155
78	0xbde06b57	-0.109579735
79	0xbd3ca708	-0.04605773
80	0xbda1b974	-0.078967005
81	0xbe0ae3ab	-0.13563411
82	0xbd37ffa3	-0.04492153
83	0x3e0a9675	0.13533957
84	0xbe926c89	-0.2859843
85	0xbdf75dbb	-0.120784245
86	0xbd5f1856	-0.054466568
87	0xbdfbb43d	-0.12290237
88	0x3e6be3ff	0.23036192
89	0xbe8d0d45	-0.27549186
90	0xbc0da44f	-0.008645131
91	0x3e4ebfa2	0.2019029
92	0x3de65200	0.11246109
93	0xbde2093b	-0.11036917
94	0xbe6e515f	-0.23273228
95	0x3d3ba56f	0.045812067
96	0xbde90767	-0.11378365
97	0xbe21e48a	-0.15809837
98	0xbe6d3d43	-0.231679
99	0x3d822cf6	0.06356232
100	0x3e609a1d	0.2193379
101	0xbc20755f	-0.009793608
102	0x3e16e012	0.14733914
103	0xbe090f06	-0.13384637
104	0x3dee9b3f	0.116507046
105	0xbc76f887	-0.015073902
106	0x3eb1b0f4	0.34705317
107	0x3c45ab3e	0.012064753
108	0xbe03f2d1	-0.12885596
109	0xbd89143e	-0.06693314
110	0xbda99bb2	-0.0828165
111	0xbe1bb6cb	-0.15206449
112	0x3e5a3b95	0.21311791
113	0xbd86a49c	-0.065743655
114	0xbdead352	-0.114660874
115	0xbcae7999	-0.021298217
116	0xbd2e603f	-0.042572256
117	0xbe997219	-0.29969862
118	0x3d2e0824	0.042488232
119	0xbdd89794	-0.10575786
120	0xbc8e069f	-0.017337142
121	0x3eb23132	0.34803158
122	0xbe05d857	-0.13070808
123	0x3e8d3976	0.27582902
124	0xbe90d6de	-0.2828893
125	0x3e6b9ab9	0.23008241
126	0x3e7a4061	0.24438621
127	0xbe063792	-0.13107136
128	0x3d6918b0	0.05690831
129	0xbe79ec37	-0.24406515
130	0xbe816e58	-0.25279498
131	0xbe4edc6b	-0.2020127
132	0x3ea71a4c	0.3263725
133	0x3e9c1106	0.30481738
134	0xbe841adf	-0.2580175
135	0xbecd1b1a	-0.4005974
136	0xbebad792	-0.36492592
137	0x3e8159f0	0.2526393
138	0xbe84f5d0	-0.2596879
139	0xbe9bd89e	-0.30438703
140	0xbedceb2a	-0.43148166
141	0xbf12ad70	-0.57295895
142	0x3eea3ba3	0.45748624
143	0x3ec71d8f	0.3888974
144	0xbee49822	-0.44647318
145	0xbec247e2	-0.37945467
146	0xbdc52e25	-0.09627942
147	0x3d7a3533	0.06108589
148	0xbde29e79	-0.110653825
149	0x3e422561	0.18959571
150	0x3ec83095	0.39099565
151	0xbe839344	-0.25698292
152	0xbd1ed8e9	-0.03878108
153	0x3eb23a5d	0.34810153
154	0xbe8f8bde	-0.28036398
155	0xbf02c7a6	-0.5108589
156	0xbea5704b	-0.32312235
157	0x3e178511	0.14796855
158	0xbea78024	-0.3271495
159	0xbe8680db	-0.26270184
160	0x3eb3184e	0.3497948
161	0xbda26bea	-0.07930739
162	0xbe81d359	-0.25356558
163	0xbe5b679b	-0.21426241
164	0x3f1b39e7	0.60635227
165	0xbea0477f	-0.31304547
166	0xbedf6888	-0.4363444
167	0xbe7c032e	-0.24610588
168	0x3e5b11d6	0.21393523
169	0x3efad5c1	0.48991206
170	0x3e86b538	0.26310134
171	0xbe64d6d6	-0.22347578
172	0xbe42f0b8	-0.1903714
173	0xbedf1722	-0.43572336
174	0x3ea634a6	0.32462043
175	0xbeabce61	-0.33555892
176	0x3e24e7d2	0.16104057
177	0x3e9f9f4b	0.31176218
178	0xbe4503db	-0.19239752
179	0xbdbc64de	-0.091989264
180	0xbe8d88df	-0.27643487
181	0x3bdebd3b	0.0067974604
182	0xbe8f0a9c	-0.27937782
183	0x3e2b5b32	0.16734007
184	0xbed5f48c	-0.41788137
185	0x3db70f34	0.08938447
186	0xbe471bb0	-0.19444156
187	0xbd6a5989	-0.057214294
188	0x3d10dcc5	0.035366792
189	0xbea39681	-0.31950763
190	0x3e97f05f	0.29675576
191	0x3ee7fd9f	0.45310685

linears.5.bias f4 [3]
0	0xbc5ba304	-0.013405565
1	0x3a81bd40	0.000989832
2	0x3e0f384c	0.1398632

exp_avg f4 [64, 2]
0	0x3957eab0	0.00020591426
1	0x3ae587e5	0.0017511813
2	0xb9c6d270	-0.0003792229
3	0x3a25d58c	0.00063260715
4	0xb79c31d9	-1.8619861e-05
5	0xb981e1f7	-0.00024773154
6	0x371fc099	9.521981e-06
7	0xbac82f8f	-0.0015272963
8	0x3b1058bf	0.0022025553
9	0x3b0dd0f2	0.0021639434
10	0x3a434a5c	0.000744974
11	0xb931bcc7	-0.0001695036
12	0xbb00ab25	-0.001963326
13	0xb93ad0fc	-0.00017816195
14	0x3a81a6fa	0.0009891682
15	0x3a81c028	0.0009899186
16	0x3a486feb	0.00076460716
17	0x3939445e	0.00017668444
18	0xba64a8e3	-0.0008722676
19	0xb99d6af8	-0.00030025071
20	0x3b1aebe0	0.0023639128
21	0x393fa58a	0.00018276848
22	0x3a911fc8	0.0011072094
23	0x39540b52	0.00020222113
24	0xba61cf59	-0.0008613966
25	0xb9b56760	-0.0003460003
26	0xba3a65ad	-0.0007110488
27	0x3afe0b64	0.0019382057
28	0xb91665e5	-0.00014343073
29	0xb9e2b5d2	-0.00043241546
30	0x3ac7ea6b	0.0015252357
31	0x39f09db6	0.0004589387
32	0xb9eff55d	-0.00045768442
33	0xba8d46aa	-0.0010778506
34	0xba802e64	-0.000977945
35	0xbaa39338	-0.0012479788
36	0x3a376f79	0.0006997507
37	0x38d40a08	0.00010110816
38	0x3a2b66cd	0.0006538451
39	0x38f6351f	0.00011740089
40	0x3aad221c	0.0013209018
41	0x3a602697	0.0008550672
42	0xb9bccc65	-0.0003601044
43	0xb90cb402	-0.00013418499
44	0xbaa88389	-0.0012856583
45	0xba890a83	-0.0010455403
46	0xba696dba	-0.0008904595
47	0xb821829e	-3.8507038e-05
48	0x39fdde65	0.00048421617
49	0x3a88ffcb	0.0010452209
50	0x3a7fb7a6	0.0009754844
51	0x3aaedf10	0.0013341624
52	0x3a547fef	0.0008106222
53	0x39c71aaa	0.00037976104
54	0x3aebfa17	0.001800361
55	0x39d08c14	0.00039777218
56	0x396171a2	0.00021500004
57	0x3956d9da	0.00020489786
58	0xba2edbcc	-0.00066703255
59	0xbac4e83c	-0.0015022825
60	0xba209a7a	-0.00061265344
61	0xbacaaab7	-0.0015462254
62	0x3902279c	0.00012412522
63	0x3a8b2ee4	0.0010618833
64	0xbaa7a7df	-0.0012791118
65	0xb93d0463	-0.00018026079
66	0xb801108e	-3.0771414e-05
67	0x3a74de9d	0.00093410333
68	0xbacdd633	-0.0015704095
69	0xb9d9ec1e	-0.00041565386
70	0xba980eb5	-0.0011601063
71	0xbaaac6cc	-0.0013029217
72	0xba929b24	-0.0011185152
73	0x3a63ac4b	0.00086850364
74	0x38bea30f	9.090278e-05
75	0x3b3003e0	0.0026857778
76	0xba9d4cc6	-0.001200103
77	0xb6eec82c	-7.116256e-06
78	0x3951a578	0.00019993435
79	0xba7e8712	-0.0009709458
80	0xba869b18	-0.001026961
81	0x39687e39	0.00022172266
82	0xba738626	-0.0009289704
83	0xb9e76829	-0.0004413736
84	0xbb12a791	-0.002237771
85	0x378b112d	1.657809e-05
86	0xba1c5801	-0.00059640413
87	0x3a74733c	0.00093250326
88	0xba1b5a96	-0.0005926279
89	0xba067be9	-0.00051301584
90	0xb9f894ec	-0.00047413202
91	0xba5b9f62	-0.0008377937
92	0x3a96e905	0.0011513537
93	0xb94e613b	-0.00019681912
94	0xb79dea1a	-1.882487e-05
95	0x39879ffe	0.0002586841
96	0xbab1fabc	-0.0013578753
97	0xb88925b1	-6.53969e-05
98	0x3a3131ed	0.00067594537
99	0xbac2ce38	-0.0014862483
100	0x3adc8bdd	0.001682635
101	0x3a2648b2	0.000634323
102	0xb9918582	-0.00027756026
103	0xbad1706a	-0.0015978937
104	0xba831d3d	-0.001000322
105	0xb9c89afb	-0.00038262442
106	0x3ab9d45a	0.0014177666
107	0x3a371025	0.0006983302
108	0x3ac0f789	0.0014722209
109	0xb9bfb5e7	-0.00036565887
110	0x3ae8b552	0.0017754233
111	0x391b4455	0.00014807408
112	0xba764016	-0.0009393705
113	0x388c4870	6.689213e-05
114	0xba9b0e3b	-0.0011829803
115	0xba1c27ac	-0.00059568393
116	0x394a10f7	0.00019270541
117	0xb997b58a	-0.00028936221
118	0x3af2d121	0.001852546
119	0x3a413d70	0.00073715206
120	0xba2fb6a1	-0.0006702934
121	0xb9a194d1	-0.0003081919
122	0xba089f39	-0.00052117143
123	0x39a1c013	0.0003085142
124	0xbb0cbe2a	-0.0021475651
125	0xb9be726b	-0.00036324872
126	0xba695cc0	-0.00089020655
127	0xbac3ebbd	-0.0014947575
