model.ckpt-5000.pt (torch, 20886 bytes, 21 tensors)

linears.0.weight f4 [20, 2]
000000 8d 09 27 3e 30 d0 f7 3e bb 41 8c 3e 1c c5 df 3d
       0.16312237 0.48401022 0.27393898 0.109262675
000010 42 c1 96 be fa 9f 11 be f6 83 b3 3d 9e 08 30 bf
       -0.2944432 -0.14221182 0.08765404 -0.6876315
000020 59 19 8b bf 88 f7 b5 bf 72 4d 88 3e 06 23 23 3e
       -1.086711 -1.4216166 0.26621586 0.15931329
000030 03 03 ab 3e af f7 ff 3f 52 33 0d be a1 a5 6d bf
       0.33400735 1.9997462 -0.13789108 -0.92830855
000040 5d e2 96 3e c3 68 51 be 54 02 b3 be 0c 7c ea 3e
       0.29469576 -0.2045012 -0.34962714 0.45797765
000050 c3 4c 88 3e a1 33 09 3f fc da 98 3e fa 38 24 be
       0.26621065 0.53594404 0.29854572 -0.1603736
000060 c5 9d bd be fd 79 bd 3e 70 d0 00 3e 5b 24 22 3f
       -0.3703443 0.37007132 0.12579513 0.63336724
000070 b5 a5 0e 3f 04 ae aa bf a7 c4 98 be 9a cc f7 3e
       0.557216 -1.3334355 -0.29837534 0.48398286
000080 8e 0f 9f be 65 28 4a bf f0 08 34 3e 40 55 13 3f
       -0.31066555 -0.7896789 0.17581534 0.57551956
000090 fd 51 0f bf 54 3e a2 be 3e 87 6f be 81 f6 f4 bd
       -0.5598448 -0.31688178 -0.23391435 -0.119610794

linears.0.bias f4 [20]
000000 f8 d4 65 bd 35 35 90 be cf 86 0d 3e 9d 30 12 be
       -0.056111306 -0.28165594 0.13820957 -0.14276357
000010 53 7d 92 3e a3 ec 8a be 59 7d c5 be 30 aa b8 3d
       0.2861124 -0.27133664 -0.38572195 0.09016836
000020 e3 ad ef ba 41 6a 65 3d f9 9e da bd 43 f7 13 3d
       -0.0018286075 0.056009535 -0.10674853 0.03612448
000030 8e 52 02 3f bf 38 64 bc d2 ce 2c bf 8e 12 f5 3d
       0.5090722 -0.013929545 -0.6750308 0.1196643
000040 fd a9 9a 3d b6 d8 03 be fc ba b7 3d c1 fb 79 bb
       0.07551954 -0.12875637 0.08971211 -0.0038144442

linears.1.weight f4 [20, 20]
000000 ed 3f 8f 3b 44 89 96 be fd cc f8 bd 42 2f eb be
       0.004371634 -0.294016 -0.121484734 -0.45934492
000010 99 80 af 3e ca 33 f6 3c 57 bc 5e 3e 1e 9d 38 3e
       0.342778 0.030053992 0.21751533 0.18028685
000020 0d f8 d0 bd d6 cd 9b 3e b9 e1 bf be 45 d5 c8 3e
       -0.10203562 0.30430478 -0.374769 0.39225212
000030 42 dc 3b 3e 44 d1 9c bd 6f fb 06 bf 00 b3 08 bd
       0.1834574 -0.07657102 -0.5272741 -0.033373833
000040 31 a2 14 bc a7 d9 ef bd 8e 3e 5a 3e 6a 47 83 be
       -0.009071873 -0.11711436 0.21312925 -0.25640422
000050 62 ee 0a 3f bd 5f d6 bd 3c 8a aa 3e 02 0b 29 bf
       0.54269993 -0.104674794 0.3330859 -0.6603242
000060 7d 32 cc be b2 72 9c be 43 f1 84 3f d5 a9 ad bf
       -0.3988227 -0.30556256 1.0386127 -1.3567454
000070 f4 80 64 bf d3 d1 44 3f 7f a5 67 3d f1 0c f9 bd
       -0.89259267 0.76882666 0.056554314 -0.121606715
000080 9d 20 dc 3b dc f4 9e 3f b7 0e ae bf d3 45 5c 3f
       0.006717755 1.2418475 -1.3598241 0.86044043
000090 c6 20 ff bd ff 87 da 3e d3 58 4b bd 9a 1c a1 3e
       -0.12457423 0.42681882 -0.049645256 0.31467134
0000a0 64 eb c8 be c3 8b 1e bf 4b 49 31 3f 07 97 bb be
       -0.3924209 -0.6193201 0.6925246 -0.36638662
0000b0 b5 60 93 bf b1 f7 66 bf b1 cc ac bf 31 96 ef 3e
       -1.1513888 -0.902217 -1.3499967 0.46794274
0000c0 1f db 93 be 26 e2 72 3e 1a 78 45 bf 4b 40 24 bf
       -0.28878114 0.23719081 -0.77136385 -0.64160603
0000d0 5c c2 87 3f e0 19 45 bf f3 01 67 bf 91 45 85 3e
       1.0606189 -0.7699261 -0.9023735 0.26029637
0000e0 77 b5 d5 3d b5 2a 4a bf 84 48 1a 3e 78 6f b9 3d
       0.10435002 -0.78971416 0.15066725 0.09054464
0000f0 e2 7d 9e bf f1 fc 3b bf f8 24 32 3f 60 97 09 3d
       -1.2382166 -0.7343283 0.6958766 0.033591628
000100 f4 8e 8e bf f9 16 6b bf a5 ae 34 bf a3 b5 ee 3e
       -1.1137376 -0.9183193 -0.70578986 0.46622953
000110 d0 0a 18 be da fc 47 3e 48 6e ee be bf 35 b7 be
       -0.14847875 0.19530049 -0.46568513 -0.35783193
000120 6c b3 0f 3f 4f 7a 93 bf 70 fe b8 bd 89 df 9b 3d
       0.5613315 -1.1521701 -0.09032905 0.07610995
000130 5b cb c9 3e b2 31 53 bf 15 a7 34 be fe 91 d2 3e
       0.3941296 -0.82497704 -0.17641862 0.41127008
000140 f2 4e 14 3e 19 17 3a be 1d 84 23 3e 8b c1 35 be
       0.1448324 -0.18172874 0.15968366 -0.17749612
000150 2f 73 a2 3e 74 de 55 be 9b 56 a5 3d 26 6c ee 3e
       0.31728503 -0.2088564 0.08073159 0.46566886
000160 e9 37 9c be 3f 46 2e 3e b9 75 6c 3d 05 c8 9c 3e
       -0.30511406 0.17018984 0.057729457 0.30621353
000170 ae 80 97 3c 9b 83 f9 bd 3f a2 ac bd 94 78 c5 3e
       0.018493976 -0.12183305 -0.084293835 0.38568556
000180 a4 cb e4 bd de 8a 4f 3e 9c ce f3 be c6 ce 9e 3d
       -0.11171654 0.20267817 -0.47618568 0.07754283
000190 87 f3 10 be c7 ba 64 3e d4 70 1e 3e 4d a3 0f be
       -0.14155398 0.22336875 0.15472728 -0.14027138
0001a0 41 0b ea 3e 60 2a 03 3d 3e 76 6e bd 36 ed 86 bd
       0.4571171 0.032022834 -0.058218233 -0.06588213
0001b0 07 ec d6 3d 54 a8 b3 be c1 bc f6 3d 61 68 25 3e
       0.104942374 -0.35089362 0.12047721 0.16153099
0001c0 65 e0 e2 3d 79 b3 83 bc 64 01 db be 13 78 a5 3e
       0.11077956 -0.01607679 -0.42774498 0.32318172
0001d0 f6 76 f4 be f8 ee 6a be d0 7c e2 3d 25 86 6d be
       -0.4774701 -0.22942722 0.11058962 -0.23195703
0001e0 35 6e cf be d9 79 86 be 97 b7 02 3f ce 68 1b 3e
       -0.4051377 -0.26264837 0.51061386 0.15176699
0001f0 34 f3 2c bf 29 e5 fb bc 74 ea 9a bd 2e 0f ee 3d
       -0.675586 -0.03074892 -0.0756425 0.11623989
000200 51 ed a7 bd 91 39 0e 3f 81 89 dc 3b ff e7 19 be
       -0.081995614 0.5555659 0.006730259 -0.15029906
000210 66 9d 82 3e 5f 68 a5 be 25 1f 57 bd 38 51 bd 3e
       0.2551071 -0.3230619 -0.052519936 0.36976027
000220 1e 10 5b 3e 8d 10 ae bd 56 2c 03 be a4 75 f0 bc
       0.21392867 -0.084992506 -0.12809882 -0.02935297
000230 4c 3e 7b 3e f0 94 ae bd 6b 79 3f 3e 03 45 21 3e
       0.24535483 -0.08524501 0.18698661 0.15748982
000240 d4 a3 8b 3e 89 f1 0e 3c ce 92 ee be 75 49 04 3c
       0.27273428 0.008724579 -0.46596378 0.008074154
000250 e7 9e e5 3e 33 3e fb be 19 3f 7c 3e 64 05 19 3e
       0.44847795 -0.49070892 0.24633445 0.14943463
000260 98 0a 2f be be 01 5a 3e 98 a6 36 3e fc 10 93 bd
       -0.17093885 0.21289727 0.17836988 -0.07180974
000270 65 73 2b be d5 8c 9e bd 50 cc 0f bd c0 2d 82 bd
       -0.16743238 -0.07741705 -0.035106957 -0.06356382
000280 aa bd 94 be f0 8d e7 bc 25 88 8b 3d 72 1c c1 3d
       -0.29050952 -0.028265923 0.06813077 0.09429254
000290 7b 1a 62 3e 58 d4 64 3e 02 0b 89 bc 32 40 b0 3e
       0.22080414 0.22346628 -0.016728882 0.34423977
0002a0 b4 cf a7 3e 50 6d b8 be 8a 3f aa be c2 9d ef 3e
       0.32775652 -0.360209 -0.332516 0.46800047
0002b0 85 48 1d bd b8 0d 71 be e1 51 33 3f f1 5a 71 be
       -0.03839924 -0.2354039 0.7004681 -0.23569848
0002c0 c3 f9 d2 3e a4 b4 76 be 37 42 29 3d 53 f1 6e bd
       0.41206178 -0.24092346 0.041322913 -0.058335613
0002d0 28 43 a5 3d 65 b0 3f 3e 81 ff d0 be 32 a1 45 be
       0.0806945 0.18719633 -0.40819934 -0.19299772
0002e0 90 ae 3f bf 96 65 35 be 79 99 2c 3e d2 74 9c be
       -0.74875736 -0.17714533 0.1685542 -0.30557877
0002f0 45 8d e7 3e 6a 77 01 bf 56 6e 87 3e da df 4b 3e
       0.45224968 -0.50572836 0.26451367 0.19909611
000300 ed 33 af 3e f6 d4 02 3f f8 af ed 3d 9d 6f 2b 3d
       0.34219304 0.511062 0.11605829 0.04185449
000310 0d 79 99 be b7 be 8e 3e 78 4c ff be 61 59 e2 be
       -0.29975167 0.2787988 -0.4986303 -0.44208816
000320 ee 23 97 3d 5f 54 d5 3c 30 fd 3a bc 8d f9 05 bf
       0.073799 0.026041208 -0.011412904 -0.5233391
000330 8d ca 9b 3e c2 5f 6b be 31 94 7a 3e 97 25 63 be
       0.3042797 -0.22985747 0.24470593 -0.22182308
000340 57 6b 1f be 8e 5f 93 3e b4 2c 1a 3e 03 29 17 bf
       -0.1556829 0.2878384 0.15056115 -0.59046954
000350 9f e0 f0 3d 72 42 fa 3c 3e db b5 be bb 23 ab 3e
       0.11761593 0.030549262 -0.3551883 0.33425698
000360 4d c6 9e be b7 1f f9 bd ed 80 8f be 8b 11 1b 3d
       -0.31010666 -0.12164252 -0.2802805 0.037858527
000370 ed de aa 3f 05 d3 10 3f a9 36 0c 3d 20 55 e1 be
       1.3349282 0.5657199 0.034231815 -0.44010258
000380 23 59 02 3f e4 ef 05 3e f4 b1 59 3f cb 12 ee be
       0.5091726 0.13079792 0.8503716 -0.46498713
000390 ad af ed 3e 8e 0c 5f 3d d4 c1 66 3e 5b 08 3f be
       0.46423092 0.054455332 0.22534877 -0.18655531
0003a0 e9 e0 0b bd f1 44 4e 3f 38 d1 30 be 39 22 81 3d
       -0.034150038 0.80573946 -0.1726731 0.063053556
0003b0 ac 27 03 be 24 1a 13 3f e3 95 d1 3d ca 80 39 be
       -0.12808102 0.5746176 0.10233667 -0.18115535
0003c0 bc ce cc 3e 8b 56 77 3e 19 ff c9 be 19 5e 2c bd
       0.40001476 0.24154107 -0.39452437 -0.042081926
0003d0 95 1d 1d 3e 51 b3 73 3e 87 f6 cd bc 06 bd 4d 3e
       0.15343316 0.23798873 -0.025141967 0.20091638
0003e0 05 94 a4 3e 46 d8 91 be 1a 1f 85 bd 80 8c 2d 3f
       0.3214418 -0.28485316 -0.06500073 0.6779251
0003f0 34 44 3c 3c 30 6f 45 3d e2 d6 48 be 3c 21 69 bd
       0.01149087 0.04820174 -0.19613221 -0.05691646

linears.1.bias f4 [20]
000000 e9 3b d9 3d ae 95 f2 3c d9 bb 95 3e 85 29 46 3e
       0.1060713 0.029612388 0.2924488 0.19351776
000010 ba fe 28 bd 05 91 94 3d 24 c4 8e bd 06 d4 a2 3d
       -0.04125855 0.07254223 -0.069710046 0.079505965
000020 d5 a3 58 3d ca 76 e4 3d e2 27 aa bb 2a 10 36 bd
       0.052890617 0.1115547 -0.0051927427 -0.04444901
000030 7b 19 c7 3d 4a df 02 bd 72 77 45 bd 97 b1 af 3e
       0.09721657 -0.031951226 -0.048209615 0.34315178
000040 8f 27 9f bd 16 99 d6 3d ef 87 88 bc ca 1f 1d be
       -0.07771217 0.104784176 -0.01666638 -0.15344158

linears.2.weight f4 [20, 20]
000000 7e 78 a4 3d 13 a3 47 be 70 66 e8 bd 44 94 b5 3e
       0.080307946 -0.19495802 -0.113476634 0.3546468
000010 07 bc 06 3f c5 96 8e be c7 0d 81 3e 8a f0 cb 3e
       0.52630657 -0.27849403 0.25205824 0.39831954
000020 cb 9d c7 3e e7 fe 1c be 16 7a 8a be 9d 03 93 be
       0.38987574 -0.15331613 -0.2704627 -0.28713694
000030 10 59 b3 3b 50 fb 51 bd e5 c4 b0 3d 7d e8 59 3d
       0.0054732636 -0.05126506 0.08631305 0.053200234
000040 fe 22 42 bd c5 78 85 3e 37 37 6f bd 20 88 3c 3c
       -0.047396652 0.26068702 -0.058402266 0.011507064
000050 dd 85 f7 be d2 19 cb 3e 8d 43 31 3e cd 6f 19 3e
       -0.48344317 0.39668137 0.17310925 0.14984055
000060 0a 5a 56 bd aa 61 30 be 46 af 65 3e a6 e8 83 be
       -0.05233196 -0.17224756 0.22430143 -0.25763434
000070 38 d1 46 be 6f 6f ad 3e 95 81 49 be 7c 10 ef bc
       -0.19415748 0.3387408 -0.19678338 -0.029182665
000080 95 29 ff be b5 be 4c 3e 9d f6 d1 bd aa fc a1 be
       -0.49836412 0.19994624 -0.10252116 -0.3163808
000090 34 4f e4 3e 05 3e aa bd 05 0d a8 bd bf f3 1b 3e
       0.44591677 -0.083126105 -0.08205608 0.152297
0000a0 0b db 7b 3c 9f 19 73 be cb 78 ad 3e a9 ae 63 3f
       0.015372048 -0.23740242 0.3388122 0.88938385
0000b0 2b 2a 8f bd c5 60 4d bf f4 a2 13 3f 1e 15 06 3e
       -0.06990465 -0.80225784 0.5767052 0.13093993
0000c0 04 c8 b6 3e b3 63 cb bd fa a0 8f be 50 8d 4e bf
       0.35699475 -0.099311255 -0.28052503 -0.80684376
0000d0 bf e9 9b be ee 6e 8f be 7e 3a a3 bd fd 0b 11 bf
       -0.30451772 -0.2801432 -0.07970141 -0.5665892
0000e0 b3 a3 13 3e 07 fd 3d bf cd 02 15 bf e4 8c 19 3d
       0.14417915 -0.74214214 -0.582074 0.03748788
0000f0 d3 39 51 3e 9e 17 1e 3e 32 4e b8 3e 93 73 1d bd
       0.20432214 0.15438697 0.35997158 -0.0384403
000100 aa 4f 12 be f3 95 1b 3e 31 ca a3 be b7 87 07 be
       -0.14288202 0.1519392 -0.31990197 -0.13235365
000110 61 4f d6 3e 72 1b eb bd 0c 27 21 3e 7d 5d 9b 3e
       0.41857436 -0.11479844 0.15737551 0.30344763
000120 88 a0 e3 3e c3 8b 9d be 04 0e cf 3e 15 7d 0f 3e
       0.44458413 -0.30770692 0.4044038 0.14012559
000130 1f 4a 57 be 8e ed 66 bc a2 ca 8c be 48 92 79 3e
       -0.21024369 -0.014094723 -0.27498347 0.24372208
000140 3f 83 b3 bd 03 d1 cb bd 26 ee 5c 3f 25 80 83 3f
       -0.087652676 -0.09951975 0.86300886 1.0273482
000150 f2 10 3a 3e a9 29 6c 3e 71 5e 62 3f 36 7c ad be
       0.18170527 0.23062767 0.88425356 -0.33883828
000160 dc a1 9e ba 56 cd fc be 54 13 bf 3c 7a d9 65 bf
       -0.0012102681 -0.4937541 0.023324646 -0.8978497
000170 04 ef 9c bf ba f0 0a be 6b 06 66 bf 93 51 a6 bf
       -1.2260442 -0.13568392 -0.89853543 -1.2993644
000180 70 de 10 3e 24 e7 91 be cb 36 0c bf 95 b4 98 3e
       0.14147353 -0.2849666 -0.5477111 0.29825273
000190 ce 2f 65 3e 75 48 20 3f 37 ef 43 be 01 0f 09 bf
       0.22381517 0.6261056 -0.19134222 -0.5353852
0001a0 c1 c8 86 3d e1 07 64 3e 0d f4 ec be fa d2 c6 3e
       0.065812595 0.2226863 -0.46279946 0.38832837
0001b0 3d 7e d7 bd 14 0b d0 3e e4 5b 37 3e 18 da 43 3f
       -0.10522125 0.40633452 0.17906147 0.7650466
0001c0 0a 54 0c 3f 11 57 8f be dc e7 0b bd 69 86 a2 3f
       0.54815733 -0.27996114 -0.034156665 1.2697269
0001d0 be 5d 53 be 52 84 3f 3f 2b b2 87 3f 35 c9 37 3e
       -0.20641229 0.7481128 1.0601248 0.17947848
0001e0 10 36 78 3d 35 26 eb 3e d5 a1 e2 be c2 6f 14 bf
       0.060598433 0.45927587 -0.44264093 -0.5798303
0001f0 1c 49 4c 3e 75 92 79 3e 12 02 93 be 3a a2 a6 bd
       0.19949764 0.24372275 -0.28712517 -0.08136411
000200 4b f9 a2 3b a7 66 69 be 28 d7 c5 be f1 00 c7 3e
       0.0049735657 -0.22793065 -0.38640714 0.38867906
000210 9d 9a 02 3f a8 7a 81 3d 12 28 a5 3e a6 87 3e be
       0.5101717 0.06322223 0.32257134 -0.18606433
000220 c9 b0 a0 be 2d 95 81 3e 44 d5 d7 3e 2a 1d 6e be
       -0.31384876 0.25309125 0.42154896 -0.23253313
000230 64 b4 4e 3c 1a 86 db bd a7 9f 5c be e9 48 e4 bd
       0.012616251 -0.10718937 -0.21545278 -0.11146719
000240 3e c7 14 be f1 13 9e 3c c6 92 34 be b2 83 74 3e
       -0.1452913 0.019296618 -0.17634115 0.23878363
000250 06 f0 bc 3e 77 ed b2 3e f9 0e 0d bf 3b 1d 97 3d
       0.36901873 0.34946796 -0.5510097 0.07378622
000260 df d8 41 3f d3 89 8e 3e 75 b7 36 be 6a f1 f4 bd
       0.75721544 0.27839527 -0.17843421 -0.119601086
000270 ed 06 04 be 93 b0 8c 3e 5e 42 0d 3e fe d9 c8 be
       -0.12893267 0.27478465 0.13794848 -0.39228815
000280 a9 9b a5 3c 1e 41 de bd 4a c0 1c bd 14 f4 52 be
       0.020215826 -0.10852264 -0.03826932 -0.20600921
000290 8b 22 31 be 31 b3 ce bc 5e 56 7e 3c 8a b6 8c be
       -0.17298333 -0.02523193 0.015523521 -0.27483016
0002a0 6b 15 be 3d 1c e7 15 3f 15 5d f9 3d 21 67 06 3f
       0.09281429 0.5855577 0.12175957 0.5250111
0002b0 dd 14 e7 3e f0 f1 e9 3d 26 de ef bd 85 f3 dd 3e
       0.45133105 0.11423099 -0.11712293 0.43349853
0002c0 f7 b5 7c be f9 fb 2d 3e 6a 2f a2 3e da d8 db 3d
       -0.24678789 0.16990651 0.316768 0.107347205
0002d0 fc fa f0 be d9 5b 30 3e df 4b 45 be 57 22 f0 3e
       -0.47066486 0.17222537 -0.19267224 0.469012
0002e0 f2 d1 03 3d 7f f3 b8 bd 89 fc 71 3d e2 fe f0 bc
       0.03218264 -0.09030818 0.059078727 -0.029418413
0002f0 ad 3c 9c bd b1 d2 ce be 61 f4 f0 be 2e 4b cf 3e
       -0.076287605 -0.4039512 -0.47061446 0.40487045
000300 78 56 04 be b6 c4 db 3d 55 49 4a be 0a 10 5e be
       -0.1292361 0.10730879 -0.19754536 -0.21685806
000310 ab 92 ac 3e 04 25 9f 3d 4d 34 8b be 16 4c 64 be
       0.3370565 0.07770732 -0.2718834 -0.2229465
000320 6e ba 9b 3d a7 0c 05 3e 7f d9 c0 bd c5 f9 8f 3e
       0.07603918 0.12993108 -0.09416484 0.28120247
000330 5e 53 3e 3e fc 24 03 bf 7f ca 0f 3f 23 dc ac bd
       0.1858649 -0.5122831 0.5616836 -0.08440425
000340 da 9b 3d be ed b0 33 3d 28 0f 14 3d 27 ff 08 bf
       -0.18516484 0.0438699 0.036147267 -0.5351433
000350 b0 09 9c be 32 01 75 be c1 b3 8b be 75 2a 62 be
       -0.3047614 -0.23926237 -0.2728558 -0.22086509
000360 7f f6 2c 3f e2 f6 b1 3e f9 bc b4 3e 31 c8 43 3d
       0.67563623 0.3475867 0.35300425 0.04779834
000370 35 8a d4 bd ad 9a 2b 3e ba 31 5a 3e 6a a3 85 3e
       -0.103779234 0.16758223 0.21308032 0.26101238
000380 11 d7 c0 be b9 e8 87 3c 45 c2 fa 3e de 5d 6c bd
       -0.37664083 0.016590463 0.4897634 -0.057706706
000390 e9 61 dc be 07 8d db be f3 3f 82 be 38 4a 16 bf
       -0.4304345 -0.42881033 -0.25439414 -0.58707
0003a0 1e c4 25 bf bb 47 29 3d bc 57 41 be c4 29 9d be
       -0.64752376 0.041328173 -0.18881124 -0.30695927
0003b0 1b 1c e3 3e 56 33 28 3e 31 41 9c 3d 5b 06 b3 3d
       0.4435738 0.16425833 0.07629622 0.087414466
0003c0 88 7a 18 3f c1 c7 45 be 4b 6b 1a bd 94 45 e2 3c
       0.5956197 -0.19314481 -0.03769998 0.027621068
0003d0 b2 9f 66 be 0b ca dc bd 94 7d 1f be af 02 a2 bc
       -0.22521856 -0.10780724 -0.15575248 -0.01977667
0003e0 c2 18 39 3d 80 9d b7 be 9a 46 8c bc 8a 98 9f 3d
       0.045189627 -0.3586235 -0.01712351 0.077927664
0003f0 5f 6e 65 3f 4e 90 9b be 0a 09 be 3e 61 bf 34 bd
       0.8962154 -0.30383533 0.3711627 -0.044127826

linears.2.bias f4 [20]
000000 e7 4b e2 3c 4a 84 bf bd 4f 85 a7 bd de 5e 8a 3d
       0.027624084 -0.09351404 -0.081797235 0.06756376
000010 c1 08 13 bd ef 05 31 3e 23 77 a0 3d 10 7f 6a 3d
       -0.03589702 0.1728742 0.078352235 0.057250082
000020 1f 1c 7e 3d 5a ae 5a bd 32 59 b4 3c 06 57 8b bd
       0.062038537 -0.05338893 0.022015188 -0.06803708
000030 86 b7 a6 3d 46 ac 40 bd 3c a3 bf ba e4 23 8f bd
       0.08140473 -0.047039293 -0.0014620791 -0.069892675
000040 01 3d 40 bd ae 82 a7 bd 6f d2 18 3d 5e 89 6b 3d
       -0.046933178 -0.08179222 0.03731006 0.05750405

linears.3.weight f4 [1, 20]
000000 b5 24 8c 3d d0 c4 7b bf d2 84 1e bf 15 61 ba 3d
       0.06842939 -0.9834719 -0.6192142 0.09100548
000010 0f c0 9d bf 3f d8 ec 3f 71 b6 06 3f 24 94 37 3f
       -1.2324237 1.8503493 0.52622133 0.7171042
000020 06 bf a8 3e 31 7b 97 be b3 ff ce be 46 b0 f0 be
       0.3295824 -0.29586175 -0.40429458 -0.47009486
000030 5e f5 6a 3e aa ca c3 be 19 dd b1 be 71 36 41 bf
       0.22945163 -0.38240558 -0.34738997 -0.75473696
000040 61 da 8b be b7 4a 6b bf 43 55 3f 3f ff ee 06 3f
       -0.27315047 -0.9191088 0.74739474 0.5270843

exp_avg f4 [20, 2]
000000 27 b1 9d 3b 86 3c 1e bb 76 d8 0b 3b 63 13 97 ba
       0.004812378 -0.0024144961 0.0021338738 -0.0011526163
000010 8c 90 1f bb 52 1d 70 3a f8 fb 73 bb 74 e7 df 3a
       -0.0024347631 0.00091596425 -0.0037229043 0.0017082528
000020 8a 49 18 3c 63 1e 8d ba 8f 11 c5 3a 61 3b 36 ba
       0.009294877 -0.0010766502 0.001503514 -0.0006951597
000030 92 95 0e 3a 2c 3c 44 bb c7 6f e6 b9 62 ca f3 3a
       0.0005439158 -0.0029943092 -0.000439523 0.0018599743
000040 f1 58 41 3b 43 41 f7 b9 fb dd 3e bb 9e 2e 0a 39
       0.0029502476 -0.00047160135 -0.002912401 0.00013178072
000050 7b 9c 8d 3a ca e5 19 ba 0e 46 26 3b be 59 b6 ba
       0.0010804081 -0.0005870728 0.0025371346 -0.0013912243
000060 e2 f9 67 3a 3d e2 95 39 e5 6a 83 3b dd d7 3e bb
       0.0008849186 0.00028588055 0.0040105456 -0.0029120364
000070 a2 b2 1a bb c2 e5 7a 3a b7 9c 9a ba 96 b5 83 b9
       -0.0023605009 0.000957098 -0.0011795972 -0.0002512156
000080 48 d3 51 ba 26 49 25 3a 74 dd 11 3b 6b 70 e0 ba
       -0.00080042006 0.00063051505 0.002225724 -0.0017123347
000090 ba b0 a7 3a 0b 74 c4 38 a9 0c 02 bb c0 75 e1 39
       0.0012793757 9.367623e-05 -0.0019843972 0.00043003075

exp_avg_sq f4 [20, 2]
000000 c8 73 2c 3e 4b a4 19 3c ff 8e 41 3d 4f cb 2b 3b
       0.16841042 0.009377549 0.047255512 0.002621371
000010 53 cf 1d 3d 5b 3f 3f 3b 44 27 4a 3d 2f 13 af 3a
       0.038527798 0.002918205 0.049353853 0.0013357158
000020 43 14 34 3e 7f 66 14 3c 08 5d bc 3c a5 e9 ea 3a
       0.17585854 0.00905764 0.02299358 0.0017922415
000030 d7 19 ad 3c 6e b2 42 3a 38 34 84 3b e8 51 85 38
       0.021130485 0.0007427101 0.0040345453 6.3571904e-05
000040 9f 09 83 3d 1e 85 79 3b 74 04 43 3d e3 2c 0c 3b
       0.063983195 0.0038073729 0.04761167 0.002138906
000050 98 88 e8 3b fb da d8 38 11 e2 24 3d a0 3e aa 3b
       0.0070963614 0.00010340471 0.040254656 0.0051954538
000060 26 cd bd 3a 27 72 96 39 da 9a d6 3d 5b a0 9c 3b
       0.0014480695 0.0002869528 0.10478754 0.004779858
000070 20 aa 8a 3b 59 df 06 3a 83 6f 2c 3c ba 97 0b 3a
       0.0042317063 0.0005144976 0.010524633 0.0005325038
000080 33 39 28 3a fc f1 08 38 bb 91 37 3d 4c d7 0c 3b
       0.0006417215 3.2650292e-05 0.044816714 0.0021490632
000090 ae 85 47 3c c6 70 81 3a 24 82 eb 3c d4 97 fd 3a
       0.012177868 0.0009875528 0.02874858 0.0019347616

exp_avg f4 [20]
000000 45 38 04 3c 59 e8 a6 3b a1 80 9b bb 37 d3 43 bb
       0.008070056 0.005093616 -0.0047455584 -0.0029880533
000010 46 1f ce 3b 8e d2 7c 3b 39 0f 63 3b 97 d0 9f ba
       0.006290349 0.0038577649 0.0034646525 -0.0012192902
000020 99 d7 9e 3b a2 e2 94 bb 5f 61 20 3b 6f 2b 44 3b
       0.0048474786 -0.0045436183 0.00244721 0.0029933115
000030 69 f6 cf ba 10 83 c8 3b 38 eb bb 3a 99 29 2b bb
       -0.0015866283 0.0061191395 0.0014337068 -0.0026117323
000040 5c b3 f1 ba e8 42 86 3b eb 66 7f 3a 64 6a 42 bb
       -0.0018440294 0.0040973313 0.0009742814 -0.0029665465

exp_avg_sq f4 [20]
000000 d1 c7 74 3e f4 75 89 3d 30 c7 65 3d c7 42 a1 3d
       0.23904349 0.06711951 0.056098163 0.07874065
000010 79 c7 ba 3e 9f fd ce 3c 19 54 83 3c 6a 4b 46 3b
       0.3648031 0.02526742 0.016031312 0.0030257353
000020 3b 1e f4 3d ce 42 b8 3d 6b 38 ba 3b 85 66 91 3d
       0.119198285 0.08997117 0.005682995 0.07099632
000030 a9 12 60 3a 9e d2 0d 3e 0a f1 8e 3b 4a b0 a1 3c
       0.00085477025 0.13849875 0.00436223 0.019737381
000040 8b 40 42 3a 3a 4e 5f 3d 90 b4 aa 3c 6b 1d 41 3d
       0.00074101303 0.054517962 0.020838052 0.047147196

exp_avg f4 [20, 20]
000000 3e 98 01 b9 ab 2f 04 38 b7 06 f4 37 ba 75 77 39
       -0.00012359113 3.1515647e-05 2.9090193e-05 0.00023599612
000010 46 fd 56 b9 98 7c 67 37 f1 59 84 b9 25 3e 45 39
       -0.00020502982 1.3797682e-05 -0.00025244014 0.00018810535
000020 c8 4a 89 37 19 00 fa b8 de bf e5 b8 c6 a8 78 b7
       1.6366495e-05 -0.00011920947 -0.00010955309 -1.48212475e-05
000030 f4 76 8c b9 9f 24 2c b9 38 e7 0f 3a 36 ba 2a b9
       -0.00026791508 -0.0001641684 0.00054894714 -0.00016281832
000040 95 1f 0f 39 7d 00 f8 b8 39 84 2d 38 4e 93 91 38
       0.00013649308 -0.000118256525 4.1369556e-05 6.9415764e-05
000050 f6 73 b9 b9 b9 c5 0d 39 38 12 0f 39 50 8d 16 3a
       -0.00035372347 0.00013520465 0.0001364433 0.0005743103
000060 54 4e 3a 3a 6d 77 c9 38 a3 73 59 ba 54 e2 0c 3a
       0.0007107009 9.606672e-05 -0.0008295124 0.00053743017
000070 2b 78 29 b9 1a bf a9 b7 3c d4 cb b9 f6 ec 83 b9
       -0.00016161862 -2.0235359e-05 -0.00038877304 -0.00025162817
000080 74 47 31 ba 6a 58 fa b9 70 bd a9 3a 20 d7 4d b9
       -0.00067626615 -0.0004774959 0.0012950134 -0.00019630464
000090 b8 e2 1e 3a 86 8c 9d b9 57 e4 fa 39 43 25 9d 39
       0.00060610054 -0.00030050072 0.00047853842 0.00029973136
0000a0 75 77 7e 38 ab a2 86 39 e1 0e 15 b7 0e 0c 88 36
       6.0669572e-05 0.0002567967 -8.884556e-06 4.054519e-06
0000b0 9e 1a 8f 39 7f 12 83 39 b5 10 b7 3a 82 9d b0 b9
       0.00027294917 0.00025000048 0.0013966771 -0.00033686688
0000c0 2d 5f 82 b9 1e ff 82 39 68 ff b0 38 e3 32 a2 b9
       -0.00024866444 0.0002498561 8.439907e-05 -0.0003093696
0000d0 ff 87 02 ba da b1 ac 38 42 95 cb 39 d6 7d dd 38
       -0.00049793714 8.2347266e-05 0.00038830383 0.0001056154
0000e0 56 e0 0c b9 ca d5 47 39 f4 40 ac 39 2c bd 32 39
       -0.00013435012 0.00019057762 0.0003285479 0.00017045875
0000f0 01 2b c7 38 92 91 73 39 f6 ad ca 37 2e 37 25 b9
       9.4970695e-05 0.00023228515 2.4161283e-05 -0.00015756182
000100 e1 52 7b 3a 35 6a 77 39 48 47 d0 3a c3 d3 d6 b9
       0.000958724 0.00023595321 0.0015890384 -0.00040975036
000110 cd db b2 b9 f3 28 d5 39 49 b6 a3 38 e3 97 cd b9
       -0.0003411457 0.00040657035 7.806399e-05 -0.0003921381
000120 37 d4 ac b9 53 ce 14 39 12 7d 22 b9 6e 7b 8e 39
       -0.0003296451 0.00014191242 -0.00015496116 0.00027176313
000130 08 31 c5 b8 77 28 6f 39 80 2c f4 39 dd 33 50 39
       -9.402825e-05 0.0002280789 0.00046572462 0.00019855746
000140 3c c0 f5 36 88 05 2a 38 8f f9 b5 b7 d3 2f f6 37
       7.323948e-06 4.053631e-05 -2.1693091e-05 2.9347755e-05
000150 6e 0d a4 38 4c 57 29 38 97 f9 75 b8 9e bb c4 37
       7.822631e-05 4.037404e-05 -5.8645e-05 2.3452387e-05
000160 1f 73 a8 b6 81 1b ea b6 a8 ee b2 36 bd e9 1b b7
       -5.020192e-06 -6.9769453e-06 5.3325966e-06 -9.293141e-06
000170 71 af 8c b8 9f a0 f0 b6 73 19 0a 39 62 e9 8a b7
       -6.708399e-05 -7.171256e-06 0.00013170186 -1.655956e-05
000180 0b cc cf 37 53 58 51 37 07 19 d9 36 05 55 25 b6
       2.4771338e-05 1.2477935e-05 6.4700175e-06 -2.4636404e-06
000190 b9 1e c1 b8 39 4f 00 b9 24 84 a9 37 ed c7 dc 38
       -9.20868e-05 -0.00012236544 2.0207903e-05 0.000105276566
0001a0 cc 4f a6 b9 c2 46 0c b9 01 15 e1 b9 18 01 50 39
       -0.0003172144 -0.000133778 -0.00042930993 0.00019836833
0001b0 b6 26 33 39 9d 50 81 b9 cb 67 b5 b8 3f 09 3e 39
       0.00017085191 -0.0002466486 -8.6500855e-05 0.00018123256
0001c0 8c 6c 8b 38 a1 c2 d4 b8 1d 25 ee 38 85 3f 48 b9
       6.648255e-05 -0.000101452 0.00011355637 -0.00019097149
0001d0 ec db 77 38 49 10 29 b9 7f 89 fb b8 55 80 7f b8
       5.9094207e-05 -0.00016123163 -0.00011994223 -6.0916256e-05
0001e0 51 e4 10 39 82 eb e2 39 ac 70 45 38 32 6c 16 b9
       0.00013817965 0.00043281546 4.7073394e-05 -0.0001434542
0001f0 08 bd b2 3a f1 ec eb 39 a2 02 bd 3a 04 ff ff b9
       0.0013636658 0.00044999228 0.001442034 -0.00048827392
000200 41 b5 36 ba f4 b0 5d 3a c3 e5 b6 38 91 cd 4c ba
       -0.0006969758 0.0008456849 8.721233e-05 -0.0007812614
000210 70 c4 12 ba 3a fc 18 39 16 d9 75 39 c0 63 15 3a
       -0.00055987295 0.00014589811 0.00023445892 0.0005698763
000220 b8 aa 58 38 a6 5c cd 39 89 f8 43 3a 33 72 ca 39
       5.1657407e-05 0.00039169675 0.00074756943 0.00038613527
000230 b7 8b c4 36 0c 05 20 b8 98 ed 39 b8 79 5d 8b 37
       5.85752e-06 -3.8151673e-05 -4.4328714e-05 1.6613618e-05
000240 87 bf 11 ba 04 05 30 b8 97 95 ca b8 2c 50 cd 37
       -0.0005559851 -4.196634e-05 -9.659974e-05 2.4475237e-05
000250 5c f4 1a 39 e4 2a 33 b9 14 64 11 38 f6 6b 29 39
       0.00014777615 -0.00017086748 3.46639e-05 0.00016157315
000260 ae 5c 6e 38 a4 7d 0a 37 c5 02 ac b7 45 b2 f8 b8
       5.6829937e-05 8.254694e-06 -2.0505287e-05 -0.00011858767
000270 a6 ae b8 b8 c2 b0 f7 b7 ce 8b 68 b9 be 5a bd b8
       -8.8063345e-05 -2.9527004e-05 -0.00022177325 -9.029124e-05
000280 d1 6b 0f 39 7e 5c 2e 38 ac 6c 80 b9 cd d2 eb b6
       0.00013677707 4.1570973e-05 -0.0002449503 -7.028086e-06
000290 bb 20 5b ba aa e7 25 38 fd d2 81 b8 85 e5 07 b8
       -0.0008359064 3.955482e-05 -6.190499e-05 -3.2400265e-05
0002a0 6b 88 df 39 a8 ee ef b9 c9 3b 66 39 c5 f2 f5 39
       0.00042635514 -0.00045763445 0.00021956781 0.0004691092
0002b0 66 4b 83 38 88 21 05 39 21 21 d1 38 e8 68 a7 b9
       6.260611e-05 0.0001269636 9.972067e-05 -0.00031930883
0002c0 23 31 a0 b9 fc 36 77 38 ce d1 20 ba 03 49 ad b9
       -0.00030554188 5.8940597e-05 -0.0006134779 -0.0003305153
0002d0 10 20 04 37 34 79 b7 b8 87 6f e0 b7 5c bf 27 b8
       7.875278e-06 -8.748696e-05 -2.6754815e-05 -3.999412e-05
0002e0 95 69 41 b9 20 d4 b3 b8 dd 92 58 b9 76 6c 43 38
       -0.00018445247 -8.5748965e-05 -0.00020654076 4.6592635e-05
0002f0 3f 97 1a 39 bf 80 13 b9 ef 06 75 37 84 83 37 39
       0.00014742928 -0.00014066974 1.4604752e-05 0.00017501233
000300 df 54 5a 39 7f 85 84 37 4e ec aa b9 92 f3 8c b8
       0.00020821717 1.579779e-05 -0.00032600987 -6.721089e-05
000310 18 45 42 b8 3e 4f 3d b8 99 1c 39 b9 ad f7 db b8
       -4.6317553e-05 -4.513491e-05 -0.00017653628 -0.00010488867
000320 f2 a9 95 b7 98 43 3a b8 b5 0b 7e 36 b7 60 70 37
       -1.7841321e-05 -4.4408807e-05 3.7855764e-06 1.4327633e-05
000330 7e aa 49 b9 47 aa 40 b8 24 b3 c7 b8 9e e1 49 38
       -0.00019232367 -4.593495e-05 -9.522427e-05 4.8132257e-05
000340 6c 4e 5e 38 b6 80 85 b8 03 be 8c b7 70 5a 7d 38
       5.300196e-05 -6.3659085e-05 -1.6777782e-05 6.0404127e-05
000350 cf 6c 69 38 32 fb 94 b7 73 4a 13 b8 a0 8b 37 b8
       5.5652865e-05 -1.7759947e-05 -3.5116867e-05 -4.3760636e-05
000360 77 ad 04 36 d7 81 30 b8 43 db 4a b8 d6 59 ed b7
       1.9770503e-06 -4.2082593e-05 -4.8364756e-05 -2.8294435e-05
000370 2e 3b 1a b9 0d a6 07 ba 28 0f 08 39 90 0e a4 b8
       -0.0001470863 -0.0005174585 0.00012975617 -7.822842e-05
000380 a4 ee 38 ba 43 f6 06 ba 63 6e ac ba 07 c0 cf 39
       -0.0007054603 -0.000514839 -0.0013155456 0.00039625188
000390 19 c9 a6 39 49 91 99 b9 61 9e 47 b9 34 42 d5 39
       0.00031811817 -0.0002929068 -0.0001903712 0.0004067585
0003a0 20 c8 54 3a c3 13 f2 b8 9e b2 14 ba 55 d0 cf b8
       0.0008116979 -0.0001154314 -0.0005672368 -9.909334e-05
0003b0 ca 58 f5 38 94 90 bb b9 9b 05 a1 b9 e5 2d 47 b9
       0.000116990486 -0.00035775139 -0.0003071249 -0.00018995216
0003c0 68 ea e1 b9 ce 50 6f b9 01 8f d1 38 1c af 26 3a
       -0.0004308999 -0.00022822918 9.992533e-05 0.0006358491
0003d0 8c cb 15 ba a0 f4 95 b9 5e cb b9 ba 9c 19 46 3a
       -0.000571423 -0.00028601754 -0.0014174988 0.00075569167
0003e0 14 28 f2 39 64 95 5e ba b2 81 cc b9 d7 87 e0 39
       0.00046187697 -0.0008490889 -0.00039006543 0.00042825818
0003f0 09 c8 8e b9 6a 97 07 ba dd ca 20 3a 03 e1 48 ba
       -0.00027233388 -0.0005172404 0.00061337446 -0.0007662924

exp_avg_sq f4 [20, 20]
000000 cc 50 15 38 f5 62 3f 37 95 fb 61 37 f0 bf 7c 38
       3.5599616e-05 1.1407527e-05 1.3469621e-05 6.0260238e-05
000010 5d 1e c9 39 fc 46 79 37 11 f3 bb 39 be c1 a9 38
       0.0003836033 1.4858084e-05 0.00035848518 8.094635e-05
000020 c8 2f 4f 36 6e 9a 1b 37 bd 6b 4a 38 44 2a 04 37
       3.0873216e-06 9.274676e-06 4.8260892e-05 7.877654e-06
000030 c1 98 28 38 4c 4d 6b 38 81 5f 52 39 1c 07 a0 37
       4.0196584e-05 5.6100354e-05 0.00020062739 1.9076797e-05
000040 7f 35 da 38 80 2c 2a 38 27 66 90 38 2c 5d 7a 37
       0.000104050145 4.0572602e-05 6.8854824e-05 1.49228545e-05
000050 a9 4e 98 37 8c 16 ab 38 91 49 6f 38 f1 a7 bd 37
       1.8156441e-05 8.158115e-05 5.7050554e-05 2.260876e-05
000060 7a 8f bc 3a 7e 74 93 38 d5 65 1d 3a 1b 66 07 37
       0.0014386021 7.0312046e-05 0.0006004249 8.0704e-06
000070 d9 2e 03 3a 3a d9 02 3a dd 72 5e 38 28 04 37 3a
       0.0005004234 0.0004991476 5.30359e-05 0.00069815153
000080 c0 a1 eb 39 2b 61 e3 37 eb dd bf 39 d8 1a 23 39
       0.00044943206 2.7105756e-05 0.000365957 0.00015554891
000090 a6 2f 75 39 da b7 1f 37 93 42 68 3a 48 97 9a 39
       0.00023382771 9.519945e-06 0.0008860018 0.00029485882
0000a0 49 31 ac 36 c8 bf 57 36 65 1a d1 38 d2 d6 2a 38
       5.131737e-06 3.2149128e-06 9.970813e-05 4.0731225e-05
0000b0 9c 11 62 3a 50 bd 0d 36 f5 79 0a 3a 01 67 e7 37
       0.000862384 2.1120832e-06 0.0005282455 2.758531e-05
0000c0 c8 1b e0 39 96 52 1e 3a 09 37 06 38 43 b0 03 3a
       0.00042745308 0.0006039528 3.1999345e-05 0.00050235185
0000d0 79 4f 13 36 68 c6 4d 36 66 25 4d 39 06 bb b5 39
       2.1950966e-06 3.0662868e-06 0.00019564255 0.00034662354
0000e0 8e 91 ae 38 81 50 33 37 c3 b6 24 3a 2c 1d 3e 39
       8.324078e-05 1.0687975e-05 0.0006283337 0.0001813068
0000f0 75 ae 89 36 af 7e 23 38 cc 6d 1f 39 2c e1 03 39
       4.1032276e-06 3.898021e-05 0.00015204324 0.00012577017
000100 42 fe 99 3a 78 fd 15 38 03 31 2a 3b bf e2 3a 39
       0.0011748748 3.576043e-05 0.0025969155 0.00017822812
000110 82 e2 88 3a 9d 9a c1 3a 7b 98 c3 37 27 c6 a6 3a
       0.0010443481 0.001477081 2.3316816e-05 0.0012723849
000120 c3 01 ea 38 76 5e 99 37 fa 26 fe 39 48 24 55 3a
       0.00011158318 1.8283008e-05 0.00048475695 0.00081307115
000130 8d 5e 00 39 b1 e9 ac 38 b2 e7 a4 3a 4d 2e d5 39
       0.00012242254 8.2451275e-05 0.0012581258 0.00040661023
000140 41 0b 33 35 52 1b 72 37 1b 32 1e 37 e1 d9 b8 35
       6.6699073e-07 1.4430685e-05 9.4292e-06 1.3772479e-06
000150 6e 87 62 38 a3 48 89 37 a8 d1 c8 38 bf 3b d3 36
       5.4008728e-05 1.6365497e-05 9.575795e-05 6.2952454e-06
000160 bb aa 0e 38 30 33 2f 38 5d e1 aa 36 8b 05 48 38
       3.4014443e-05 4.1770923e-05 5.0926305e-06 4.7688878e-05
000170 82 8e 66 37 7f 4a 7a 35 7a 74 8a 36 10 2d b8 37
       1.37422485e-05 9.3240664e-07 4.12628e-06 2.1955493e-05
000180 25 98 8b 37 70 84 97 36 68 eb 6a 38 31 c6 95 37
       1.6640939e-05 4.5155684e-06 5.6009187e-05 1.7854474e-05
000190 e1 b8 ed 35 ca ef f7 37 0e a2 21 37 e5 29 af 36
       1.7711683e-06 2.9556355e-05 9.634079e-06 5.2202836e-06
0001a0 da 2c d2 38 ba d0 fa 37 36 86 0e 3a a6 db 2a 38
       0.000100219346 2.9899518e-05 0.0005436869 4.0735722e-05
0001b0 cc be 10 39 c4 08 3b 39 a9 fa 38 36 cd ef 3e 39
       0.00013803988 0.00017836975 2.756404e-06 0.00018209145
0001c0 94 08 77 38 95 97 51 36 4c 2f 07 37 63 2a a9 38
       5.8897378e-05 3.123166e-06 8.057639e-06 8.066443e-05
0001d0 f0 f8 88 37 fa de d9 37 bc 9d 18 39 b8 46 63 38
       1.6328384e-05 2.5972247e-05 0.0001455461 5.418688e-05
0001e0 68 ad 47 37 33 9c d1 39 b7 28 99 39 ae 23 9c 38
       1.1901699e-05 0.00039979964 0.0002921277 7.4453055e-05
0001f0 f8 d1 92 3b 74 c3 c7 39 38 0e 08 3c 13 f0 f0 39
       0.0044805966 0.00038101862 0.008304171 0.00045955236
000200 f1 96 56 3b 60 06 83 3b 20 1d a7 38 50 85 8c 3b
       0.0032743777 0.0039985627 7.9686055e-05 0.004288353
000210 88 95 b2 3a 5a 4b cd 37 e3 b1 e6 39 9e 5b e2 3a
       0.0013624886 2.4472993e-05 0.00044001554 0.0017269736
000220 3f a8 15 3a b4 cc 97 39 79 99 89 3b 11 36 c0 3a
       0.00057089695 0.0002895348 0.0041992036 0.001466455
000230 6c 79 23 36 27 20 70 38 c1 67 17 38 0a 14 98 37
       2.435957e-06 5.7250403e-05 3.6097834e-05 1.8129143e-05
000240 39 5e c4 39 a3 05 75 38 01 d7 97 3a 1c d7 a1 38
       0.00037454235 5.84178e-05 0.0011584462 7.7171455e-05
000250 b3 08 c0 39 b5 85 f7 39 05 a8 1a 37 db 71 fa 39
       0.00036627575 0.0004721113 9.218235e-06 0.00047768545
000260 e9 92 06 39 55 d6 cb 36 61 39 5e 38 64 7c 68 39
       0.00012833964 6.074823e-06 5.2982363e-05 0.00022171583
000270 85 00 6c 38 41 6f 46 38 97 07 e3 39 77 80 20 39
       5.626727e-05 4.7310492e-05 0.0004330247 0.00015306646
000280 61 6a ae 36 67 36 81 38 a8 a8 64 38 df 5d c6 36
       5.1979882e-06 6.1613326e-05 5.451651e-05 5.911788e-06
000290 83 9d 5d 3a 6d 69 77 38 56 ec 6d 3a 4f 5c 16 38
       0.0008453952 5.8987574e-05 0.00090760493 3.5848756e-05
0002a0 1b bc ec 39 57 43 09 3a e7 66 e0 37 af 51 1e 3a
       0.00045153577 0.00052361697 2.6750798e-05 0.00060393935
0002b0 87 73 5f 39 ec 9a d2 36 99 50 9b 38 26 85 60 39
       0.00021309975 6.276523e-06 7.4059884e-05 0.00021411906
0002c0 99 42 06 39 ad 53 de 37 71 c7 2f 3a 4a c9 6b 39
       0.00012804045 2.6503427e-05 0.00067054393 0.00022486332
0002d0 7c 8b 78 35 49 81 51 38 8b 82 ec 35 7d 6f 4e 37
       9.2590176e-07 4.994989e-05 1.7621363e-06 1.2304515e-05
0002e0 f1 4f 65 38 b2 80 38 38 60 62 47 39 e9 2b e0 36
       5.4672306e-05 4.3988875e-05 0.00019014766 6.680832e-06
0002f0 4d fc 23 38 25 b1 06 38 e5 22 20 36 ed c3 8a 38
       3.90972e-05 3.211307e-05 2.386217e-06 6.616847e-05
000300 f7 6f 22 39 fb 07 2d 36 9a e2 42 39 31 d5 b8 36
       0.00015491234 2.5783654e-06 0.00018585697 5.508446e-06
000310 a8 d4 8f 37 0c 85 2b 37 a3 87 5a 38 17 9f c8 37
       1.7145954e-05 1.0223372e-05 5.210157e-05 2.391594e-05
000320 ba 6d e4 36 6b 99 1f 37 0c c2 3c 37 72 6d 05 37
       6.8077034e-06 9.512859e-06 1.1250853e-05 7.9529e-06
000330 88 58 23 39 b3 f0 38 37 c1 55 19 37 a8 6b 03 37
       0.00015577872 1.1023297e-05 9.139477e-06 7.833274e-06
000340 fb 2a 7f 37 c5 5b 34 37 35 89 7b 37 f6 cf ce 37
       1.5209192e-05 1.0750203e-05 1.4992712e-05 2.4653953e-05
000350 93 3e 94 37 6b 69 24 37 b2 d9 14 38 9d a1 cc 36
       1.7672113e-05 9.799706e-06 3.5488694e-05 6.098488e-06
000360 03 be 26 38 f8 86 6b 36 cd 95 85 38 b3 e6 8f 37
       3.9754446e-05 3.509629e-06 6.369837e-05 1.7154356e-05
000370 2e 84 f8 36 7c dd 2a 39 eb a2 bd 38 d6 a3 1f 38
       7.4063637e-06 0.00016294973 9.042568e-05 3.806114e-05
000380 98 e0 b7 3a b0 9a 1d 39 d2 61 42 3b ef ad 1f 39
       0.0014028726 0.00015030312 0.0029660356 0.00015228217
000390 6e 4e 8c 3a 70 7b a9 3a 89 b8 f1 37 ff c3 ba 3a
       0.0010704526 0.0012930464 2.881537e-05 0.0014249085
0003a0 96 ab 0d 3a 16 6c 80 37 79 d5 82 39 20 09 10 3a
       0.00054042914 1.530912e-05 0.00024954582 0.0005494524
0003b0 d7 f1 5a 39 6e fa dc 38 11 3d b3 3a d1 c8 ff 39
       0.00020880192 0.00010537064 0.0013674815 0.0004878701
0003c0 f8 84 77 39 5a 4f eb 39 ee 98 15 38 bf ba f2 39
       0.0002360529 0.00044881814 3.5666795e-05 0.00046296974
0003d0 c4 9e 9a 39 b5 65 01 3a 8f f8 59 3c 1e 9a b4 3a
       0.0002949146 0.0004936115 0.01330389 0.0013778841
0003e0 31 5d cf 3a 86 fa 23 3b ad 1f 29 39 28 96 01 3b
       0.001582062 0.002502115 0.00016128896 0.0019773338
0003f0 82 97 07 3a f6 c5 c4 39 cb 94 3d 3a 5f 8a b3 3a
       0.0005172418 0.00037531526 0.000723195 0.0013697854

exp_avg f4 [20]
000000 fd 52 d9 b9 fe fb df ba 6a 0b cc ba 3b f1 ca ba
       -0.00041451296 -0.0017088649 -0.0015567366 -0.0015483269
000010 9e f7 eb b8 dd b8 38 3a 60 a2 4c bb 50 32 f8 39
       -0.000112517955 0.000704659 -0.0031224713 0.00047339732
000020 79 2a a6 3a ee 72 3e 3a 12 9e 8a 39 55 31 29 3b
       0.0012677453 0.00072650507 0.00026439183 0.0025816758
000030 73 47 71 3a 94 37 11 39 ff ff de 38 59 aa 75 3a
       0.0009204067 0.00013848982 0.00010633468 0.0009371392
000040 1b 92 61 ba af 68 83 3a 9a 4d 71 3a 96 5b 3c b9
       -0.000860484 0.0010025705 0.0009204984 -0.00017963196

exp_avg_sq f4 [20]
000000 10 90 84 39 78 2c 32 3c a1 d1 3e 3b 30 e3 2f 3c
       0.00025284337 0.01087486 0.0029116648 0.010735318
000010 be c0 2d 3a e1 c9 23 3b 48 8b 62 3d 7f 3e c4 3b
       0.0006628147 0.0024992155 0.05530861 0.0059888954
000020 6d bf 02 3c 70 0b 06 3b e4 bf d2 39 28 c7 9f 3c
       0.00798021 0.0020453595 0.0004019729 0.019504145
000030 be 06 d7 3c 93 72 11 3a 61 f1 f4 3a 1b e5 99 3c
       0.026248332 0.0005548384 0.0018687659 0.018786004
000040 28 d5 f8 3b d0 31 bc 3b 4c af f2 3b 55 e2 6e 3b
       0.0075937696 0.005743243 0.007406151 0.0036450822

exp_avg f4 [20, 20]
000000 da 72 5f b7 24 ea b3 35 34 98 bb 37 37 e5 20 37
       -1.3318577e-05 1.3404683e-06 2.2363012e-05 9.590111e-06
000010 70 d8 8e b6 36 35 bb b5 b7 5f 48 36 93 74 e9 36
       -4.2571264e-06 -1.3948072e-06 2.9858036e-06 6.957512e-06
000020 c3 90 14 36 2f a0 ca b4 f2 b6 56 b7 d3 d9 05 37
       2.213798e-06 -3.774198e-07 -1.2797989e-05 7.978134e-06
000030 84 70 b0 36 e3 a9 96 37 25 eb 60 36 ed e3 ab 34
       5.2583073e-06 1.7960503e-05 3.3515473e-06 3.201707e-07
000040 9b e4 e6 36 86 b4 a5 37 aa 93 28 b7 98 2c 0f 38
       6.8811473e-06 1.9753596e-05 -1.0047961e-05 3.4135388e-05
000050 6b 8e e0 39 c3 63 9c 39 d2 c0 29 3a f5 17 ee b9
       0.0004283072 0.00029828967 0.0006475571 -0.00045412747
000060 a3 49 83 39 3b f1 95 39 43 dd 06 b9 7e 3b 81 b9
       0.0002504113 0.00028599225 -0.00012861662 -0.00024649122
000070 b0 fd a7 b9 04 7d 35 b9 4d cd ff 39 2d 9d 4a b8
       -0.00032041734 -0.00017308077 0.0004879035 -4.8306934e-05
000080 ed d3 b1 b8 9a 8f cc b9 ea 5c 90 b7 54 86 e0 b9
       -8.479492e-05 -0.00039016904 -1.7209404e-05 -0.00042824692
000090 ef 71 95 b9 21 8c c9 b7 75 94 b0 39 b4 4a 13 ba
       -0.00028504382 -2.402632e-05 0.00033679945 -0.00056187366
0000a0 c3 c9 2f b9 12 92 90 39 9f 5f d1 ba b3 3d af ba
       -0.00016764463 0.0002757465 -0.0015973932 -0.0013369828
0000b0 46 f7 8a b8 d8 f0 3b b9 90 09 54 b9 96 12 2b b9
       -6.626411e-05 -0.00017923431 -0.00020221458 -0.00016314755
0000c0 c6 a6 1f 37 0f d3 0c b8 eb 27 45 38 86 4b 4c 3a
       9.5159685e-06 -3.3575165e-05 4.7005637e-05 0.0007793236
0000d0 5c a3 f7 b8 0c 75 38 39 1a 39 ce 39 9e aa 93 38
       -0.00011808306 0.00017591211 0.00039333926 7.041286e-05
0000e0 30 62 f6 38 28 ea a0 b9 62 2d 85 39 6c 96 b0 39
       0.00011748483 -0.00030692038 0.0002540155 0.0003368141
0000f0 a8 82 93 b7 9e f6 41 b8 b4 15 bc b8 79 14 c1 38
       -1.7584607e-05 -4.6244466e-05 -8.968581e-05 9.2067705e-05
000100 12 0b ca 35 e5 53 54 b7 ba 30 ae 37 ae ad 17 37
       1.5053395e-06 -1.2655718e-05 2.0765106e-05 9.040739e-06
000110 4b e4 39 38 27 e0 09 b8 3a 38 0a b8 46 4d e8 b7
       4.432005e-05 -3.2872103e-05 -3.295413e-05 -2.7692538e-05
000120 e9 b2 e6 b7 d8 d9 86 37 7f 71 2e b7 e9 9d 08 38
       -2.7501448e-05 1.6075486e-05 -1.0397634e-05 3.2571992e-05
000130 dc fc 61 37 83 e3 40 b7 a0 e0 48 b8 1b c5 4e b6
       1.34699185e-05 -1.14970635e-05 -4.7892914e-05 -3.0811123e-06
000140 f4 b5 a7 b8 78 64 f9 3a 40 d9 9b ba 18 f8 e2 b9
       -7.997072e-05 0.0019027134 -0.0011890307 -0.00043290923
000150 3d 51 5b b8 83 4a 2d 38 97 ce 75 b9 28 6a ff 37
       -5.2289328e-05 4.131581e-05 -0.00023441981 3.0447802e-05
000160 e7 03 83 b9 27 f1 f8 b8 6c e7 eb b8 63 89 3e 3a
       -0.00024989175 -0.0001187048 -0.00011248779 0.0007268397
000170 bd b1 0a 39 e8 a0 1b 39 a2 97 23 39 dd 24 88 3a
       0.00013226918 0.00014841894 0.00015601379 0.0010386963
000180 61 58 ba b7 71 d9 c3 39 7d ae c1 3a b9 d1 7b 3a
       -2.2214082e-05 0.00037355305 0.0014776733 0.0009606141
000190 4b e2 d1 b8 68 73 10 ba 1b e1 22 3b f1 21 e2 3a
       -0.00010008047 -0.0005510361 0.0024853412 0.0017252547
0001a0 1b 61 56 b9 af 77 9d b8 69 6d 8f 39 c1 2b 97 39
       -0.00020444805 -7.508636e-05 0.00027356602 0.00028833564
0001b0 26 51 a9 38 15 be d4 3a 68 e2 e6 b9 87 cd 44 ba
       8.073663e-05 0.0016230965 -0.00044037704 -0.00075074326
0001c0 aa 66 a0 39 fe 8a 2e 37 71 ba 9e b9 70 cc a0 38
       0.0003059407 1.040357e-05 -0.00030275018 7.667474e-05
0001d0 d5 c0 4a 39 a2 91 98 39 ba da 36 ba 59 a8 ff 39
       0.00019336057 0.00029100204 -0.0006975342 0.0004876282
0001e0 f7 9c 76 37 88 83 96 ba e4 d3 0e 39 41 48 39 b9
       1.4699289e-05 -0.0011483291 0.0001362111 -0.00017669892
0001f0 68 aa 60 38 98 64 f6 37 61 bc 73 b8 24 33 28 39
       5.3564465e-05 2.9372328e-05 -5.8111156e-05 0.0001604078
000200 80 76 c1 39 84 90 4b ba e7 19 c4 b8 3c 1f 73 ba
       0.00036900118 -0.000776537 -9.350833e-05 -0.00092743686
000210 ae 82 ca b7 88 77 19 38 fa e0 ca b8 b5 04 c3 b9
       -2.4141129e-05 3.6589365e-05 -9.674016e-05 -0.00037196805
000220 24 5d 1f b9 5c 6f c9 b9 83 e6 8e ba c1 d8 83 ba
       -0.00015198119 -0.00038420677 -0.0010902438 -0.0010059105
000230 f7 33 7e b9 a1 be 0c ba ce a1 23 ba 05 56 a9 39
       -0.00024242686 -0.0005368982 -0.00062420673 0.0003229828
000240 b3 11 08 b9 dc a6 22 b9 fc 76 09 b8 ca 3e 91 b8
       -0.00012976564 -0.00015511684 -3.2774158e-05 -6.925834e-05
000250 37 b7 18 39 63 4e 67 b9 62 39 96 b8 d1 0f c0 38
       0.00014564102 -0.00022059078 -7.163246e-05 9.1582195e-05
000260 ac f7 ef b7 ba 9c 74 39 92 27 a4 38 31 95 7b b9
       -2.8606351e-05 0.00023328039 7.8275e-05 -0.00023992803
000270 cf 36 1d 39 9f 95 37 b9 af 40 12 ba 9b f4 dc 39
       0.00014993105 -0.00017507978 -0.00055790966 0.00042143915
000280 4b 61 63 37 a6 ff 0d b9 9d 83 68 39 ce 47 7c 39
       1.3552907e-05 -0.00013542044 0.00022174274 0.00024059342
000290 22 e6 f1 37 71 99 3f 38 51 5c 71 37 5f a5 be 38
       2.8836603e-05 4.5680852e-05 1.43862135e-05 9.090709e-05
0002a0 52 78 f0 38 01 74 92 b9 ba e4 94 b8 4f 5c 88 b9
       0.00011466503 -0.0002793372 -7.0997936e-05 -0.00026008717
0002b0 16 e3 ad 37 34 ad b5 36 8b 58 8f b8 91 af 70 b9
       2.0728952e-05 5.414384e-06 -6.835264e-05 -0.00022953587
0002c0 c4 ff 8b b8 b4 ad b5 b6 80 74 23 b9 70 fd 18 b9
       -6.6756766e-05 -5.414442e-06 -0.00015588291 -0.00014590262
0002d0 ab 88 6d 38 13 d0 cc b7 24 80 25 38 2f 98 af b8
       5.6632485e-05 -2.4415587e-05 3.9458406e-05 -8.372997e-05
0002e0 38 1a b0 37 45 d7 2c 37 2e 8c c0 b7 10 52 9a b8
       2.0993044e-05 1.030212e-05 -2.295346e-05 -7.3585776e-05
0002f0 37 f3 96 b8 f6 f1 01 b8 7d ca f2 38 06 b3 04 38
       -7.19786e-05 -3.098134e-05 0.000115771756 3.163798e-05
000300 02 a1 f9 b7 a6 ab 92 b8 77 5a 06 37 55 ab 11 b6
       -2.9758088e-05 -6.9937945e-05 8.008085e-06 -2.1706412e-06
000310 d3 9f ba b7 9c 17 bb b8 fc ed 1a 36 3d 88 0c b8
       -2.2247352e-05 -8.9212524e-05 2.3086313e-06 -3.3505483e-05
000320 bf 8f 7d 39 b9 5d 4a 39 08 b4 36 b9 05 b3 04 ba
       0.0002418151 0.00019299136 -0.0001742394 -0.00050620764
000330 e8 f7 2a 39 70 96 35 39 d9 c4 4d b8 1c 7f 86 b9
       0.00016304816 0.00017317547 -4.9059137e-05 -0.00025653176
000340 ea 06 af b9 38 27 1d b9 ac 8f ea 39 2d 26 4e 39
       -0.00033383752 -0.00014987297 0.00044739002 0.00019659913
000350 06 6b d7 b8 d9 c9 84 b9 0b 59 9a 38 15 f1 c7 b9
       -0.000102719336 -0.0002532739 7.359878e-05 -0.00038135858
000360 6f d7 c6 b8 72 3f a9 38 db b5 78 39 76 02 af b8
       -9.4815034e-05 8.0703656e-05 0.0002371887 -8.345109e-05
000370 ea 01 73 39 c7 72 06 3a 29 c5 aa b9 ce b5 2d ba
       0.00023174999 0.00051287975 -0.00032571823 -0.0006626517
000380 3a 71 7a 38 49 15 29 39 9b f4 53 b7 ef bd 1b b9
       5.9710095e-05 0.00016125025 -1.2633532e-05 -0.00014852708
000390 7d 57 a7 b9 2c 5c b0 38 2d 5e a5 39 75 b1 86 39
       -0.00031917906 8.409502e-05 0.0003154142 0.00025690687
0003a0 e0 ee 32 38 e7 a7 74 b9 05 4d 8c b8 33 22 5c b9
       4.2660977e-05 -0.00023332202 -6.690066e-05 -0.00020993575
0003b0 eb db 2c b8 a8 da 66 39 bf 23 00 3a 68 5b 34 b7
       -4.121281e-05 0.00022015965 0.0004888139 -1.0750118e-05
0003c0 68 f5 a4 b8 ee d4 08 b9 67 78 99 b7 54 74 70 39
       -7.86584e-05 -0.00013049293 -1.8295088e-05 0.00022931519
0003d0 8d 4d 4a b8 0c 30 6c b8 46 d3 21 38 63 c4 b0 38
       -4.8232778e-05 -5.631153e-05 3.8582155e-05 8.428914e-05
0003e0 0b 79 0c 39 06 1c 92 b8 70 7b 11 b9 42 05 a6 b8
       0.00013396532 -6.967042e-05 -0.00013874262 -7.916476e-05
0003f0 94 1e 52 37 ef fc a8 38 60 59 6b b8 e5 40 e5 38
       1.2524095e-05 8.057977e-05 -5.6111603e-05 0.000109316585
