model.ckpt-2000.pt (torch, 219174 bytes, 36 tensors)

linears.0.weight f4 [64, 2]
00000000: 834a c3bd f308 a63e 2cda 3dbe be12 febd
00000010: 9419 2ebd 40a9 82be fa04 683d 5ecd 10be
00000020: 7c68 93be e3c1 a13e dab3 34be 30a8 66be
00000030: 44e8 463e 0003 633e 82f9 0dbe 9939 683e
00000040: 3484 81be c0b0 123e 4114 273e f30e 13be
00000050: be24 ecbd 6415 77bc 3d0a 40be cd6c d23d
00000060: 2773 0c3e c905 c33e fbba 823a aa94 553e
00000070: 4d27 013e 7e62 643c b5d9 19be 9504 2e3e
00000080: 3b78 9b3e f6fa 9dbe 231f 1b3e efde 3fbe
00000090: 98e2 45be ebe2 51be 91b5 8ebd c751 53be
000000a0: ca0c 86be 6808 833d 38b8 3ebd a5ce a13d
000000b0: c60b 4a3e 712b a03e 1515 633e d026 3f3e
000000c0: 7d20 91bd 4ed9 68be c117 fcbd 2668 4d3e
000000d0: 7d1f 0bbe 7ebd 46bd 8712 0cbe 2dc5 323e
000000e0: 3e3a 88be ca9f 68be ce62 e73d 8956 4bbe
000000f0: a71b 3e3e ebff c1be 728e 49bc 9e16 963e
00000100: 4277 893e e9e1 023e 5a55 18bd 9a8c 2d3e
00000110: f0a7 823e f797 603e ad63 683c 3ade 8fbe
00000120: b61c 653e 0d2b ef3d 9b2d 8e3c 8135 6b3e
00000130: 5234 8b3e 6f4b 323e 01dc 063d ebbf 5bbe
00000140: d91b 7c3e 50f3 09bd 4f45 863d 156a 2dbe
00000150: c55e 153e e1c4 f33d 7434 8e3e c9c8 993e
00000160: cd6b a33e f069 2fbe 8491 eebb 6f7d 92be
00000170: 942a 06be db9c 79be 6855 07bc 7ae8 913e
00000180: 1150 a33e 4072 91be f425 033d e5a3 5abe
00000190: f999 5bbd e4a8 0f3e 6011 2e3e 016f 8ebe
000001a0: 871d 933e fc87 de3c cdb2 1cbe fc81 4b3d
000001b0: 05cb 9cbe bf94 a43d c996 72be 1c85 b1bd
000001c0: f14e 783e 75ec 913e bae7 193e 9015 913e
000001d0: 1a7f 1f3d 9358 fcbd efef 5fbe 95d3 50bd
000001e0: e47b 933d 733a 4b3d 8a23 043e 7028 efbd
000001f0: 24d9 8c3e 4547 2fbd 961a 123e 3e69 5abe
-0.09535696 0.32428703 -0.18540257 -0.124059185 -0.042504862 -0.25519753 0.05664537 -0.14140841
-0.28790653 0.31593236 -0.17646733 -0.22525096 0.1942454 0.22169113 -0.13864711 0.22678222
-0.25296175 0.14325237 0.1631632 -0.14361171 -0.115304455 -0.0150807835 -0.18753906 0.10274658
0.13715802 0.3809035 0.0009973937 0.20857492 0.12612648 0.013939498 -0.15024455 0.16993935
0.30365166 -0.3085553 0.15148596 -0.18737386 -0.1932472 -0.20496719 -0.06968225 -0.20636664
-0.26181632 0.06398088 -0.046562403 0.079007424 0.19731054 0.31283143 0.22176011 0.1866715
-0.07086275 -0.22739145 -0.12309218 0.2005926 -0.1358623 -0.048520558 -0.13678943 0.17458029
-0.26606935 -0.22717205 0.112981424 -0.1985723 0.18565236 -0.37890562 -0.012302028 0.2931413
0.268488 0.1278149 -0.037190773 0.16948166 0.2551875 0.2193297 0.014183921 -0.28099233
0.22374234 0.11678133 0.01735573 0.22969629 0.27188355 0.17411588 0.032924656 -0.2145993
0.24619998 -0.033679307 0.06556188 -0.16934998 0.14586933 0.11902786 0.27774394 0.30036
0.31918183 -0.17130256 -0.0072805304 -0.28611323 -0.1310218 -0.24376242 -0.0082601085 0.28497678
0.31897023 -0.28407478 0.032018617 -0.21351583 -0.053613637 0.1402927 0.16998816 -0.27819064
0.28733465 0.027164452 -0.15302582 0.04968451 -0.30623642 0.080361836 -0.23690332 -0.08667967
0.24248864 0.28500715 0.15029803 0.28336763 0.038939573 -0.12321582 -0.21868871 -0.05098303
0.07201365 0.04961629 0.12904182 -0.11677635 0.27509415 -0.042792577 0.14267954 -0.21329209

linears.0.bias f4 [64]
00000000: 5d3e ae3d 1feb 183e 1b3e a33b 68a2 a7bb
00000010: 6eb7 8e3d abc0 383d 4264 f53b 919e 6fba
00000020: f2ff 5b3c 42c3 9a3d 2ca0 24bb 1362 1dbd
00000030: c3ad 25be 4ecb 293e de69 50be ec89 0cbe
00000040: 9659 a63d f662 0dbd fbcd 103c f328 183d
00000050: cd90 f03b 0cf7 c33c ff61 a2bc 93e3 43bd
00000060: 8323 b53e ba8f 96bc 0509 883d 739e 5fbe
00000070: 5a0f 8b3d 22b2 9fbc 8fe0 c1bd aff4 9d3d
00000080: 8ce0 5d3d 212b 4f3d a75d 183d dbea 8c3d
00000090: 0efb df3d 72da 753e f4f4 82bd 2af6 67bd
000000a0: 1d47 243e 8c52 093d a316 223d 12e4 863d
000000b0: 7719 b7bd 74b8 95bc 9aa4 06bd df4f c3bd
000000c0: 1324 293e 4880 06be 1a91 fbbd 31bc 45be
000000d0: c5a4 5bbd 4f3a 793d 8005 47be 8dca 6ebd
000000e0: e05b 543d 17ed 86bd 45ae 043d 881a c7bc
000000f0: 2619 23bd bab2 cf3d 7334 5a3d 6b9c f0bd
0.085079886 0.14933442 0.004981769 -0.005115796 0.0696858 0.045105617 0.0074887583 -0.00091407547
0.013427721 0.07556774 -0.0025119884 -0.03842361 -0.16179566 0.16581461 -0.20352885 -0.13724488
0.08122556 -0.034518205 0.008838172 0.037148427 0.0073414803 0.023921512 -0.019822119 -0.047824454
0.35378656 -0.018379081 0.06642345 -0.21837787 0.067900375 -0.01949412 -0.09466659 0.07712685
0.054169223 0.05057824 0.03719869 0.068807326 0.10936557 0.24009112 -0.06394377 -0.056631245
0.16042753 0.03352599 0.03957237 0.0658647 -0.08940404 -0.01827643 -0.03287182 -0.095367186
0.16517667 -0.13134873 -0.12283535 -0.1931007 -0.053623933 0.060846623 -0.19435692 -0.058298636
0.05184543 -0.0658819 0.03239276 -0.024304643 -0.039818905 0.10141511 0.053272676 -0.11748584

linears.1.weight f4 [64, 64]
00000000: f64c 25be 6c57 833d 920d 30be 2e67 5b3e
00000010: 3850 1c3d 0366 0e3e 606b 81bc bf2a 3cbe
00000020: bb2b a73d 416a a2bd ba90 3f3e 89b6 fcbd
00000030: 50e0 2fbd fcc7 253e ceec eebd 7df3 093e
00000040: bc2b 283d aa39 f23d 6aa0 b2bc cdee 483e
00000050: 8a00 ac3d 6d76 02be 73be e8bc bf1b 15be
00000060: 5832 493e ecb4 3e3d 6288 fbbd 8afa 02be
00000070: 57ed 47be 58aa 4bbb c0cf fe3c e8c4 873d
00000080: e6d3 793d 9938 abbc e8b6 e3bd c720 2b3d
00000090: 2b36 a0bd 70a8 34bd ab23 06be 0ee1 363e
000000a0: a697 57be 3360 3fbe 312d 52be 3857 47be
000000b0: fb1f c5bd 4711 393d 4bc8 20bd 5ffe 64bc
000000c0: 78ed 533e 98a2 383c 4527 80bd a70b 253e
000000d0: 890c 263d 0a1f 713d 2cfb 5e3e bae2 d8bd
000000e0: 406f b03d 7768 50be 75fc 21be ed37 13bc
000000f0: 483b babd 4f4c 67bd 68da 3bbd 0174 133e
00000100: 620c e3bd 6203 193e 2ed3 48be 2956 92bc
00000110: a3f4 f5bc ab2a 19be 8710 b73d 3732 823c
00000120: 3983 0ebe 6a97 733d 30fb da3c 272c 143e
00000130: ac34 ffbc 96c0 363e 3c21 393e 4c68 2bbe
00000140: 89b8 fbbd 4840 513e 14b3 a0bd b006 f13d
00000150: 4cce 0cbe 9227 23be 1d25 363e be5c 323e
00000160: 845c 76bd 0711 79bd 1aed a1bd 6bd1 a6bd
00000170: e441 273e 5cac 843d c55f b6bc c627 d9bd
00000180: 2bc2 263e 7f24 353e 3838 5e3e 0006 583b
00000190: 597f 46be 3654 493e 108f 58be fcda 6cbe
000001a0: e64e 41be d0d7 57be 2240 603e 881d 4b3e
000001b0: 7ab1 38be 3eca 1e3e 7532 41be 2d56 f33c
000001c0: e8eb f53d 60f5 7d3d a751 0fbe b9e7 0abd
000001d0: 9532 e4bd 1773 913c afa2 b83c bcd1 07be
000001e0: 2df4 043d 5b1c 293e 86ae 49be 7589 ab3d
000001f0: c2cd 3d3e c1e4 a3bd d2a6 973d 6833 453e
00000200: 18e7 963d fcfd 16be dda9 3cbe 7340 323e
00000210: 31ed 113b 82d3 093e 952e 94bd a1f1 f8bc
00000220: 593e c9bd 6011 873d a8a2 243e b240 4dbe
00000230: c29e 91bd c3c4 72be 7158 e3bc 080c 91bd
00000240: a56d 283e 33ea 91bd 9390 48bd 23ce 4a3e
00000250: 3b59 413e 3ba0 9bbc de87 25bd 6365 08be
00000260: 9732 1b3e d19c 8ebd 8114 a53d 907f ed3d
00000270: c3ca 413e abe8 30bc 1398 323e c69a 1bbe
00000280: 7181 6ebd d111 6abc 9cde 1d3e 8cac 55bd
00000290: fbdb b2bc 5f3a 72be cbaf 403e 62ff 293c
000002a0: 3218 36bd 6ccb 0d3e 0d1f 0b3e 23f5 4a3d
000002b0: b5c6 643e 6ec1 323e 7d6f e03b 99f6 973d
000002c0: 80dc 543e 695d 2f3e 6842 67be 47d6 323e
000002d0: 7507 603e 07e2 4dbe b211 2a3e ce32 413d
000002e0: 6b61 b7bd 4ce8 293e beb3 21bd eb97 3f3d
000002f0: 7dbd 58bd 6b3a bcbc 15b8 0dbe d47b 3c3e
00000300: 880d 4e3d 3995 de3d 5bf8 213e e797 89bc
00000310: 02fe f0bb 7622 be3d 013d 9d3d 0d78 5b3e
00000320: 58af 123e 32ea 0a3e a484 983d 4cb2 903b
00000330: dd91 57bd cf2b 413d 4a03 2f3e 0a17 473e
00000340: 9ae7 563e 2c66 0a3e 285c b0bc 5cae 15be
00000350: a30a 393c b649 cabc 4fbe b4bc cabe 003e
00000360: a663 b0bd 393e 1abe 7242 89bd de6b 8c3d
00000370: 2bb3 10be 997f ea3d ab12 433e 9ec5 f93c
00000380: a3ea 00bd 84b9 f9bc 79db 37be d224 b13d
00000390: cf4b b23d e548 53be 32a5 f5bd 5893 173e
000003a0: f064 5cbd 1afe 293b aedc 30bd 3341 a1bd
000003b0: 86e3 a83d 5927 0dbe c3db ac3d d0d2 993d
000003c0: 6f79 27be 8556 14be 7f32 633d 0ded 623a
000003d0: b84c 08be bc84 d13d 9b58 3cbd 3bba de3d
000003e0: 4548 61be 7266 c2bd 3fa7 dbbd b9e6 f23d
000003f0: c855 1a3e 9f55 55be d038 88bd 0cfc dc3d
-0.1614264 0.06413159 -0.17192677 0.21426079 0.03816244 0.13906102 -0.01579827 -0.18375681
0.08162638 -0.079304226 0.18707553 -0.12339503 -0.04293853 0.16189569 -0.11666261 0.1347179
0.041057333 0.11827405 -0.021805007 0.19622345 0.0839854 -0.12740488 -0.028411126 -0.14561366
0.19648111 0.04655926 -0.12281872 -0.12790886 -0.19524132 -0.0031076875 0.031104922 0.06629354
0.060993098 -0.020901011 -0.11118871 0.041779306 -0.07822832 -0.044105947 -0.13099544 0.17859289
-0.21053943 -0.18689041 -0.20525052 -0.19466865 -0.096252404 0.045182493 -0.039253514 -0.013976662
0.20696056 0.011269234 -0.0625749 0.16117726 0.0405393 0.05886749 0.21775502 -0.1059012
0.08614969 -0.2035235 -0.15818961 -0.008985502 -0.09093338 -0.056469258 -0.045862585 0.1439972
-0.11086346 0.14942697 -0.19611809 -0.01786335 -0.030023878 -0.14957683 0.08938699 0.015893085
-0.13917245 0.05947057 0.026731104 0.14469968 -0.031153046 0.17846903 0.18079084 -0.16739005
-0.12291057 0.20434678 -0.078466564 0.11768854 -0.13750571 -0.15933064 0.17787595 0.17418191
-0.060146824 -0.060807254 -0.07906552 -0.08145412 0.16333729 0.064781874 -0.022262463 -0.10603289
0.16285007 0.17689703 0.21701133 0.003296256 -0.19384517 0.1966103 -0.21148324 -0.23130411
-0.18877754 -0.2107842 0.21899465 0.19835484 -0.18036452 0.15506837 -0.18866904 0.029704178
0.12007886 0.062001586 -0.13995992 -0.033912394 -0.1114246 0.017755074 0.022538511 -0.13263601
0.032459427 0.16514723 -0.19695482 0.08375827 0.18535522 -0.08002616 0.07404865 0.19257891
0.073682964 -0.14745325 -0.18424173 0.17407398 0.0022266621 0.1345959 -0.07235447 -0.030388655
-0.09826345 0.06595111 0.16077673 -0.2004421 -0.07110359 -0.23707871 -0.027752133 -0.07082373
0.16448076 -0.07124748 -0.048966 0.19805197 0.18881695 -0.018997302 -0.040412776 -0.13319926
0.15156017 -0.06963504 0.080605514 0.11596596 0.18925004 -0.01079766 0.17440824 -0.1519576
-0.058228914 -0.014286474 0.1541695 -0.052166507 -0.02183341 -0.2365508 0.1881706 0.010375829
-0.04445667 0.1384713 0.13586064 0.049550187 0.22341426 0.174566 0.006849228 0.07420082
0.20787239 0.17125477 -0.22583926 0.17464553 0.21877845 -0.20105754 0.16608313 0.04716759
-0.08954128 0.1659252 -0.039478056 0.04677574 -0.052915085 -0.022977075 -0.13839753 0.18406612
0.050305873 0.10868306 0.15817396 -0.016796065 -0.007354499 0.09283917 0.07677651 0.21432514
0.14324701 0.13565901 0.07447174 0.004415786 -0.05262934 0.04716092 0.17091098 0.19442382
0.20986786 0.13515538 -0.021528319 -0.14617294 0.01129404 -0.024693351 -0.022063402 0.1257278
-0.086127564 -0.15062799 -0.067021266 0.068565115 -0.14130847 0.114501186 0.1905009 0.030489739
-0.031473767 -0.030483969 -0.17954816 0.08649601 0.087058656 -0.20633276 -0.11994399 0.14802301
-0.0538072 0.002593881 -0.043179207 -0.07873764 0.08246522 -0.13784541 0.08440354 0.075109124
-0.16354917 -0.1448613 0.05546808 0.0008656539 -0.13310516 0.10230395 -0.04598294 0.108753644
-0.22000225 -0.09492196 -0.10725259 0.11860413 0.15071785 -0.20833443 -0.06651461 0.107902616

linears.1.bias f4 [64]
00000000: 940b 763a 3cf8 f13c 6235 62bd 1121 d5bd
00000010: ae77 d23c be80 423d 019e a7bd f973 0cbe
00000020: 3e20 113c 3fa1 85bd 4acc ebbc 2e8b 10bd
00000030: ee9e 023e 9401 e3bc 06f6 97bd 7bbd d138
00000040: 94a0 5dbd f686 dbbc cd4f eebb 41ea e83d
00000050: 7995 a43d a87a bc3c e0b3 753c 4aef 1dbd
00000060: 0b69 7f3d 1a99 3cbb f3f2 8dbd 5692 0f3e
00000070: 3483 ad3c 1074 773c 5982 17be cda3 16bd
00000080: 5f84 813c 36a1 6abd f282 063e 6fd2 48be
00000090: 9d3f 62bc 3a1d 1bbe cdc1 8b3c 486f 323d
000000a0: a698 e1bb 57e6 4fbd ffa4 c7bd e94b 0bbe
000000b0: 8f76 4dbe c023 053e da32 c8bb f80e ecbc
000000c0: bab0 fc3c cc41 07bd 0901 e53c a1da 953d
000000d0: 114a 2cbe b144 b8bc a916 733d d7f8 07be
000000e0: 188f e13b b894 cb37 e601 81bc a9e3 02bc
000000f0: 67e4 00bb 9d0b 263d fcfd 7abd cad7 f6b8
0.00093858805 0.029537313 -0.05522669 -0.104066975 0.025691833 0.04748606 -0.08184434 -0.13716115
0.008857785 -0.06524896 -0.028783936 -0.035288982 0.1275594 -0.027710713 -0.07419972 0.0001000119
-0.054108217 -0.026797753 -0.0072726966 0.113728054 0.08036322 0.023007706 0.014996499 -0.038558282
0.062356036 -0.002877778 -0.069311045 0.14020666 0.021180727 0.015103355 -0.14795817 -0.036777306
0.01581019 -0.05728265 0.13135889 -0.19611524 -0.013809112 -0.15147868 0.017060185 0.043563157
-0.006884652 -0.05075678 -0.097482674 -0.13603176 -0.20064758 0.13001919 -0.0061095776 -0.028815731
0.030845989 -0.033021733 0.027954595 0.07317091 -0.16825129 -0.022493692 0.059347782 -0.13278519
0.006883513 2.4268738e-05 -0.015747976 -0.007988849 -0.0019667388 0.04053842 -0.061277375 -0.00011770388

linears.2.weight f4 [64, 64]
00000000: 0019 d0bd 72fc 043e 2a31 ebbd a9d9 28bd
00000010: f87a 26be 8eee b7bd ee92 503e b2a7 e23d
00000020: 85d2 a7bd 2736 18be 6927 5c3d e8a5 aebc
00000030: a4f9 383e f2c1 113e 13dc 903d d731 8b3e
00000040: 9a38 d23d 5250 1fbc 6af9 b93d 8769 adbc
00000050: de45 ecbd 1b5f 733c 53d8 babd 52d8 f2bc
00000060: 2516 f5bc 209b 4abe 328a d1bd 8c81 5cbe
00000070: c5fb f1bd 2339 f1bd 786e be3d 19f8 e23d
00000080: 471f 8fbd 27c9 c53d 1309 2b3e 14e7 7bbd
00000090: 3fda fbbd 5e59 b9bd 5924 2ebe b471 16be
000000a0: 972d 743d 6a3d 283e a542 273e a91b 3bbe
000000b0: 5871 debd 704a 16be 2ea0 833c d090 87bc
000000c0: bb9e 3b3e ca21 06bd 15c1 16bd 62af f6bd
000000d0: dba4 983d e255 0f3e 9851 9fbd 632a b13c
000000e0: 8d45 d13d b4ef 343e ecd9 8a3e c7ee 9e3d
000000f0: ee8d 1f3e 4cd8 f3bd aa25 22be 2500 96bd
00000100: 480b ddbd 2d62 74b9 6703 21be 7616 cabd
00000110: affa f13d b522 d9bd b06a 65bd 22ab f0bb
00000120: b3e8 0ebd afcb 033e 1472 65be a342 0d3e
00000130: 4507 033e 49d5 9dbc 6e97 97bd 822a a13d
00000140: 8ce6 14be dd13 5a3e 2b6a 6d3d 8f63 bebd
00000150: 5e2c 1fbe c7a5 3f3e 3c7d 7a3b d295 143e
00000160: 2170 3cbe 3598 a63d 79c9 5fbe e264 6a3d
00000170: 4da5 cebc 29bc c73a 8a1c 673e 2657 c1bc
00000180: 2030 11be af72 d73d b8b0 3dbe c2b7 12bd
00000190: d987 f3bd 811a c6bd a61d f4bc bf6b 6f3d
000001a0: 9a1b e73d cc3f 863d 6427 bd3d 397b c23d
000001b0: 42ac 16be 6f04 b13d a249 5cbc 3e01 66bd
000001c0: a702 4c3e bded 1b3e 8f58 dd3c 2ed1 853d
000001d0: cda4 82bc f5cf 04bd 0773 dabd c9d6 ae3c
000001e0: 6f8a 423e 7748 6e3d 8839 f13d 1f02 763d
000001f0: 6a20 e83a 90d8 083c 0a42 1e3d 4fb8 3abe
00000200: 7e4d 33be f6b5 bd3d 5165 2fbe 97ed e93d
00000210: 8754 263e 6525 eb3d c076 de3d 71ec 0e3e
00000220: 464f 1dba 5f49 c33d 3229 173e 86be b83d
00000230: 7a4c 043e 8a90 1e3e 2a1f 1a3e 5d5f c13d
00000240: 41e6 eebd 29f8 f8bd cdc6 8b3d 6965 f0bd
00000250: 09f4 bdbd 71b5 16be b53b 21bd 44c8 a13d
00000260: babf 47be 2805 d4bd 49a9 c1bd b5c0 323e
00000270: 0ed3 3bbd 0548 f7bc a3b2 ad3c ea74 23be
00000280: c16f 573e 19a4 a7bb 3c61 38be 94f4 293e
00000290: 5d68 0cbe c129 9d3d 3155 7a3d 262e d33c
000002a0: 2b1e 0a3d aad3 38bc c4c6 2c3e c383 8e3d
000002b0: 44dd 4f3d 615b 3cbe 012e db3c ea8c db3c
000002c0: bf8a d1bd 6f82 503e 4bea b0bd b4fb 583d
000002d0: ca65 25be 4c80 85bd 6e74 4abe 4fed f5bc
000002e0: ae86 30be 8eca 18be 284b 4dbe ca40 efbc
000002f0: 50d0 853d 6f2c dbbd e317 03bd c9c3 c1bd
00000300: 6e31 f8bd 153d 1e3e cf78 013e 2ea0 c2bd
00000310: 6916 843e 5103 0e3e 63fa 41be d97f 04be
00000320: 0ffa 3cbe b9f2 7fbe fbb0 3b3e 1e40 263e
00000330: 6d67 f33d 318a 453e bc0f 80be 4778 e73a
00000340: 3681 a1bc 6b11 51bb 9735 463e 3b82 713e
00000350: 0393 523e 8045 e13d dcf6 bf3c 76c0 8f3d
00000360: 1db8 1fbe 3884 8f3d 4b05 13be 095d 1b3e
00000370: 8fee 713e e7c9 f4bd bcce 03bd 9511 7cbe
00000380: 6a50 153e 6444 6ebe 3f50 de3d a731 5dbe
00000390: 2383 50be 8101 0fbd b4ce e0bd 6323 123e
000003a0: ab0e f53d 5c99 12be 7c15 04be 7cba 1fbe
000003b0: 5354 76be ea36 653e c176 fcbd 31b7 f2bd
000003c0: 71f6 6a3c 9c56 51be 508a e0bd 8f69 883d
000003d0: 5642 4fbe f1a5 1d3d 12ac 37be 2b0c cebd
000003e0: 3a7c 96bd 6bf8 be3d 06ce c5bd 45c1 33be
000003f0: 84dc d43d b736 56bd f060 6fbe 145c 033e
-0.10161018 0.12986925 -0.11483987 -0.041223202 -0.16257846 -0.089810476 0.20368549 0.110671416
-0.0819445 -0.14864407 0.053748522 -0.021319345 0.1806398 0.1423414 0.07073226 0.27186462
0.10264702 -0.00972374 0.09080775 -0.021168483 -0.115367636 0.014854218 -0.09123292 -0.029644165
-0.029917786 -0.19785738 -0.10231437 -0.21533793 -0.11815599 -0.11778476 0.09298414 0.11082477
-0.069883876 0.096575074 0.1670268 -0.06149967 -0.122974865 -0.090502486 -0.17006053 -0.14691812
0.05961379 0.16429678 0.16334017 -0.1827227 -0.10861462 -0.14676833 0.01606759 -0.016548544
0.1832227 -0.032747068 -0.03680523 -0.1204517 0.07453319 0.13997605 -0.07779235 0.021626657
0.10218344 0.17669564 0.27119386 0.07760387 0.15581486 -0.1190649 -0.1583468 -0.07324246
-0.10793167 -0.00023306227 -0.15723954 -0.09867565 0.11815392 -0.10602323 -0.05600995 -0.0073446194
-0.034889888 0.12870668 -0.22406799 0.13794951 0.12795742 -0.019266741 -0.0740193 0.07869436
-0.14541072 0.2129664 0.057962578 -0.09296333 -0.15544268 0.18715583 0.0038221618 0.14510277
-0.18402149 0.081345 -0.218542 0.057225116 -0.025225306 0.0015238571 0.2256948 -0.023601126
-0.14178514 0.10519921 -0.18524444 -0.035819776 -0.11891145 -0.09673024 -0.029799294 0.058452364
0.112845615 0.06555137 0.09236029 0.09496159 -0.14714149 0.08643424 -0.01344529 -0.05615353
0.19922887 0.15227409 0.027019767 0.065340385 -0.015947724 -0.032424886 -0.10666471 0.021342652
0.1899812 0.058174577 0.11778551 0.060060617 0.0017709855 0.008352414 0.0386372 -0.1823437
-0.1751003 0.09263222 -0.17128493 0.1142227 0.16243182 0.11481742 0.108624935 0.13957383
-0.00060008874 0.09535479 0.14761809 0.090207145 0.12919798 0.15484825 0.1505095 0.09442017
-0.11665011 -0.12156708 0.068250276 -0.117380925 -0.09275062 -0.14717652 -0.03936358 0.07899526
-0.19506732 -0.10352546 -0.09456117 0.17456324 -0.045855574 -0.030185709 0.021203345 -0.15962568
0.21038724 -0.0051159975 -0.18005842 0.16597205 -0.13711686 0.076739796 0.0611164 0.025778841
0.033720177 -0.011280933 0.16872698 0.06958725 0.050748125 -0.18394233 0.026755335 0.026800591
-0.10231542 0.20362256 -0.08638438 0.052974418 -0.1615211 -0.06518611 -0.19770977 -0.030020384
-0.17238876 -0.14921018 -0.20048201 -0.029205699 0.06533873 -0.107018344 -0.032005202 -0.09461171
-0.12118803 0.15452988 0.12643741 -0.09503208 0.25798348 0.13868453 -0.18943171 -0.12939395
-0.18454765 -0.24994935 0.18329231 0.16235396 0.11884961 0.19290997 -0.25012004 0.0017659747
-0.019714933 -0.003190125 0.1935638 0.23584835 0.20563893 0.10999584 0.023433141 0.07019131
-0.15597577 0.070076406 -0.14357488 0.15172209 0.23626159 -0.11952572 -0.03217958 -0.24616082
0.14581457 -0.23268276 0.108551495 -0.21600972 -0.20362525 -0.034913544 -0.109769255 0.14271311
0.11965688 -0.14316314 -0.1289882 -0.15598482 -0.24055605 0.2238423 -0.12327338 -0.11851347
0.014340983 -0.20443195 -0.10963881 0.06660759 -0.20240149 0.038488332 -0.17936733 -0.100609146
-0.07347913 0.09324726 -0.096584365 -0.17554195 0.103936225 -0.052298274 -0.23376822 0.12828094

linears.2.bias f4 [64]
00000000: e5e5 e1bc 36fb 8a3c e677 dcbb bb7d 373d
00000010: 79a5 3e3b afb6 883d 3f95 3cbd 27d1 84bc
00000020: c610 a5bc 3027 173c 39a6 f4bc f5da cb3c
00000030: fc69 e33b dc74 973d 432e 2a3c 8b9c 0a3d
00000040: 20bf 663d 7e1e f7bc 80f8 5b3d 0282 ee3b
00000050: 7049 c33c 32c9 0abc 0b1b 923d 7c04 263d
00000060: 91c3 283c ec14 62bc e7a2 a3bc e7d2 ad3c
00000070: da99 be3c 6601 89bd b545 dbbc d2dd d73c
00000080: 4699 2e3a abd9 38bc a3c9 0d3b 863a b2bc
00000090: ef64 61bd 4d88 0dbd 7035 6bbc aab5 c8bc
000000a0: d1aa e7bd 5c6d 8ebb d530 12bc 82be c8bd
000000b0: 8ad4 7e3c e6fc 24bc 0da1 09bc 84b0 803b
000000c0: 7bbb 62bd 7006 45bd b2ff 603c 7b8c 05bd
000000d0: b207 c4bb d7ff 493d 100e 923c 52f9 453c
000000e0: b440 91bc 1556 ef3c 93bf 91bb da6b c0bd
000000f0: c977 023d 2da5 8f3c 82a9 d83c fca2 8fbc
-0.027575443 0.01696549 -0.00672816 0.04479764 0.0029090329 0.06675469 -0.04604077 -0.016213013
-0.0201496 0.009225652 -0.029864417 0.02488468 0.0069401246 0.07395336 0.010387006 0.033840697
0.056334615 -0.030165907 0.053703785 0.0072786817 0.023838729 -0.00847082 0.07134064 0.04053162
0.010300533 -0.0137989335 -0.019975139 0.02121873 0.023266722 -0.0668972 -0.026766637 0.02635089
0.0006660413 -0.011282365 0.0021635077 -0.021756422 -0.0550279 -0.034553815 -0.014356002 -0.024500687
-0.113118775 -0.0043465327 -0.008922775 -0.098019615 0.015553603 -0.010070061 -0.008400214 0.0039272923
-0.055354577 -0.048101842 0.0137328375 -0.032604676 -0.0059823627 0.049316254 0.017828971 0.012083368
-0.017731048 0.029215852 -0.0044478863 -0.09395571 0.031852517 0.017534817 0.026448015 -0.017533772

linears.3.weight f4 [64, 64]
00000000: 8bef 27be c3c7 3e3e 8bef d53d 1593 ad3d
00000010: 114c 063e ea6f 0abb 4adf 973b 09d8 22be
00000020: 5bd2 bc3d 0e56 10be 7052 b13d 5117 1e3e
00000030: 45f4 7bbd 7b92 3c3d 9361 e63d fc39 febb
00000040: afac 42be 7b53 eabd 4080 4abe 73e4 99bd
00000050: 5312 bf3d 3b08 943d 56a9 003e f248 403d
00000060: 5970 b33d db4d 453d a540 093d 5d58 7a3d
00000070: 1a38 1ebd 80d9 9f3d e6a0 413e 25f7 da3d
00000080: a5cd aa3d bdd3 2e3e 60c8 29be 12ff 2d3e
00000090: 3896 e43d ade9 c2bd 67b4 3d3e 0c4d 2d3d
000000a0: 0712 b13d 1831 0cbe d734 fe3c 304e 39be
000000b0: 4ed9 fd3d 55d3 24be 7655 2ebd 3eb7 b0bd
000000c0: 97a6 c9bc 057c 633c c1d5 07be 3a3d 3d3e
000000d0: 927d a1bd f065 163d 499c a7bd 3748 78bd
000000e0: e63f d03d 376b 55be 082a f83c 8dd0 ff3d
000000f0: ae3d 27be a81e 5cbe 9586 0a3e ae67 08bc
00000100: fd97 0abd de53 e1bd a99d c53c 5af2 00be
00000110: dc93 c7bd 0f5d c4bd 5cce 45bc 873f 53bd
00000120: cc97 15be f897 40be eb07 f8bd 63f7 26bd
00000130: 1f2f 213d d7e6 05be 34ae b13c 972b f83c
00000140: c3ec 23bd b7b1 2f3e 96ad 433e a144 efbd
00000150: e2a5 80bd 3570 943d 57d5 2f3d 6f3d 1ebd
00000160: ef99 9a3c c8b6 7ebd 35ca a33d 5f60 a6bd
00000170: 0159 293e 4838 05be 20dc d8bc 6ed0 41be
00000180: 12d9 bd3d d18a 143e 29c6 183d 46c4 7abc
00000190: 6979 bebd d814 debd cc26 afbd bbb6 2fbe
000001a0: 1faf 293e cd2b 223e 4f80 883d ddbb c93d
000001b0: 4299 b4bc 7c32 8c3c 590b 373d 5eb3 02bd
000001c0: 5c44 bfbd efc9 2fbe dc58 423e 742e 493e
000001d0: 906b 1abe db4a 1fbe 6015 ac3c e30c 2ebe
000001e0: c788 fa3d d240 263e a3ba 75be bd64 05be
000001f0: 98ae 4c3d 9875 0e3e 2d5e 0dbe f411 3f3e
00000200: 00bf 03be 4f4f 1fbc 77af c33c ad57 923c
00000210: 5de7 1bbd 3987 753d 75aa eb3c 3eb5 5dbe
00000220: c982 5dbe 86a1 c93d ce19 4d3e ead6 133d
00000230: 8a7d d0bd e9be e2bb 7068 53be b97c 13bd
00000240: 5c9d 13be 0fa1 31bd 0486 66be c9e3 0ebe
00000250: dfed af3d 994a cdbd f5cd fbbd c75e 3c3d
00000260: d005 8bbc ae47 b9bd 0186 2d3e 4cdf 2e3e
00000270: 0dba 6fbe 0b50 7cbe 6e37 10be c545 f8bd
00000280: 193f cabd f047 043b 1138 9e3d 014b f7bd
00000290: b35b 5e3e bc1a 753e 976d 143e 40ed e4bc
000002a0: 9948 b9bb b4f4 b4bd 1339 7b3d a806 7e3d
000002b0: 8566 3cbe c661 0fbe 71a6 953e 1c75 4dbe
000002c0: da15 f5bd 2c83 743e 3803 0dbd 6490 73bc
000002d0: c65b 323e 4d73 543e fcfc 333e 5336 be3c
000002e0: e3b1 a03d 32c0 c4bd 939c e8bb 85e9 6b3e
000002f0: 65b1 063e bff1 c9bd 71ed 2b3e 6188 003e
00000300: 0901 143e c747 bf3c de72 333e 1c68 c53d
00000310: af7c 0bbe e635 06bd a09e 57be 00c0 93bd
00000320: 6b35 e9bd 992f 293e 4ee4 27be 2716 81bc
00000330: b0bf 83bd 6470 a43d 5228 fbbd 9c3a d5bc
00000340: dee2 8abd e5b6 6cbd 9b29 683e 5502 63bd
00000350: c193 f8bd bed6 43bc 0dc7 1bbe a2d6 da3d
00000360: 0c2d 943e 45f5 493d f356 3c3d bce3 2abe
00000370: 7abb a03d fcb6 4b3d ebbc 01be 80f9 e53d
00000380: 67cc b0bd 89ea 9abc 437d 46be 365f 40bd
00000390: 841d 193c 5da1 58be 244b babd 6093 3a3e
000003a0: 2f73 853c 4c43 063e a6b7 fbbd a9d6 c33c
000003b0: 5aee a9bd 7a5a 38be 35ab 1ebe a973 203d
000003c0: 910a 38be 6ad2 eebc cee6 623e 44d5 f0bb
000003d0: 8e23 a43c 7b7c cd3d 10e4 06bd 76d8 ee3d
000003e0: 5384 af3d fd17 1abe e2c1 b13d 9741 7fbe
000003f0: 125d 34be 9f93 3e3e 3621 91bd f485 d63d
-0.16399972 0.1863089 0.1044608 0.08475319 0.13114955 -0.0021123835 0.0046347724 -0.15902723
0.092198096 -0.14095327 0.08658302 0.15438582 -0.06151225 0.046038132 0.112490796 -0.007758377
-0.19011186 -0.11441704 -0.19775486 -0.07514276 0.09329667 0.07228132 0.12564597 0.046944566
0.08761663 0.048169952 0.033508915 0.061119426 -0.03862772 0.07805157 0.18909034 0.1069167
0.08340005 0.17072959 -0.16580343 0.16991833 0.111614645 -0.09517226 0.1852585 0.042309806
0.086460166 -0.13690603 0.031031055 -0.18096232 0.12394963 -0.16096242 -0.04256197 -0.08628701
-0.024615569 0.013884549 -0.13265134 0.18480387 -0.07885279 0.03671831 -0.08184106 -0.060615744
0.10168438 -0.2084168 0.03029348 0.1249095 -0.16332123 -0.2149607 0.13527901 -0.0083255
-0.033836354 -0.110023245 0.02412303 -0.1259245 -0.09744999 -0.09588062 -0.012073126 -0.051574256
-0.14608687 -0.18807971 -0.12110885 -0.04076327 0.03935158 -0.1307634 0.021689512 0.030294223
-0.040020715 0.17157637 0.19109187 -0.11683012 -0.0628164 0.07247964 0.042928066 -0.038632806
0.01887223 -0.062186033 0.07997552 -0.0812385 0.16537859 -0.13009751 -0.026472151 -0.18927166
0.092699185 0.1450608 0.037298355 -0.015305584 -0.09300501 -0.108438194 -0.08552322 -0.1715955
0.1657071 0.15837021 0.06665098 0.09850285 -0.022045735 0.017113917 0.044688556 -0.03190934
-0.093392104 -0.17166875 0.1897921 0.19646627 -0.15080094 -0.15555899 0.021006286 -0.16997103
0.122331195 0.16235664 -0.23996978 -0.1302671 0.049971193 0.13912046 -0.13805456 0.18659192
-0.1286583 -0.0097234985 0.02388738 0.017864073 -0.038062442 0.05994341 0.028767804 -0.2165117
-0.21631922 0.09845261 0.20029375 0.03609363 -0.10180195 -0.006919731 -0.20645308 -0.036007617
-0.14415497 -0.043366488 -0.2251206 -0.1395408 0.08590292 -0.10023994 -0.122951426 0.045988824
-0.016970545 -0.09046875 0.1694565 0.17077368 -0.23410816 -0.24639909 -0.14083645 -0.121226825
-0.09875316 0.002018448 0.077255376 -0.12074853 0.21714668 0.2393598 0.1449493 -0.02794516
-0.0056544063 -0.08835736 0.061333727 0.062018067 -0.18398483 -0.14002141 0.29228547 -0.20064205
-0.119670585 0.23878163 -0.034426898 -0.014865968 0.17417821 0.20747109 0.17576975 0.023219263
0.07846429 -0.09606971 -0.007098743 0.230383 0.13153608 -0.098605625 0.16789795 0.12552024
0.1445352 0.023349656 0.17524287 0.09638998 -0.13621782 -0.032766245 -0.21056604 -0.072143555
-0.11387142 0.16522063 -0.16395685 -0.015757633 -0.06433046 0.08029249 -0.1226355 -0.026028924
-0.06781553 -0.05779161 0.22672121 -0.055422146 -0.12137557 -0.011953054 -0.1521265 0.10685469
0.28940618 0.049306173 0.04598136 -0.16688436 0.07848258 0.049735054 -0.12669723 0.11229229
-0.08632737 -0.018910663 -0.19383721 -0.0469658 0.009345416 -0.21155305 -0.09096363 0.18220282
0.016290275 0.13111609 -0.122908875 0.023906069 -0.08297415 -0.18003264 -0.15494998 0.039172802
-0.17972781 -0.029153068 0.22158358 -0.007349642 0.020036485 0.100335084 -0.03293234 0.116623804
0.08570161 -0.15048213 0.08679558 -0.24927364 -0.17613629 0.18611 -0.070864126 0.10474768

linears.3.bias f4 [64]
00000000: 5fdb d93c 4c3a bebc a836 babc 5642 403d
00000010: ef81 ec3c a04d 923b 9cd3 883c 7f4b f6bc
00000020: 39a4 603c 45eb 7bbc 34dc 123d 8d47 383d
00000030: a610 873c 0fe1 c63c 5253 67bd 0648 803d
00000040: 36e9 813d 7be2 543c 4c7d d5bc 8265 cbbc
00000050: 44e0 1cbc 9296 11bd 182b 72bd 0d24 413c
00000060: c6ab 5b3c fafa c9bb e17a 6bbd 0a1c 75bc
00000070: 138c 74bb 15a5 8bbc 79fa 0c3d 08ef 143b
00000080: 536e a03c c7f4 64bd 3325 48ba 3d59 af3b
00000090: 0ef2 86bc 759b 933b d891 75bc c564 f33b
000000a0: d301 053c 58a7 2fbc ed35 88bc 8cde b73c
000000b0: ead7 0abd b0e7 46bc 6c59 b5bc 92fd 663d
000000c0: d09f c63c 09bf b93c 8b3e 663d 4590 a4bc
000000d0: 583e 9fbc cb80 67bc f472 993b bc6d 3cbc
000000e0: df77 933c 13ab d63c 4fb4 28ba 524e 0e3d
000000f0: 3452 a73c 4176 efb9 79bf 5cbc 9501 22bd
0.026593862 -0.023221157 -0.02273114 0.046938263 0.02887055 0.00446482 0.016702466 -0.030065296
0.013711029 -0.015375917 0.035854533 0.04499011 0.01648743 0.024277238 -0.056475945 0.062637374
0.063433096 0.01299345 -0.026060723 -0.024828676 -0.0095749535 -0.035543986 -0.05912313 0.01178838
0.013407653 -0.006163952 -0.057490233 -0.014960298 -0.0037314936 -0.01704649 0.034418557 0.0022725482
0.019583857 -0.0558975 -0.00076349376 0.005351214 -0.016472843 0.004504616 -0.014988385 0.007427784
0.008118111 -0.01072105 -0.016627276 0.022444986 -0.033897318 -0.0121402 -0.022137366 0.056394167
0.024246126 0.0226741 0.05621199 -0.020088324 -0.019438908 -0.014129828 0.004682893 -0.011500772
0.018001495 0.026204621 -0.00064355595 0.03474266 0.02042494 -0.00045673738 -0.013473385 -0.03955229

linears.4.weight f4 [64, 64]
00000000: 571b 3abe e7fe cdbd 2101 06be 9633 703c
00000010: 81d8 423d ff3d a83d 36ab 4c3e 8113 133d
00000020: ef12 7a3d 7eee fbbc 54c7 38be 0349 36be
00000030: 965d 1f3e 6909 8fbb ae30 3ebe 9c5a 5fbe
00000040: fbb4 7cbd 1a5d fd3d 68d4 643e f46a 9bbd
00000050: ed63 743c ecfd df3d e9ec 25bd 5f17 a6bc
00000060: 80d5 e93d e2bd 8f3d c49b 11be 08a6 16be
00000070: 9646 3dbe 4294 45bd 3b81 e6bd 669c c6bd
00000080: 6d75 11bd 846e 33be 9153 9a3d 7e80 613e
00000090: 45a8 093d 5831 c6bc e964 edbd b551 64be
000000a0: 1683 3abe 518f 503e 2cbc 1c3e 4217 1a3e
000000b0: 6606 593c 5a4f 20be 1cdb 183e a038 063e
000000c0: 04bd 37be 5212 f7bd 4b63 d6bc 2fc0 95bd
000000d0: f502 37be faa9 823d 5763 343e e964 4d3d
000000e0: 86e5 43be 7a00 b3bd 98c6 3b3e 41b5 61be
000000f0: 8cb5 16be ccf3 04be 7b64 92bc 2d85 563e
00000100: f0f4 08bd 2847 1f3e 572b e43d 936c 16be
00000110: 3145 a43b 0ef8 5f3d 10b7 3cbe e0b9 3f3d
00000120: 0fe1 0a3e afcf 273e 3690 493e 9382 023e
00000130: 2246 e7bd 37a3 9cbc 45e4 273e 55fa 733e
00000140: fc20 d5bd 3770 cfbd 554a 0b3d 2293 393e
00000150: 5de2 443e 6d3a d9bd f9bc 773c 50a9 573e
00000160: 9ec9 39be 1836 54be adbf 3e3d 2f23 7a3e
00000170: ef02 28bc fa37 e3bc 0aba 663d 5669 e63b
00000180: 678d b33d 2e55 2ebe f865 34be 5920 193e
00000190: 8636 643e c948 6b3e 4000 043e ae85 39be
000001a0: d461 87bd 8131 3d3e 0ffb f03d 63c4 5cbe
000001b0: b548 813e f6f8 1b3e 8712 c138 2ea1 86bd
000001c0: 764e c0bd 185a ac3d 13b8 1cbe 4f50 31bd
000001d0: e4a5 00be e735 133d 1137 aabd 3fee 37be
000001e0: fbf0 533d 57c5 5b3c d952 ea3d ba8e 30bd
000001f0: 96e3 c4bd 816c 57be e982 52be 1ef8 773e
00000200: 55d1 303e 2b81 153c 435f 333d b352 4cbe
00000210: cead 1fbd 04ed d43d b9bb 56bc 6255 353e
00000220: 1942 83be 0d00 31be fbb9 83be fe0a 59bd
00000230: 3933 0dbe 4bd2 34be 44d1 073d 662e 9bbe
00000240: 39d8 0cbe 3e7c 68be 2068 8fbc 82e5 2c3d
00000250: e199 40be 9d79 80bc 2fe1 283e 7fcb 943c
00000260: 0835 88be 2415 523e 87f3 f4bc 5ce9 dd3d
00000270: 79fe 32be 095c 353d 1bab 4bbe 721a 863e
00000280: 5856 a0bd ee1f 0dbe 76e4 a2be a2f8 8ebc
00000290: 942a 5dbd 7086 85bd bc98 5c3d 43a3 f0bb
000002a0: e5dc 1abd f237 97bd eb32 7b3e e413 65be
000002b0: 6251 103c a566 683e d3c2 b53e 5870 cfbd
000002c0: b002 cfbd f209 3d3e 49e1 933d ff41 52be
000002d0: 990d 293d 98c0 2f3e 09b9 a13a c50b 16bc
000002e0: 00f3 d73d c953 1e3e 724d 483e 38ed a3be
000002f0: 5a39 4dbe ce98 eabd 8486 fb3d bb52 5a3e
00000300: eade 383e 0033 893e c7cc bf3d 843e 723e
00000310: e0e6 37bb cb70 b3bd 547b 98bd 9259 d73d
00000320: 877c 9f3d 336d 253e b959 16be c187 36be
00000330: aa3a 71bd 26c8 02be 720b 1d3d 8dad 153e
00000340: 79a2 cc3d 3347 e6bc bb4f eebd a64c 60bc
00000350: 49d1 2c3e c9ef 373e df35 4a3e b320 d93c
00000360: d630 10bb b173 703e ff7f 45bd 1452 9b3e
00000370: d714 403d 39b2 c23c c55f 633e 273e f63c
00000380: 2800 35be 53bc 55bd 2acc 583e 0e7a f63c
00000390: 0534 1ebe 1434 253e 7179 043e 25d6 b2bd
000003a0: e7ab 0d3e 5b05 e93d 8710 fc3d d341 83bd
000003b0: f2d3 0b3e 9a04 013d cee1 ac3d b331 673e
000003c0: 1b5c 973c 4dfc 173e a39f dbbd ef8f ddbd
000003d0: 534e e33d f6d9 193e be97 c93c 0dc4 633d
000003e0: d7c2 c2bd 4e2c 8a3d e2db 133e 2b40 263e
000003f0: 3aad 5abe 8857 703d 8f2a 343e 1b83 5abc
-0.18174492 -0.100583844 -0.13086368 0.014660737 0.047569755 0.0821495 0.19987187 0.035907272
0.061053213 -0.03075337 -0.18044788 -0.1780129 0.15563044 -0.0043651354 -0.18573257 -0.21811908
-0.061696034 0.12371273 0.22346652 -0.07588759 0.014916402 0.10937104 -0.04050914 -0.020274816
0.11417675 0.07018639 -0.14219576 -0.14711773 -0.18483958 -0.048237093 -0.112551175 -0.096977994
-0.035512377 -0.17522627 0.0753547 0.22021672 0.03360774 -0.02419345 -0.11591513 -0.22296794
-0.18214068 0.20367171 0.15306157 0.15047935 0.013246154 -0.1565527 0.14927334 0.13107538
-0.17943197 -0.12064041 -0.026170393 -0.07312047 -0.17872222 0.06380077 0.1761602 0.050145064
-0.19130525 -0.08740325 0.18337476 -0.22041799 -0.14717692 -0.12983626 -0.017870178 0.2094924
-0.033436716 0.15554488 0.11141079 -0.14689855 0.005013131 0.054679923 -0.18429208 0.046808124
0.13562416 0.16387819 0.19683918 0.12745123 -0.11292674 -0.019120796 0.16395672 0.23825963
-0.10406682 -0.10128825 0.034006435 0.18122533 0.19226976 -0.10606847 0.015120738 0.21060681
-0.18143317 -0.2072376 0.046569515 0.24427484 -0.010254606 -0.027736653 0.056329764 0.0070316
0.08767205 -0.17024681 -0.17617023 0.14953746 0.22286424 0.22976984 0.1289072 -0.18117401
-0.06610456 0.18475915 0.117666356 -0.2155929 0.25250784 0.1523169 9.206408e-05 -0.06573711
-0.09389965 0.084156215 -0.15304594 -0.04328948 -0.12563282 0.035940077 -0.08311284 -0.17961977
0.05174349 0.013413749 0.11441583 -0.043104865 -0.09613721 -0.21037485 -0.20557751 0.24215743
0.17267354 0.009125034 0.04379202 -0.19953422 -0.038984112 0.1039677 -0.01310628 0.17708352
-0.25636366 -0.17285176 -0.2572783 -0.052989 -0.13789071 -0.17658345 0.033158556 -0.30308837
-0.13754357 -0.22703645 -0.017505705 0.042211063 -0.188087 -0.01568299 0.1649215 0.01816344
-0.2660296 0.20515877 -0.02990128 0.108355254 -0.17479886 0.044277225 -0.1988949 0.2619205
-0.07828969 -0.13781711 -0.31814927 -0.017452542 -0.053995684 -0.065197825 0.053856596 -0.007343681
-0.037808318 -0.073837176 0.24531142 -0.22370869 0.008808466 0.22695406 0.35500202 -0.1012885
-0.101079345 0.18460825 0.07220704 -0.20532988 0.041272733 0.17163312 0.001233847 -0.0091580795
0.105443954 0.15461649 0.19560793 -0.3201692 -0.20041409 -0.114549264 0.12281516 0.21320622
0.18053785 0.26796722 0.0936523 0.2365666 -0.0028061196 -0.08761748 -0.07445398 0.10515131
0.077874236 0.16154937 -0.14682664 -0.17825224 -0.058893837 -0.12771663 0.038340993 0.14616986
0.09991927 -0.028110122 -0.11636301 -0.013690149 0.16876711 0.17962565 0.19747113 0.02650485
-0.0022001765 0.23481633 -0.04821777 0.30336058 0.046894874 0.023766624 0.22204502 0.030058933
-0.17675841 -0.052181553 0.21171632 0.030087497 -0.15449531 0.16133147 0.12936951 -0.08732251
0.13835107 0.113779746 0.1230784 -0.06409039 0.1365507 0.03149853 0.08441506 0.22577552
0.018476536 0.14842339 -0.10723808 -0.10818469 0.110989235 0.15024552 0.02460849 0.05560689
-0.09509819 0.06746732 0.14439347 0.16235416 -0.21355143 0.058677226 0.1759436 -0.013336922

linears.4.bias f4 [64]
00000000: 13fd 323b f302 6ebc 7f0d 02bd 87c9 8dbc
00000010: 9c57 0b3d f706 3e3d 9cce 41bc 6620 78bd
00000020: 56b1 0cbc 5140 843d 0a38 f9bb 4a53 86bc
00000030: 31fd 18bd 85db 36bc dfee 5f3d 0d7a 743c
00000040: 3cd4 14bd a183 b6bc 2d30 97bc a991 a33b
00000050: 347b f4bb 4fac a33c 8a1c e03c 3fb2 08bd
00000060: f277 3c3c 64d7 853c 6010 84bc a351 b7bc
00000070: 6403 b9bb a1b0 b93c f88c c2ba a99f 90bd
00000080: 975d 323d 814d 42bc ce31 10bc e27f 8cbd
00000090: c3b5 9e3c 7f40 9fbd 2032 d2bc af05 03bc
000000a0: 51f3 8c3c 0ce8 753d 73fc 263c 127d 36bc
000000b0: 04c9 f9bc b917 cdbc 7cee 173d ac63 29bd
000000c0: 5662 d13b 9768 353d c872 50bb 4dca 953c
000000d0: 504e 52bd 36b6 15bb 9b2a 06bd 6967 6c3c
000000e0: f06d ccbc 4da1 873a 7387 8cbc 6c95 61bc
000000f0: 4253 2bba 76e0 1abd 94fd d53c 2548 063d
0.0027311489 -0.01452707 -0.031751152 -0.01730801 0.034019098 0.04639336 -0.011829045 -0.060577773
-0.008587202 0.0645758 -0.0076055573 -0.016397137 -0.037350837 -0.011160736 0.054671165 0.014921677
-0.036335215 -0.022279562 -0.01845559 0.0049917293 -0.007460976 0.019979624 0.027357358 -0.033373114
0.011503207 0.016338058 -0.01612109 -0.022377795 -0.005646156 0.022667231 -0.0014843037 -0.07061703
0.043546285 -0.011859299 -0.008800937 -0.06860329 0.01937378 -0.077759735 -0.025658667 -0.007996961
0.017205866 0.06003575 0.0101920245 -0.0111382175 -0.03049136 -0.025035726 0.03709267 -0.04135482
0.0063898964 0.044289198 -0.0031806696 0.018284941 -0.051344216 -0.0022844202 -0.032755475 0.014428952
-0.024954766 0.0010347754 -0.017154431 -0.013768535 -0.00065355387 -0.03781172 0.026121892 0.032783646

linears.5.weight f4 [3, 64]
00000000: f0bc 333e ce1d 023e 2f3b a13e cf19 803d
00000010: 2ff5 403e 5573 a13d 5a28 a23e 349c 56be
00000020: 04cc b63e 6b8a c33d 43dd 40be 63d1 c63d
00000030: 8c34 4dbe d5de 3e3e 6864 abbd c66f 933e
00000040: cd69 54be a3bd 86ba 3770 2b3e 2a71 0abe
00000050: f25d d63d e0ac acbd 9348 3bbe 204a 013e
00000060: 65a5 84be 66ad a0be 8462 aa3e e43b 5d3e
00000070: ed72 1c3e c280 073d cd49 9cbe 4f96 cdbc
00000080: b271 a13d 77e7 9d3e fecd 4c3e 41ed 97bd
00000090: b0dd 8a3e 49d1 5db9 023e de3d 16fd 1c3e
000000a0: b941 bc3e ea4a 893c 8469 db3d ba18 353e
000000b0: ef61 7c3b 6185 343e 5f32 72bd ab0d a9bd
000000c0: 0139 5c3e b2a0 473e 0a4e 8f3e 5bb1 a93e
000000d0: 7248 8f3d 488d 003f 42bc 9fbe 0662 6b3e
000000e0: 0f6c 983e 903e b5bc e1f1 85be e4bc e7bd
000000f0: fd0d 60be cf40 91be f565 8dbe d72a 873d
00000100: d5a2 30be 50ac dcbd 6204 7c3e d023 a0bc
00000110: edb5 33be 7f4d 47bd cc69 2d3e a73f e0bd
00000120: b890 7ebe cf87 5cbd a349 683e 6075 5d3e
00000130: a6b5 573e 5d30 263c 2583 dcbd f857 68bd
00000140: cf38 98bd 5135 01be 945d 4fbd 8636 0a3e
00000150: 151b 88be 61b0 ebbd 56f9 e8bc b0bd febd
00000160: 2343 683e 0138 8ebe 6986 01bb 5a51 4d3e
00000170: 8bd8 d53d 11dc e1bd 7dbc 5bbe de52 e33c
00000180: 33a4 f0bd 4a46 1abe 81e1 71be 091c 813d
00000190: 3ac5 5e3e dc91 1cbc 3073 2a3e 30b8 fdbd
000001a0: 9ea3 e83d 0075 75bc a212 aa3e e4fb 2d3c
000001b0: bf36 fbbd e37a 8abd 912d a2bd d80d 1dbe
000001c0: 8c1a 5a3e fc99 99bd 6d27 eebd c4ee dfbc
000001d0: 446a 59bd 99e2 8cbe 3309 273d 5747 c9bd
000001e0: 55f9 aabc ab70 a73e a3cf 03be 1e00 913e
000001f0: 1b26 80be 2cef 613e 704e 793e 618d 0bbe
00000200: b82d 613d 5e70 57be 8c3c 67be 6bf2 2ebe
00000210: 9627 8d3e 7012 873e fe91 62be 3c40 babe
00000220: cc58 b4be 40f9 6a3e 4043 81be e864 92be
00000230: 1d5d a0be 6192 0cbf 74e7 d43e 131e b33e
00000240: e4a3 d0be 0138 babe 3a6e afbd a2b3 763d
00000250: 8f33 b7bd 144e 2d3e 9f50 b63e 0e08 4bbe
00000260: a849 60bd eb2e a93e 0f73 59be 86a4 d2be
00000270: 5056 96be c7ab c63d c880 a8be 87b4 72be
00000280: c612 ad3e 54ad 6cbd f183 65be ba00 2ebe
00000290: 6956 013f b3ab 8cbe d925 d4be b344 5cbe
000002a0: 1668 4a3e b5cd e53e 99ea 893e 5fda 12be
000002b0: 8a5b 2cbe c116 c6be 6f88 7d3e a29d 9dbe
000002c0: 6e1f 9f3d 3eb6 933e d95b dabd d480 d7bd
000002d0: 9716 83be bac6 1a3c 947b 67be d253 133e
000002e0: 5cad 8bbe 619f 683d 3cff 38be 6166 82bd
000002f0: 056a d93c 6885 8bbe 19c4 433e 6c99 c93e
0.17552543 0.12706682 0.31490466 0.062549226 0.1884353 0.07883326 0.3167141 -0.20958024
0.35702527 0.095478855 -0.18834405 0.09707906 -0.20039576 0.18639691 -0.0836876 0.28796214
-0.20743485 -0.0010279905 0.16742025 -0.13519731 0.104671374 -0.08431411 -0.18289404 0.12625933
-0.25907436 -0.31382293 0.33278286 0.21604878 0.15278216 0.033081777 -0.30525056 -0.025096087
0.07883014 0.30840656 0.20000455 -0.074182995 0.2712226 -0.00021154167 0.10851671 0.1533092
0.36768892 0.016759355 0.10713485 0.17685214 0.0038510521 0.17629005 -0.05913007 -0.0825456
0.2150612 0.19494894 0.27989227 0.33143124 0.0699624 0.5021558 -0.31198317 0.22986612
0.29769942 -0.022124559 -0.261611 -0.11315325 -0.21880336 -0.28369758 -0.2761685 0.06599968
-0.17249615 -0.107750535 0.24611047 -0.019548327 -0.17549868 -0.04865789 0.1693489 -0.10949641
-0.24859893 -0.053840455 0.2268434 0.21626806 0.21065387 0.010143367 -0.10767201 -0.05672452
-0.074327104 -0.12617995 -0.050626352 0.13497362 -0.26583162 -0.11508251 -0.028439205 -0.12438524
0.2268186 -0.27777103 -0.0019763953 0.20050564 0.10441693 -0.110283025 -0.21458621 0.027749475
-0.117500685 -0.15065876 -0.23621179 0.063041754 0.21754923 -0.00955626 0.16645503 -0.123886466
0.113593325 -0.014981508 0.3321734 0.010619137 -0.12266301 -0.0676172 -0.07918847 -0.15337312
0.2129919 -0.07500073 -0.116286136 -0.027335532 -0.05307986 -0.2751663 0.040780257 -0.0982806
-0.020870844 0.32703146 -0.12872176 0.28320402 -0.25029072 0.22063893 0.24346328 -0.1362815
0.05497524 -0.21038958 -0.2258169 -0.17084663 0.27569264 0.26381254 -0.22126004 -0.36377132
-0.35223997 0.22946644 -0.2524662 -0.2859261 -0.3132104 -0.54910856 0.41582835 0.34983882
-0.4075004 -0.36370853 -0.08565946 0.060229905 -0.08945381 0.16924316 0.35608384 -0.19827291
-0.054757744 0.33043608 -0.21235298 -0.41141146 -0.29362726 0.09700733 -0.32910752 -0.23701678
0.33803385 -0.057782486 -0.22413613 -0.16992465 0.50522476 -0.27474746 -0.41435125 -0.21510582
0.19766268 0.44883505 0.26936796 -0.14341114 -0.16831794 -0.38689235 0.24759077 -0.30784327
0.077696666 0.28849977 -0.1066205 -0.10522619 -0.25603172 0.009446794 -0.22605735 0.14387444
-0.272807 0.05679262 -0.18066114 -0.063671835 0.026539812 -0.27250218 0.19117774 0.39374864

linears.5.bias f4 [3]
00000000: 6c02 aebb dcd7 343a 66d4 d53d
-0.0053103473 0.00068986206 0.104409024

exp_avg f4 [64, 2]
00000000: 24d3 6b3b 72e6 24bb 9d69 fc39 3281 aabb
00000010: 68ce 7fb9 01f6 b6ba 7b0f eaba 9cd2 aaba
00000020: 12ef 0e3c d69d 4ebc f3d8 3f3b f51b 87bb
00000030: 5a46 24bc 70a3 3f3c 2011 b93a 4f09 3039
00000040: 97fe cd3a 599a dfb9 530f 37bb ceda adba
00000050: de88 023c 768d e0bb 329c b23a 253a 8a39
00000060: 773e b2bb 299b 133c 03e7 193a 7bf2 79bb
00000070: 8573 faba 54ef ed3b c883 393b c177 a63a
00000080: 9f15 d6b9 84b3 0dbb 579f 83bb 8816 983b
00000090: bc6f 643b c033 c1bb 8ae5 933b 1745 11bc
000000a0: b821 673b 1f5d 95bb ded3 d4ba 4554 533b
000000b0: 4b28 03bc 1b03 063c 3d5a 7abb e4d0 943b
000000c0: 6461 013c d08e 5fbc 8e35 773a 3a97 ffb9
000000d0: a4de a73b bb55 17bc 5609 683b e3f6 8c3a
000000e0: bbce 133b db3e a7bb cd67 0cbb 89b3 5e3a
000000f0: f01f 3ebb 43fd 1e3b 479d bb38 0834 f93a
00000100: a21f 58bb a896 123b 480f 383a 4a69 493a
00000110: fb51 c1bb d2ce 3f3b fb13 c3ba cee0 d9ba
00000120: b730 21ba 4b48 0cb9 e00a af3b 5ef1 21bc
00000130: f361 5dbb 72b2 013c 6a5b e137 b5c7 f6ba
00000140: c17a e5ba 08d0 56bb c8dc b4ba d66e 9d38
00000150: 2603 edbb 322b bc3b 707c 7ebb 8b20 923b
00000160: 3fda 10ba 5106 c3b8 e408 e0ba 4954 ac39
00000170: d666 723b d1ed babb 80ee 3ebb 3210 063c
00000180: c2d3 7aba 2771 80bb 09c2 28ba 32e2 a13b
00000190: a777 423b 55cb 663b 510c 0abb 08f5 403b
000001a0: 4a9d 40bb 0fee d23a 7bb9 ae3b 1663 1fbb
000001b0: 45b5 ad3a 6efb 593b 5a61 853b 8ca0 ffba
000001c0: 491e bdba 7c9c 453a 3525 f1bb 3469 003c
000001d0: 345d 0a3b f328 aebb 8c5a c23b 62ad c1bb
000001e0: af90 3fbb 827b f73b 3e5f 873b 3d01 1bbc
000001f0: 2709 b3bb 3d0e 663b e582 a3bb 2137 d13b
0.0035984004 -0.002516177 0.00048143874 -0.0052033896 -0.00024395587 -0.0013958813 -0.0017857397 -0.0013032737
0.008723991 -0.012610873 0.00292736 -0.004123206 -0.010026539 0.011696681 0.0014119484 0.00016788136
0.0015716132 -0.00042648872 -0.0027932718 -0.0013264061 0.007967202 -0.006852801 0.0013626872 0.00026364732
-0.0054395753 0.009009161 0.000587091 -0.0038138914 -0.0019107914 0.007261196 0.0028307308 0.0012700484
-0.0004083337 -0.0021621892 -0.0040167975 0.004641358 0.0034856638 -0.0058960617 0.004513447 -0.00886657
0.00352679 -0.00455822 -0.0016237458 0.0032246273 -0.008005212 0.008179451 -0.003820076 0.0045415033
0.007896755 -0.013644889 0.00094302825 -0.00048750063 0.0051229764 -0.009236748 0.0035405955 0.001075473
0.002255364 -0.0051039285 -0.0021424175 0.0008495381 -0.0029010735 0.0024259842 8.94615e-05 0.0019012699
-0.003297784 0.002236763 0.000702132 0.0007683231 -0.0058996654 0.0029267562 -0.0014883274 -0.0016622783
-0.00061489217 -0.00013378372 0.0053418726 -0.009884207 -0.0033780306 0.00791608 2.6864658e-05 -0.0018827828
-0.0017507897 -0.0032777805 -0.0013798708 7.506988e-05 -0.0072330413 0.005742454 -0.0038831495 0.004459446
-0.0005525685 -9.299501e-05 -0.0017092493 0.00032869194 0.0036987565 -0.0057046195 -0.0029133856 0.008182572
-0.00095682975 -0.003919739 -0.0006437605 0.0049402947 0.002967337 0.003521641 -0.002106447 0.0029442925
-0.0029390627 0.0016092676 0.0053321696 -0.0024320534 0.0013252875 0.0033261436 0.004070443 -0.0019502803
-0.0014428581 0.00075382716 -0.0073591718 0.007837582 0.0021112682 -0.00531494 0.005931204 -0.0059105614
-0.0029230525 0.007552565 0.004131227 -0.009460744 -0.0054637375 0.0035103702 -0.004989969 0.0063847457

exp_avg_sq f4 [64, 2]
00000000: 8eed 753c d29d df3c 6280 0b3b cea8 bf3a
00000010: 5174 173b 5eed 983b 326e c03b e41a f93c
00000020: 1f48 9b3d c3bd 2b3c 6dcf 3d3b f7be ff3b
00000030: 3e67 333d 2d3b 043d a40e dc3b 68ef 323c
00000040: a143 573b eb61 783a 3a71 153b 017c fb3a
00000050: 27fc f63c ffc2 ee3b 9c2d bd3a 7322 9339
00000060: 5aa0 863c 6d15 7a3c 4171 223c f7d6 b33c
00000070: 6c43 513b 6da5 053c 5781 db3b 0545 603b
00000080: db2d b23b 9226 853c d7d1 8b3c 433d a13b
00000090: d47c 533c 8a37 6f3c 5bb0 523c 9262 ab3c
000000a0: 843a 453c bfd1 ad3a a669 fc3b 0278 843a
000000b0: 45a5 113d 45a9 6f3b 5a89 093c 49a5 b73b
000000c0: e8b3 103d 8cc8 8f3c adb9 1e3b a9bb a43c
000000d0: f143 543c ab91 1c3c a2cf b03b 9bc9 ed3a
000000e0: c5c0 703b a9a9 b03b 06c8 0d3c 7173 8e3c
000000f0: 2ed9 773c 2b25 383c 9b10 943a d4ef 973c
00000100: dd74 0b3c 11ae d539 39da 9439 b95b 333c
00000110: 267d 913c d64a 493a db17 d93b 0074 f83c
00000120: fc9d 523a 1d73 c03b 46f7 1d3d 1102 f23c
00000130: 0017 333c a02c 3f3c 6ba3 e838 ed20 ad3c
00000140: 354d 6d3a 20a5 af3a 0c81 3f3b ff9b ae3a
00000150: 60dd e63c dc2c 4d3c 6ead b73b 737a da3c
00000160: 54fd cb3a f163 903a f353 fd3b 423c 943b
00000170: 2fe0 263c 2443 513c f2d2 ff3b 7e73 063d
00000180: 93a1 4c3b 1354 363a 5416 c73b 91d6 2c3c
00000190: 1102 a53b e7b9 8f3c d556 1a3c 6bc8 273c
000001a0: 16f1 923b 5b48 c839 6925 9a3c 4f5c 213b
000001b0: 331f 9439 3cbd 703a cb3a bb3b 49c5 fc38
000001c0: 4958 313b 688e b43a 1277 203d d447 e53b
000001d0: b582 8f3b 08f1 373c 2f13 863c 36d7 d23a
000001e0: 16d0 2b3c 3eb8 9a3b 133d d13b de4a 923c
000001f0: aa5b a83c b8f1 493a b641 b13c e76d f83b
0.015010251 0.027296934 0.002128624 0.0014622451 0.0023110101 0.0046669682 0.0058725113 0.03040833
0.075821154 0.010482254 0.0028962747 0.007804747 0.04379963 0.032282997 0.0067156125 0.010921337
0.0032846706 0.000947504 0.0022803084 0.0019186736 0.030149532 0.007286429 0.0014433148 0.00028063692
0.016433883 0.015263897 0.009914697 0.02195309 0.0031931056 0.008157116 0.006698768 0.0034220826
0.0054375953 0.016253743 0.017067833 0.004920633 0.012908179 0.014600644 0.012859429 0.020921025
0.012037877 0.0013261362 0.007703024 0.0010106566 0.035558004 0.0036569398 0.008394564 0.0056044203
0.035327822 0.017551683 0.0024219558 0.020109015 0.012955652 0.009556214 0.0053958455 0.0018141748
0.0036735993 0.005391319 0.008653646 0.017389031 0.015127463 0.01123933 0.0011296453 0.018546976
0.008511749 0.00040756215 0.00028391348 0.010947161 0.01775987 0.0007678693 0.0066251582 0.03032875
0.0008034406 0.0058730976 0.038565896 0.029542001 0.010930777 0.011668354 0.00011093061 0.021133864
0.0009052337 0.0013400652 0.0029221205 0.0013321637 0.028181732 0.012522902 0.005605391 0.026669716
0.0015563169 0.0011016113 0.007730955 0.004523785 0.0101852855 0.012772355 0.007807129 0.032824986
0.0031224235 0.0006955277 0.0060756598 0.0105492035 0.0050356467 0.0175447 0.009420116 0.010240654
0.004484306 0.00038200882 0.018816667 0.002462167 0.00028252005 0.00091834716 0.005713796 0.000120530436
0.0027060679 0.001377535 0.039176054 0.006997088 0.004379595 0.0112269 0.01636657 0.0016085866
0.010486623 0.0047216704 0.0063854544 0.017857965 0.020551521 0.00077035604 0.021637779 0.0075814608

exp_avg f4 [64]
00000000: dd0d 0bba fe1e 2e3b f42f 83b8 c8b8 923b
00000010: a6bf 9f3b e807 453b 877c 76bb 3fcd 11ba
00000020: f2cf 343a d82c bfb8 7a90 0a3b 1d1d 64bb
00000030: 29d0 deba 6b1e 783b 28c1 4bbb 80b0 c83a
00000040: c4f5 383b e8a6 6dba 25fd 7b3b d141 5c3a
00000050: a81c a73a f3ee e4ba 11f5 cab9 0206 26b8
00000060: e294 713b c2f0 aeba f10d 17b9 4c62 28ba
00000070: b8a8 4cba 12de 06ba e633 a33a eb50 eb36
00000080: c936 a1ba 59d7 a4b9 0d15 80bb 7d15 56ba
00000090: e594 8c3b 9663 283b 32da bfbb b0b4 973a
000000a0: 2812 2139 a1a1 543a caf9 0abb 5169 88bb
000000b0: dbe2 4a3a e798 0eba ddd7 e339 32be 03ba
000000c0: e360 273b 132f 32bb 0c27 46bb 6ca6 5bbb
000000d0: fac2 a83a 9f8d 593b a3d0 0fbb c7b3 103a
000000e0: 0d13 b638 456c 7abb 6614 c43a 45b3 9b3a
000000f0: dad4 52bb c4b3 203a 1ff3 ffba ff2e 96bb
-0.0005304495 0.0026568766 -6.255499e-05 0.004477594 0.004875141 0.0030064527 -0.0037610845 -0.0005561895
0.00068974413 -9.1159425e-05 0.0021143244 -0.0034807392 -0.0016999292 0.0037859927 -0.0031090472 0.001531139
0.002822266 -0.00090657035 0.0038450446 0.00084021414 0.0012749629 -0.0017466232 -0.0003871103 -3.958308e-05
0.0036862423 -0.0013346898 -0.00014405676 -0.0006423339 -0.00078071235 -0.00051447854 0.001245138 7.012966e-06
-0.0012299652 -0.00031440964 -0.0039087594 -0.0008166654 0.0042902105 0.0025694123 -0.0058548683 0.0011574235
0.0001536092 0.0008111243 -0.0021206015 -0.0041629453 0.00077394926 -0.00054396543 0.00043457645 -0.0005025595
0.0025539927 -0.0027188703 -0.0030235676 -0.0033515943 0.001287549 0.0033195985 -0.0021944426 0.0005519953
8.681985e-05 -0.0038211506 0.0014959692 0.0011878988 -0.0032170326 0.0006130303 -0.0019527412 -0.004583239
