model.ckpt-10000.pt (torch, 219226 bytes, 36 tensors)

linears.0.weight f4 [64, 2]
-0.096840315 0.33843905 -0.17085642 -0.1366096 -0.030165145 -0.26289302 0.051379874 -0.15301013
-0.29334033 0.32441562 -0.18063526 -0.23492044 0.20268115 0.23152667 -0.1387361 0.24344654
-0.2564107 0.16777582 0.16861618 -0.14741512 -0.12983398 -0.022416372 -0.20277683 0.11374374
0.14379996 0.38890207 0.018765032 0.22075075 0.13122767 0.029554581 -0.16015664 0.18258637
0.29705933 -0.3210051 0.15633027 -0.19866319 -0.20191298 -0.21474029 -0.07187225 -0.22155812
-0.26288903 0.06818307 -0.033004787 0.08425644 0.20410788 0.31294397 0.22503309 0.19667989
-0.07402308 -0.23925191 -0.12602057 0.21142325 -0.14176874 -0.05697272 -0.15838374 0.18519127
-0.25979906 -0.23808122 0.11978978 -0.2101638 0.18695232 -0.39028752 -0.018396245 0.30305508
0.27699304 0.11503497 -0.017227767 0.1783664 0.26337594 0.22604534 0.033328425 -0.2930349
0.25647423 0.12958512 0.020804798 0.24116549 0.2778808 0.18327516 0.054423347 -0.22829051
0.27437812 -0.045633897 0.077380694 -0.17065649 0.15710388 0.13022682 0.2765999 0.3108131
0.31426388 -0.1726536 0.0005006643 -0.29328075 -0.13638046 -0.25527596 -0.0064862277 0.2948924
0.34594694 -0.2817154 0.01040076 -0.22301908 -0.071187586 0.15707454 0.16685757 -0.2889292
0.29141682 0.04314903 -0.160304 0.058874063 -0.36476144 0.08325993 -0.24710736 -0.08255449
0.25495213 0.28969723 0.15707587 0.28909245 0.041307505 -0.13379365 -0.23011512 -0.0507209
0.07289992 0.049215775 0.1296665 -0.13401628 0.28388017 -0.043152105 0.14467014 -0.22543341
00000000: 3754 c6bd e247 ad3e fcf4 2ebe 63e3 0bbe
00000010: e51c f7bc ea99 86be b473 523d b0ae 1cbe
00000020: b430 96be ce19 a63e 73f8 38be fc8e 70be
00000030: a68b 4f3e 5415 6d3e d610 0ebe 0d4a 793e
00000040: 4348 83be 6dcd 2b3e b8a9 2c3e fdf3 16be
00000050: 33f3 04be 8aa2 b7bc bba4 4fbe 7af2 e83d
00000060: 4c40 133e 2c1e c73e 20b9 993c 7c0c 623e
00000070: 8c60 063e 731c f23c 1a00 24be ecf7 3a3e
00000080: 2918 983e c85a a4be 0b15 203e 5d6e 4bbe
00000090: 47c2 4ebe e1e4 5bbe c231 93bd 22e0 62be
000000a0: 6499 86be 91a3 8b3d 0730 07bd a48e ac3d
000000b0: a801 513e 313a a03e 136f 663e 7466 493e
000000c0: 6a99 97bd 74fe 74be 890b 01be 567f 583e
000000d0: d32b 11be 3a5c 69bd 592f 22be c8a2 3d3e
000000e0: 6204 85be 90cb 73be 5854 f53d 2e35 57be
000000f0: 6e70 3f3e c4d3 c7be b9b3 96bc 092a 9b3e
00000100: 08d2 8d3e 7497 eb3d 3f21 8dbc aea5 363e
00000110: 36d9 863e 6e78 673e 6383 083d ac08 96be
00000120: 9750 833e f6b1 043e d36e aa3c 16f4 763e
00000130: 6446 8e3e 7cac 3b3e 04eb 5e3d fdc4 69be
00000140: 4a7b 8c3e 9cea 3abd c579 9e3d 93c0 2ebe
00000150: d7df 203e 2e5a 053e 819e 8d3e e522 9f3e
00000160: 32e7 a03e 1bcc 30be 033f 033a e528 96be
00000170: 52a7 0bbe 88b3 82be 6c8a d4bb 23fc 963e
00000180: f51f b13e 003d 90be f367 2a3c 1d5f 64be
00000190: ccca 91bd 26d8 203e b6dc 2a3e 87ee 93be
000001a0: 9634 953e 0abd 303d bb26 24be ee25 713d
000001b0: 03c2 babe 2f84 aa3d b609 7dbe 5412 a9bd
000001c0: 1689 823e 3253 943e 7fd8 203e ed03 943e
000001d0: 0f32 293d 3401 09be 4ca3 6bbe b8c0 4fbd
000001e0: 8e4c 953d 7b96 493d 4cc7 043e 903b 09be
000001f0: be58 913e 43c0 30bd 6924 143e 04d8 66be

linears.0.bias f4 [64]
0.11656397 0.20029654 -0.019628676 -0.010198023 0.0759483 0.0466322 0.026746204 -0.00929407
-0.015347015 0.118417226 -0.024730802 -0.098239206 -0.17729765 0.20968774 -0.2509315 -0.17524242
0.09396086 -0.036889687 0.019155167 0.055399366 0.0131863225 0.022712583 -0.022036754 -0.044503458
0.37521526 -0.020601159 0.07647967 -0.28777987 0.08118428 -0.023577398 -0.11088213 0.10572409
0.09776346 0.10877367 0.05570458 0.08553366 0.17224382 0.2850352 -0.060707133 -0.06130324
0.21981692 0.046407953 0.060290705 0.08594199 -0.09655862 -0.027385449 -0.057342798 -0.10838184
0.2692234 -0.1911212 -0.23046426 -0.22064464 -0.045502912 0.054089263 -0.30571973 -0.14671104
0.09125031 -0.06742434 0.037319385 -0.06675053 -0.035296775 0.15346223 0.068708286 -0.13348378
00000000: 17b9 ee3d 891a 4d3e 51cc a0bc 9c15 27bc
00000010: c88a 9b3d 6801 3f3d db1a db3c 2846 18bc
00000020: 0c72 7bbc bb84 f23d 4098 cabc a331 c9bd
00000030: 848d 35be 62b8 563e 187a 80be c072 33be
00000040: 8d6e c03d a419 17bd 4ceb 9c3c 72ea 623d
00000050: 720b 583c bd0f ba3c 6c86 b4bc 4249 36bd
00000060: 371c c03e c3c3 a8bc 60a1 9c3d e257 93be
00000070: f243 a63d 6325 c1bc 2c16 e3bd df85 d83d
00000080: 3538 c83d bbc4 de3d 7c2a 643d 462c af3d
00000090: af60 303e 22f0 913e 0ba8 78bd 1b19 7bbd
000000a0: b017 613e 4416 3e3d 63f3 763d 5b02 b03d
000000b0: 87c0 c5bd 7357 e0bc 48e0 6abd 4cf7 ddbd
000000c0: a6d7 893e 47b5 43be d3fe 6bbe abf0 61be
000000d0: 4361 3abd b48c 5d3d 4c87 9cbe 6b3b 16be
000000e0: 71e1 ba3d c615 8abd 36dc 183d 80b4 88bd
000000f0: 5a93 10bd 3425 1d3e eeb6 8c3d f9af 08be

linears.1.weight f4 [64, 64]
-0.1746136 0.08064296 -0.14043504 0.22150879 0.03680955 0.16191639 -0.034271322 -0.18826286
0.082791656 -0.07934514 0.19274911 -0.12115977 -0.0627919 0.13518873 -0.12240286 0.1337747
0.04223485 0.121617734 -0.0034117985 0.22247666 0.08739257 -0.127693 -0.054742 -0.16227727
0.20029043 0.042955242 -0.111533 -0.12850852 -0.17758742 0.0019810782 0.037023146 0.033709604
0.05194374 -0.049722567 -0.12504348 0.054133397 -0.088036716 -0.06313807 -0.14488225 0.19318292
-0.21452963 -0.18071641 -0.21749999 -0.21083038 -0.098203704 0.071163416 -0.014436937 -0.02344086
0.20737709 0.05310512 -0.06445226 0.1708316 0.03319876 0.0611912 0.22091138 -0.09779488
0.068783306 -0.23327065 -0.15535717 -0.0015010539 -0.1029937 -0.057690706 -0.049678233 0.15161097
-0.103842415 0.15373088 -0.21028484 -0.021625102 -0.028980136 -0.16982435 0.13167657 0.017255442
-0.14123814 0.06469573 0.017914165 0.13822284 -0.02292074 0.21096788 0.1645765 -0.17324996
-0.11985667 0.20198315 -0.10801732 0.10688554 -0.14019601 -0.15726836 0.20802587 0.19107078
-0.05336462 -0.060335208 -0.07890118 -0.0897521 0.149062 0.06185361 -0.025175864 -0.09176454
0.1811634 0.19264083 0.24978141 -0.0013122216 -0.16867064 0.23338777 -0.20143534 -0.23965944
-0.17558834 -0.21167979 0.25235486 0.24847938 -0.18227094 0.14322545 -0.23414196 0.03250274
0.12619045 0.03927078 -0.14700642 -0.0435097 -0.10790981 0.019311639 0.009774705 -0.1504515
0.08842084 0.18115562 -0.19574372 0.0709748 0.18606958 -0.07239302 0.081034675 0.18468182
0.06328628 -0.14182135 -0.17538518 0.187187 -0.014673569 0.14064585 -0.07753936 -0.046167664
-0.11208403 0.080573305 0.1616537 -0.21026203 -0.08150949 -0.24310587 -0.019643925 -0.08542936
0.18356623 -0.05529654 -0.044138726 0.20767796 0.18316819 -0.034073282 -0.04668272 -0.13765347
0.158186 -0.08814473 0.083824776 0.106454216 0.19315231 0.003978819 0.18656623 -0.16011985
-0.06030359 -0.022846557 0.15030247 -0.039840326 -0.023344295 -0.24195513 0.18519424 0.021532478
-0.04199523 0.15428351 0.1318833 0.045256887 0.23864238 0.18316028 0.013465955 0.05838297
0.22012816 0.17836021 -0.24325323 0.1845623 0.21913739 -0.20924759 0.16282314 0.048619565
-0.09423105 0.15800135 -0.01815943 0.047850274 -0.060568098 -0.008192773 -0.13501677 0.1951154
0.0349241 0.10096832 0.17363265 -0.00987321 -0.013728015 0.10842587 0.03966348 0.20953692
0.14586551 0.12725559 0.10005311 0.015058439 -0.05458681 0.008374199 0.1917208 0.20331556
0.20715548 0.14113864 0.007143284 -0.13563119 0.018262306 -0.032932207 -0.041745085 0.1043264
-0.09773253 -0.152945 -0.064373 0.0813839 -0.1285769 0.12114327 0.20238236 0.009689449
-0.08654557 -0.051710628 -0.2446621 0.091831364 0.030593753 -0.24727042 -0.13872232 0.16318487
-0.077743605 0.0044551343 -0.12516056 -0.12693073 0.0873044 -0.122627564 0.11529804 0.0719638
-0.17312908 -0.1137047 0.06635547 0.022222156 -0.14537898 0.09785168 -0.022449972 0.1549223
-0.2662619 -0.10578224 -0.10691566 0.15443659 0.14301956 -0.21889466 -0.082984805 0.12473903
00000000: e8cd 32be 2328 a53d 34ce 0fbe 33d3 623e
00000010: 9cc5 163d 69cd 253e 1660 0cbd fbc7 40be
00000020: ac8e a93d b47f a2bd 0660 453e 9d22 f8bd
00000030: 0a99 80bd ea6e 0a3e 5aae fabd 3cfc 083e
00000040: 73fe 2c3d b812 f93d 7b98 5fbb ecd0 633e
00000050: e0fa b23d f4c1 02be 2639 60bd 032c 26be
00000060: ef18 4d3e d6f1 2f3d 6a6b e4bd bd97 03be
00000070: 7ad9 35be fad4 013b 95a5 173d 1513 0a3d
00000080: f6c2 543d e4a9 4bbd 660b 00be fbba 5d3d
00000090: 984c b4bd 884e 81bd 035c 14be bed1 453e
000000a0: a8ad 5bbe b90d 39be 51b8 5ebe ebe3 57be
000000b0: 061f c9bd 20be 913d e788 6cbc 0c07 c0bc
000000c0: a95a 543e c184 593d 8cff 83bd 7bee 2e3e
000000d0: 6cfb 073d a0a3 7a3d 9836 623e af48 c8bd
000000e0: 43de 8c3d 80de 6ebe f315 1fbe 03bf c4ba
000000f0: 5cee d2bd 174d 6cbd 677b 4bbd e83f 1b3e
00000100: 55ab d4bd a16b 1d3e e954 57be 2027 b1bc
00000110: c067 edbc 6fe6 2dbe 39d6 063e 495b 8d3c
00000120: bba0 10be 327f 843d bac0 923c 4a8a 0d3e
00000130: 47c4 bbbc f707 583e be86 283e 7068 31be
00000140: 6a77 f5bd acd4 4e3e 2f38 ddbd cee6 da3d
00000150: 8b8f 0fbe f50a 21be bc04 553e 0fa8 433e
00000160: dc94 5abd 0d22 77bd f196 a1bd f3cf b7bd
00000170: b5a3 183e 365a 7d3d 9d3d cebc 0cef bbbd
00000180: e682 393e a343 453e b3c6 7f3e dafe abba
00000190: ffb7 2cbe 34fd 6e3e 1145 4ebe 4969 75be
000001a0: 6ecd 33be 96c2 58be a834 813e 6171 7e3e
000001b0: 3ca5 3abe b1a9 123e e9c2 6fbe 9821 053d
000001c0: 1238 013e 66da 203d da88 16be 3a37 32bd
000001d0: d2ff dcbd 7133 9e3c 1626 203c f50f 1abe
000001e0: fc15 b53d dc80 393e 0b71 48be 3c5b 913d
000001f0: 0689 3e3e cb42 94bd 82f5 a53d 3b1d 3d3e
00000200: 3d9c 813d 9e39 11be 2c98 33be f3ad 3f3e
00000210: 6969 70bc 7705 103e f5cc 9ebd 4e1a 3dbd
00000220: 508c e5bd 9e03 a53d 8c88 253e ee4e 57be
00000230: 73ee a6bd bff0 78be 4cec a0bc 97f5 aebd
00000240: c9f8 3b3e a07e 62bd cfca 34bd 88a9 543e
00000250: 7190 3b3e 6d90 0bbd 6136 3fbd 08f5 0cbe
00000260: 83fb 213e 3985 b4bd 53ac ab3d ab04 da3d
00000270: b8c9 453e c160 823b 380b 3f3e 75f6 23be
00000280: e600 77bd b428 bbbc e4e8 193e 9c2f 23bd
00000290: 893c bfbc 16c3 77be 8fa3 3d3e e164 b03c
000002a0: 3103 2cbd 7ffc 1d3e 6a0c 073e 495f 393d
000002b0: ab5e 743e 5e8e 3b3e 4fa0 5c3c fb22 6f3d
000002c0: 4769 613e 0fa4 363e 6017 79be e6fd 3c3e
000002d0: 8d65 603e 0045 56be 1cbb 263e 4f25 473d
000002e0: 35fc c0bd 1bcb 213e 16c3 94bc a6fe 433d
000002f0: 4116 78bd fb3a 06bc d641 0abe 55cc 473e
00000300: 930c 0f3d 7bc8 ce3d c2cc 313e 3fc3 21bc
00000310: 78eb 60bc 620e de3d 2c76 223d d990 563e
00000320: c55d 153e 4a4f 023e a5e8 cc3d acb7 763c
00000330: 6b96 5fbd f033 093c 7552 443e f431 503e
00000340: 9120 543e a686 103e 3612 ea3b e7e2 0abe
00000350: d59a 953c ece3 06bd e5fc 2abd 14a9 d53d
00000360: fe27 c8bd 9d9d 1cbe fed5 83bd 9aac a63d
00000370: aaa9 03be f619 f83d 523d 4f3e 7fc0 1e3c
00000380: ce3e b1bd 86ce 53bd b488 7abe 1512 bc3d
00000390: c09f fa3c 7534 7dbe 390d 0ebe ef19 273e
000003a0: 0a38 9fbd 60fc 913b 172a 00be 21fa 01be
000003b0: a6cc b23d 2924 fbbd 6121 ec3d c261 933d
000003c0: c048 31be 02de e8bd 60e5 873d 3d0b b63c
000003d0: 3ade 14be 7666 c83d 01e9 b7bc f4a3 1e3e
000003e0: 7b53 88be 5ca4 d8bd 99f6 dabd a024 1e3e
000003f0: b873 123e ec25 60be f0f3 a9bd 2d77 ff3d

linears.1.bias f4 [64]
-0.0021673946 0.049632713 -0.05698576 -0.12857215 0.028698971 0.06721121 -0.094970465 -0.14230071
0.016266957 -0.06293662 -0.02101258 -0.06118547 0.1806957 -0.043168005 -0.0994834 0.0023198603
-0.06426351 -0.045605764 -0.029236186 0.1355627 0.093979344 0.02288827 0.012777183 -0.042664975
0.074238226 -0.00130261 -0.07303848 0.1550686 0.021593982 0.023275847 -0.19284119 -0.04133144
0.021302944 -0.058451988 0.189709 -0.20669241 -0.0052333176 -0.20019118 0.021852186 0.078648426
-0.007367922 -0.062385175 -0.14130801 -0.17716932 -0.20710386 0.17857121 -0.017366966 -0.03161163
0.03913913 -0.0316114 0.040833555 0.11019306 -0.21068703 -0.03624291 0.084549345 -0.14055738
0.010298166 0.015506376 -0.018678967 -0.008757569 -0.0036561766 0.055941973 -0.059934046 -0.0038371657
00000000: d90a 0ebb ac4b 4b3d e669 69bd 6ba8 03be
00000010: 1b1a eb3c 08a6 893d e07f c2bd 47b7 11be
00000020: 4842 853c eae4 80bd 9322 acbc 9e9d 7abd
00000030: 4b08 393e efd0 30bd f4bd cbbd cc08 183b
00000040: 969c 83bd 1ccd 3abd ba80 efbc f3d0 0a3e
00000050: 3e78 c03d 2e80 bb3c 6457 513c 78c1 2ebd
00000060: 360a 983d 57bc aaba 3395 95bd 4eca 1e3e
00000070: dde5 b03c fdac be3c 2978 45be 284b 29bd
00000080: 8383 ae3c 5a6b 6fbd 1343 423e 2da7 53be
00000090: 407c abbb ebfe 4cbe 5b03 b33c 6d12 a13d
000000a0: 9c6e f1bb 9987 7fbd 0cb3 10be e06b 35be
000000b0: 0913 54be 5fdb 363e 2b45 8ebc 327b 01bd
000000c0: 5a50 203d f57a 01bd 1641 273d e6ac e13d
000000d0: 57be 57be 7273 14bd 3528 ad3d 46ee 0fbe
000000e0: a4b9 283c 740e 7e3c a204 99bc e87b 0fbc
000000f0: 779c 6fbb 6923 653d 677d 75bd f578 7bbb

linears.2.weight f4 [64, 64]
-0.15557824 0.16439639 -0.15572315 -0.045073673 -0.17549162 -0.11213601 0.15936668 0.116869785
-0.049202606 -0.17388807 0.078371085 -0.018016396 0.17943646 0.16883491 0.07625609 0.30323794
0.13996787 -0.03263145 0.046074685 -0.038653094 -0.13902874 -0.025521148 -0.08181467 -0.09047084
-0.076445594 -0.16438854 -0.07872482 -0.243542 -0.14920756 -0.092126995 0.10279489 0.08879349
-0.054931857 0.06616292 0.1784624 -0.05298603 -0.18042779 -0.103965275 -0.18414341 -0.15681662
0.11683359 0.1827442 0.171884 -0.17384338 -0.10310557 -0.15984118 0.025058078 -0.020832077
0.1928749 0.0053865365 -0.006430226 -0.1308429 0.07216444 0.13368998 -0.05187554 0.048097625
0.1417944 0.16674002 0.29791185 0.0635712 0.20222421 -0.09046602 -0.18461774 -0.1038513
-0.08727277 -0.024475586 -0.14590771 -0.07521069 0.13694699 -0.084301546 -0.038678266 0.022851802
-0.066021465 0.122003905 -0.21883292 0.15774493 0.14119619 -0.025554894 -0.08713144 0.044087097
-0.16688912 0.2348426 0.101208694 -0.07005572 -0.13525343 0.2058467 0.028707756 0.17035666
-0.1706654 0.06047661 -0.23971437 0.054623444 -0.006652512 -0.010813771 0.22136344 -0.04191416
-0.12611565 0.105881155 -0.19215088 -0.061389517 -0.08595736 -0.07249835 -0.004045939 0.055620436
0.08634777 0.059263665 0.065410025 0.079982586 -0.1725463 0.10208253 -0.0018873387 -0.07424582
0.1940693 0.1417405 0.029339455 0.07249808 -0.01843822 -0.013327834 -0.13539019 0.016876068
0.14052835 0.051310994 0.113803305 0.038708925 -0.020594263 0.01625411 0.03261371 -0.19337767
-0.19854115 0.10983417 -0.1848737 0.113460004 0.15170908 0.101328164 0.091655664 0.13682613
0.021415155 0.0823694 0.15096144 0.09976486 0.11162133 0.17311044 0.16814473 0.11752665
-0.1032962 -0.12760325 0.04593055 -0.11483256 -0.09020021 -0.15464824 -0.018169343 0.046458904
-0.21944097 -0.10160482 -0.08914937 0.15721332 -0.04873992 -0.007294131 0.037577853 -0.17544259
0.22642793 -0.021731956 -0.1861093 0.16456446 -0.17421965 0.074801594 0.06293897 0.010045006
0.056215797 0.004053458 0.16293396 0.093286544 0.03944529 -0.2025869 0.04620068 0.010467421
-0.097313635 0.2206873 -0.07250862 0.033931512 -0.15416521 -0.051390875 -0.18330671 -0.018383212
-0.14994666 -0.16606922 -0.1801252 -0.040822897 0.081072055 -0.089421764 -0.050050635 -0.11458436
-0.10314517 0.14048354 0.08708201 -0.08949675 0.25576866 0.13425325 -0.24121661 -0.115284085
-0.16245258 -0.30070454 0.206775 0.16671556 0.11939879 0.20742148 -0.24916586 -0.007470737
-0.08558321 0.008403825 0.17449129 0.29186472 0.2627366 0.15908793 0.036373086 0.08830053
-0.118557416 0.019603513 -0.14717478 0.13522257 0.27527368 -0.10141374 -0.027857365 -0.2820365
0.16444522 -0.25457355 0.10394561 -0.30389172 -0.18553512 -0.027359912 -0.09965963 0.13700499
0.11610227 -0.13409212 -0.15577996 -0.15608639 -0.2656856 0.21970066 -0.11179009 -0.15794994
0.047986627 -0.25756636 -0.08302639 0.06412397 -0.20095028 0.04769861 -0.1826037 -0.09523648
-0.0729615 0.08334939 -0.08128618 -0.20711036 0.08804754 0.011197976 -0.25665978 0.10344914
00000000: e74f 1fbe 8757 283e e475 1fbe 2c9f 38bd
00000010: 13b4 33be 90a7 e5bd 0531 233e 6d59 ef3d
00000020: ac88 49bd b70f 32be 0581 a03d 1f97 93bc
00000030: 31be 373e 0fe3 2c3e 272c 9c3d 0142 9b3e
00000040: bd53 0f3e 8ea8 05bd cfb8 3c3d b552 1ebd
00000050: 8d5d 0ebe ba11 d1bc 738e a7bd c748 b9bd
00000060: 828f 9cbd 7855 28be 7a3a a1bd 1363 79be
00000070: dec9 18be 14ad bcbd 2186 d23d 5cd9 b53d
00000080: 3a00 61bd 6d80 873d d9be 363e e107 59bd
00000090: 10c2 38be bfeb d4bd 1790 3cbe 8994 20be
000000a0: 7346 ef3d 4c21 3b3e 5c02 303e 0004 32be
000000b0: 0329 d3bd 68ad 23be 9946 cd3c 08a8 aabc
000000c0: ff80 453e 8b81 b03b a5b4 d2bb aefb 05be
000000d0: f3ca 933d 07e6 083e 727b 54bd 0402 453d
000000e0: 8d32 113e e5bd 2a3e e787 983e 9e31 823d
000000f0: dd13 4f3e 4046 b9bd 6f0c 3dbe feaf d4bd
00000100: 11bc b2bd 0681 c8bc d568 15be 1008 9abd
00000110: d53b 0c3e 4aa6 acbd 1a6d 1ebd b433 bb3c
00000120: 4336 87bd 2fdd f93d bd15 60be e387 213e
00000130: bc95 103e 7f58 d1bc f871 b2bd ac94 343d
00000140: fbe4 2abe 947a 703e 8146 cf3d 6079 8fbd
00000150: e07f 0abe 7ac9 523e 872c eb3c fa71 2e3e
00000160: e9c2 2ebe 52b6 773d af77 75be d5bc 5f3d
00000170: 51fd d9bb 3e2c 31bc 19ad 623e 2fae 2bbd
00000180: 7624 01be 38d8 d83d 33c3 44be 9373 7bbd
00000190: 6a0a b0bd 047a 94bd cc93 84bb 41d2 633d
000001a0: 1ad7 b03d 75be 723d b1f5 853d e9cd a33d
000001b0: faaf 30be a510 d13d 9460 f7ba 310e 98bd
000001c0: 1aba 463e 6c24 113e 4c59 f03c e079 943d
000001d0: c00b 97bc fd5c 5abc baa3 0abe ae3f 8a3c
000001e0: aae6 0f3e 7a2b 523d b511 e93d 408d 1e3d
000001f0: 4db5 a8bc 5727 853c f495 053d cc04 46be
00000200: 5f4e 4bbe bdf0 e03d 884f 3dbe b85d e83d
00000210: a059 1b3e 2485 cf3d f7b5 bb3d 261c 0c3e
00000220: d66e af3c 4ab1 a83d a395 1a3e 8551 cc3d
00000230: b999 e43d dd43 313e 222e 2c3e d0b1 f03d
00000240: f58c d3bd 6daa 02be ac21 3c3d 552d ebbd
00000250: e3ba b8bd 1c5c 1ebe e0d7 94bc b14b 3e3d
00000260: 22b5 60be 3016 d0bd f293 b6bd 87fc 203e
00000270: 83a3 47bd 9b03 efbb 3ceb 193d 39a7 33be
00000280: b9dc 673e 3707 b2bc 7093 3ebe 9683 283e
00000290: a366 32be 9431 993d 26e6 803d cf93 243c
000002a0: 8942 663d dfd2 843b 29d8 263e 040d bf3d
000002b0: 6291 213d f172 4fbe ed3c 3d3d 8c7f 2b3c
000002c0: 5f4c c7bd dafb 613e 667f 94bd c5fb 0a3d
000002d0: 7cdd 1dbe 3d7f 52bd c1b4 3bbe 6498 96bc
000002e0: 9e8b 19be 0d0e 2abe be72 38be e935 27bd
000002f0: 1b09 a63d c222 b7bd e501 4dbd 34ab eabd
00000300: c63d d3bd ebda 0f3e 0e58 b23d 124a b7bd
00000310: 1cf4 823e af79 093e 7d01 77be 101a ecbd
00000320: f859 26be f2f5 99be d3bc 533e 7cb7 2a3e
00000330: 5a87 f43d 4c66 543e 5625 7fbe 16cd f4bb
00000340: 4046 afbd 32b0 093c d8ad 323e 4b6f 953e
00000350: 6985 863e f2e7 223e f2fb 143d e9d6 b43d
00000360: 3bce f2bd 8c97 a03c fcb4 16be c977 0a3e
00000370: acf0 8c3e 02b2 cfbd 2135 e4bc 1767 90be
00000380: 5464 283e 7757 82be 70e1 d43d b297 9bbe
00000390: ebfc 3dbe e521 e0bc 591a ccbd 094b 0c3e
000003a0: 07c7 ed3d 724f 09be c884 1fbe 1cd5 1fbe
000003b0: f107 88be 36f9 603e 34f2 e4bd a1bd 21be
000003c0: a08d 443d bddf 83be bd09 aabd 6e53 833d
000003d0: e9c5 4dbe 9e5f 433d 77fc 3abe 580b c3bd
000003e0: d76c 95bd 16b3 aa3d 5e79 a6bd bd14 54be
000003f0: 4552 b43d b777 373c e968 83be 25dd d33d

linears.2.bias f4 [64]
-0.03959741 0.034596656 -0.0077772783 0.04656106 0.00435296 0.07013213 -0.089337505 -0.025676532
-0.0196442 0.02201869 -0.030737702 0.027204216 -0.0012037565 0.07985752 0.008399542 0.029660102
0.06540478 -0.033846524 0.068912596 -0.007620893 0.06803908 -0.01388295 0.07909992 0.040982965
0.019536221 -0.023296937 -0.029279277 0.0526842 0.028511917 -0.08450049 -0.02761713 0.030677736
-0.0029886581 -0.021675365 0.006912804 -0.02017186 -0.058145747 -0.043223657 -0.04415935 -0.030023517
-0.115906015 -0.004839978 -0.033050407 -0.12515782 0.018205222 -0.016383935 -0.027465938 0.0036041962
-0.12572949 -0.061762802 0.03390387 -0.049672145 -0.030518461 0.05577749 0.020047475 -0.0032110608
-0.028012542 0.054021798 -0.006877924 -0.0914081 0.03638693 0.015333812 0.03414378 -0.027126959
00000000: e530 22bd 39b5 0d3d 8ad8 febb cfb6 3e3d
00000010: 46a3 8e3b 6fa1 8f3d 95f6 b6bd 9757 d2bc
00000020: e0ec a0bc 8a60 b43c a2cd fbbc 60db de3c
00000030: 5ec7 9dba 578c a33d 3c9e 093c bef9 f23c
00000040: f1f2 853d a7a2 0abd 0c22 8d3d afb8 f9bb
00000050: 1358 8b3d 5075 63bc 24ff a13d c1dd 273d
00000060: 6d0a a03c 38d9 bebc 18db efbc 63cb 573d
00000070: d391 e93c 980e adbd 523d e2bc e04f fb3c
00000080: 5ddd 43bb 8990 b1bc ce84 e23b 753f a5bc
00000090: 3c2a 6ebd 4a0b 31bd 6fe0 34bd e1f3 f5bc
000000a0: 2260 edbd ae98 9ebb dd5f 07bd 5f29 00be
000000b0: 1e23 953c 9a37 86bc 3f00 e1bc 6134 6c3b
000000c0: 3bbf 00be fefa 7cbd c9de 0a3d 0575 4bbd
000000d0: da01 fabc f076 643d 9a3a a43c a970 52bb
000000e0: 8f7a e5bc f645 5d3d 3560 e1bb 2c34 bbbd
000000f0: 760a 153d ab3a 7b3c 59da 0b3d 5b39 debc

linears.3.weight f4 [64, 64]
-0.22712862 0.16818126 0.07495444 0.083306246 0.19393533 -0.026176084 0.108752824 -0.19200961
0.11474308 -0.1957981 0.07601996 0.16607027 -0.059339546 0.039117057 0.15717568 0.043417644
-0.16342184 -0.13156632 -0.21729615 -0.10813978 0.16140264 0.10001127 0.11215722 0.042481873
0.046447538 0.036606483 -0.028482763 0.059925567 -0.06550048 0.13277183 0.066086695 0.10835616
0.11371435 0.16066939 -0.17773995 0.31048778 0.15809785 -0.09141215 0.20606412 0.0458865
0.120744616 -0.132707 0.018621227 -0.27268463 0.11874318 -0.14902005 -0.05037809 -0.0873842
0.031328272 0.017331358 -0.20326109 0.20839189 -0.060505092 0.024563558 -0.021328807 -0.13153486
0.1593737 -0.16070934 -0.03902951 0.121686466 -0.16332991 -0.32399586 0.08485839 -0.004901036
-0.05157187 -0.08486969 0.015771823 -0.14418541 -0.08510447 -0.09581164 -0.026750308 -0.07718304
-0.14904639 -0.18070371 -0.11577077 -0.035571337 0.04980003 -0.1443689 0.03467222 0.027560838
-0.0315932 0.16491446 0.20329177 -0.12748088 -0.06607851 0.08824108 0.03702332 -0.057583384
0.022708649 -0.07857774 0.07018354 -0.07075908 0.14738497 -0.13652916 -0.017206421 -0.17902905
0.107774146 0.15631275 0.045083046 -0.023744155 -0.10284922 -0.09343635 -0.08210062 -0.16693144
0.17571789 0.16963455 0.066603355 0.10334957 -0.03694006 0.023641812 0.04764731 -0.04050852
-0.08710716 -0.16421798 0.19486544 0.19066995 -0.13525458 -0.16212554 0.028104452 -0.19700512
0.121206135 0.1646035 -0.25378618 -0.1438578 0.04344707 0.12925185 -0.16739553 0.19701658
-0.12012158 -0.003080446 0.026913267 8.739293e-05 -0.026471907 0.058417022 0.025586177 -0.22151221
-0.22083516 0.10288556 0.2181813 0.02069286 -0.09587958 -0.026255695 -0.20963237 -0.038726877
-0.1526405 -0.023807826 -0.22817771 -0.15634659 0.0818106 -0.08109151 -0.12683147 0.033164475
-0.014607955 -0.09585962 0.17018013 0.15955663 -0.24744593 -0.24620187 -0.14688855 -0.1097779
-0.10420754 0.0031115718 0.09086561 -0.11655865 0.2243749 0.27484736 0.14401172 -0.026738316
0.024075681 -0.070068866 0.064030044 0.075670525 -0.19150856 -0.13305947 0.30475786 -0.22125383
-0.11727785 0.25312516 -0.034438275 -0.01816933 0.18940748 0.18877141 0.17664367 0.027814893
0.07584478 -0.09447082 0.003606841 0.2541405 0.11244333 -0.11368503 0.17272478 0.15411977
0.17442665 0.03295819 0.18445094 0.098660804 -0.14602257 0.008356017 -0.3152376 -0.085823365
-0.12449565 0.2162253 -0.16367689 -0.021995327 -0.06969049 0.088272855 -0.14560564 -0.054633588
-0.07120433 -0.053039666 0.21995907 -0.05856989 -0.121281154 -0.010623761 -0.13092591 0.114312194
0.34494764 0.04107561 0.072366044 -0.16683146 0.07825714 -0.020775368 -0.09944426 0.11973889
-0.09921621 -0.042760946 -0.17706688 -0.101709515 0.009928914 -0.2083894 -0.12339951 0.18014367
0.004319352 0.13086836 -0.1591425 0.060302358 -0.09028562 -0.17708379 -0.14784046 0.04903611
-0.30828595 -0.02802776 0.24573761 -0.0135922255 0.02683085 0.105261244 -0.038804095 0.1295719
0.042687926 -0.14191355 0.09863718 -0.23283795 -0.17444265 0.18458056 -0.05657976 0.10068072
00000000: 6894 68be b537 2c3e b781 993d 779c aa3d
00000010: fc96 463e 3a6f d6bc cdb9 de3d 2b9e 44be
00000020: 6cfe ea3d 4c7f 48be 5ab0 9b3d 530e 2a3e
00000030: 060e 73bd 3539 203d a9f2 203e b3d6 313d
00000040: 0e58 27be 52b9 06be e282 5ebe 6478 ddbd
00000050: bc46 253e b5d2 cc3d afb2 e53d 7901 2e3d
00000060: c63f 3e3d aef0 153d af54 e9bc 8374 753d
00000070: 1e25 86bd 57f5 073e 7658 873d d6e9 dd3d
00000080: 12e3 e83d 8486 243e 7601 36be 41f8 9e3e
00000090: 67e4 213e 4b36 bbbd 7902 533e 7cf3 3b3d
000000a0: f448 f73d 58e4 07be 8b8b 983c 529d 8bbe
000000b0: a02f f33d b698 18be 4259 4ebd 7df6 b2bd
000000c0: 1352 003d 7efa 8d3c ad23 50be af64 553e
000000d0: 30d4 77bd 8439 c93c c0b9 aebc 13b1 06be
000000e0: dc32 233e fd90 24be 68dd 1fbd c136 f93d
000000f0: f53f 27be c9e2 a5be 3cca ad3d df98 a0bb
00000100: 063d 53bd 29d0 adbd e933 813c 57a5 13be
00000110: 414b aebd e538 c4bd 7623 dbbc 2412 9ebd
00000120: 9e9f 18be 650a 39be 3a19 edbd 40b3 11bd
00000130: 1efb 4b3d 71d5 13be 7504 0e3d 44c7 e13c
00000140: df67 01bd 56df 283e b82b 503e 598a 02be
00000150: 2b54 87bd bdb7 b43d c4a5 173d 8edc 6bbd
00000160: 7d07 ba3c 5eed a0bd 63bc 8f3d 23ea 90bd
00000170: 16ec 163e 4dce 0bbe 7bf4 8cbc 6453 37be
00000180: b1b8 dc3d 7310 203e 00a9 383d 1a83 c2bc
00000190: 9da2 d2bd 8f5b bfbd 5f24 a8bd 13f0 2abe
000001a0: 64ef 333e aeb4 2d3e 5767 883d f0a8 d33d
000001b0: 764e 17bd 79ac c13c d329 433d 43ec 25bd
000001c0: 3d65 b2bd c228 28be ce8a 473e fc3e 433e
000001d0: 2d80 0abe 3d04 26be 4f3b e63c b6bb 49be
000001e0: ec3a f83d d28d 283e 43f0 81be 764f 13be
000001f0: 8ef5 313d 995a 043e bc69 2bbe b7be 493e
00000200: 4e02 f6bd 4fe1 49bb 3679 dc3c b946 b738
00000210: 9ddb d8bc b046 6f3d 1a9a d13c 19d4 62be
00000220: 9d22 62be aab5 d23d eb6a 5f3e 1384 a93c
00000230: 835c c4bd 2f16 d7bc dea9 56be 13a0 1ebd
00000240: cb4d 1cbe a108 c3bc 6ba7 69be 5219 20be
00000250: 518c a73d 4e13 a6bd 1ce0 01be 79d7 073d
00000260: 3456 6fbc 0c52 c4bd b343 2e3e d062 233e
00000270: 7762 7dbe 581c 7cbe f469 16be 3cd3 e0bd
00000280: c36a d5bd 83eb 4b3b c017 ba3d 4db6 eebd
00000290: 89c2 653e cbb8 8c3e cf77 133e 500a dbbc
000002a0: 5d3a c53c 4480 8fbd 2f22 833d 26f9 9a3d
000002b0: d21a 44be be40 08be 3909 9c3e 5d90 62be
000002c0: 5f2f f0bd 9f99 813e 260f 0dbd d9d7 94bc
000002d0: 09f4 413e 4b4d 413e 14e2 343e 0fdc e33c
000002e0: 8254 9b3d eb79 c1bd c060 6c3b b41e 823e
000002f0: b048 e63d b2d3 e8bd c4de 303e 93d1 1d3e
00000300: e69c 323e 2bff 063d b5e0 3c3e ad0e ca3d
00000310: f186 15be ade7 083c d366 a1be 29c4 afbd
00000320: 93f7 febd 2a6a 5d3e ea9a 27be 8b2f b4bc
00000330: e3b9 8ebd 66c8 b43d a519 15be 78c7 5fbd
00000340: 93d3 91bd 1f40 59bd f33c 613e fbe6 6fbd
00000350: 4162 f8bd 490f 2ebc 7111 06be 831c ea3d
00000360: fa9c b03e e63e 283d a634 943d ded5 2abe
00000370: 4845 a03d 1b31 aabc 6fa9 cbbd aa39 f53d
00000380: de31 cbbd 1a26 2fbd 0551 35be 144d d0bd
00000390: e2ac 223c 0864 55be e2b8 fcbd 9577 383e
000003a0: 5a89 8d3b 5b02 063e 40f6 22be 9bff 763d
000003b0: abe7 b8bd 7455 35be 7d63 17be 17da 483d
000003c0: a8d7 9dbe 799a e5bc a4a2 7b3e edb1 5ebc
000003d0: 5fcc db3c 3593 d73d 0bf1 1ebd 7fae 043e
000003e0: 89d9 2e3d c951 11be 4a02 ca3d 126d 6ebe
000003f0: 18a1 32be b002 3d3e 2ec0 67bd b131 ce3d

linears.3.bias f4 [64]
0.025737042 -0.04264002 -0.0423562 0.04744802 0.039747477 0.0019311153 0.024662694 -0.033381853
0.034664154 -0.022806732 0.03664361 0.06110953 0.026991276 0.035675757 -0.05958246 0.071122594
0.08270909 0.03370171 -0.02831711 -0.038999315 -0.008887223 -0.07908358 -0.067233585 0.017800914
0.024315322 -0.015701957 -0.06926516 -0.019560946 0.004576756 -0.019552838 0.043240875 -0.0052187834
0.029313717 -0.061069455 0.013693209 0.0119247 -0.022830138 0.00853676 -0.026996946 0.008955385
0.017464684 -0.026449235 -0.03002713 0.029058037 -0.050216034 -0.014049417 -0.034926843 0.075245716
0.051118504 0.016608085 0.06746728 -0.023576671 -0.014770183 -0.0003304805 0.027885446 -0.014425388
0.024631588 0.03161136 0.01446591 0.0352392 0.024894796 -0.009702591 -0.006867799 -0.04875753
00000000: 7dd6 d23c 4da7 2ebd b27d 2dbd db58 423d
00000010: 40ce 223d 7a1d fd3a 6b09 ca3c 69bb 08bd
00000020: 00fc 0d3d 2fd5 babc 9c17 163d fd4d 7a3d
00000030: cf1c dd3c be20 123d bd0c 74bd b9a8 913d
00000040: 6263 a93d ce0a 0a3d 49f9 e7bc bfbd 1fbd
00000050: b79b 11bc 92f6 a1bd c3b1 89bd 39d3 913c
00000060: ed30 c73c 64a1 80bc e4da 8dbd 473e a0bc
00000070: 9df8 953b 462d a0bc 581d 313d 5402 abbb
00000080: 5223 f03c f723 7abd 7b59 603c d15f 433c
00000090: 4506 bbbc c4dd 0b3c b328 ddbc 9bb9 123c
000000a0: 1912 8f3c 11ac d8bc 75fb f5bc 1f0b ee3c
000000b0: 54af 4dbd 872f 66bc 730f 0fbd 6d1a 9a3d
000000c0: a361 513d ae0d 883c 492c 8a3d dd23 c1bc
000000d0: a3fe 71bc 5844 adb9 0570 e43c 7658 6cbc
000000e0: 2fc8 c93c ea7a 013d 6d02 6d3c fb56 103d
000000f0: 2cf0 cb3c 9ef7 1ebc 460b e1bb fab5 47bd

linears.4.weight f4 [64, 64]
-0.2180427 -0.09773172 -0.1408207 0.025385607 0.046800826 0.091523424 0.21553153 0.065347955
0.03684858 -0.036165748 -0.18998526 -0.20901294 0.14540125 -0.0033440094 -0.18708439 -0.33232856
-0.064648226 0.14831853 0.20855378 -0.11256899 0.011997675 0.09775196 -0.037887428 -0.014013149
0.087137975 0.10431141 -0.16797452 -0.14981884 -0.254807 0.015583527 -0.10340171 -0.0382327
-0.02490757 -0.16199912 0.06252026 0.23072293 0.027835328 -0.022120545 -0.13689496 -0.23644082
-0.16601358 0.19510554 0.15810126 0.14675345 0.004946881 -0.16634397 0.16373962 0.14412184
-0.18166724 -0.10518542 -0.047272712 -0.08904 -0.18231958 0.06309984 0.17517787 0.0002633756
-0.23276506 -0.085150376 0.20440662 -0.21726309 -0.17323744 -0.16316783 -0.029077308 0.21363485
-0.03841797 0.18655662 0.12126398 -0.13625032 -0.009813343 0.03352298 -0.1998821 0.053861137
0.13341239 0.18511567 0.18719706 0.07904749 -0.12152927 -0.053192344 0.17271638 0.26811776
-0.11446683 -0.11923604 0.043831125 0.20228204 0.1992075 -0.099306874 0.028168358 0.21031718
-0.18790315 -0.21849743 0.049508918 0.25733685 0.0008551475 -0.036805335 0.04694289 -0.004924557
0.0864742 -0.16410676 -0.18035689 0.13784064 0.24337643 0.22056633 0.13424249 -0.18686676
-0.08223219 0.16574341 0.12700789 -0.22301613 0.2592705 0.1645223 0.008379436 -0.09882848
-0.11799843 0.061978657 -0.15636314 -0.019303594 -0.1357903 0.045037113 -0.09233211 -0.1678181
0.040007733 0.021748073 0.11020465 -0.049849797 -0.09082267 -0.21516791 -0.19309 0.2674877
0.22395481 0.011460425 0.04080752 -0.2810854 -0.052363813 0.091619596 -0.025903841 0.17933056
-0.36908856 -0.1653857 -0.26294434 -0.06400077 -0.1499289 -0.1945006 0.046031978 -0.30801484
-0.1414663 -0.24039404 -0.021842295 0.20405665 -0.17694329 -0.008905392 0.17635104 0.0176013
-0.29544252 0.26906815 -0.021911217 0.19905452 -0.28356507 0.17440271 -0.13824031 0.19984765
-0.08630495 -0.13504563 -0.3699468 0.133564 -0.04960862 -0.0060754744 0.03901588 -0.0061209076
-0.04872002 -0.15132056 0.26143903 -0.24404176 0.036260776 0.24137542 0.49972975 -0.09441225
-0.1141414 0.17706524 0.073474355 -0.2094105 0.16576588 0.19031419 0.0003166401 -0.0053966115
0.04203944 0.18137875 0.209437 -0.40217012 -0.20355596 -0.10639216 0.11350311 0.22160576
0.19824924 0.28473303 0.09343851 0.2182191 -0.034041762 -0.09929422 -0.084400706 0.10321288
0.053331465 0.1678999 -0.15154688 -0.23272727 -0.06977691 -0.1917595 0.052308578 0.21398968
0.08996437 -0.038583744 -0.09759405 0.045967277 0.18533885 0.18921806 0.21557158 0.0418082
-0.023432007 0.24022546 -0.060116958 0.3506118 0.06358572 -0.035144206 0.21530157 -0.05508332
-0.1839755 -0.05099865 0.20174105 0.017799841 -0.14264953 0.16018812 0.12949194 -0.08865201
0.12671183 0.10729244 0.13814877 -0.09394873 0.15119393 0.04856623 0.10601857 0.24222524
-0.036645968 0.14347163 -0.107081056 -0.098053984 0.104746 0.16701019 0.021380696 0.053659853
-0.08590809 0.06827104 0.16435175 0.1501431 -0.23091672 0.043219104 0.1762073 0.004404769
00000000: 9646 5fbe 9127 c8bd 4d33 10be 7af5 cf3c
00000010: 39b2 3f3d a270 bb3d 4cb4 5c3e 26d5 853d
00000020: 89ee 163d 8922 14bd 7f8b 42be 7d07 56be
00000030: 11e4 143e 2b27 5bbb 0d93 3fbe f826 aabe
00000040: 4a66 84bd d0e0 173e 1f8f 553e 928a e6bd
00000050: e591 443c 2e32 c83d d92f 1bbd 6897 65bc
00000060: 6575 b23d 38a1 d53d 8301 2cbe 1c6a 19be
00000070: 1076 82be 0d52 7f3c 47c4 d3bd e499 1cbd
00000080: f60a ccbc 19e3 25be 9f0a 803d a242 6c3e
00000090: ea06 e43c 2536 b5bc 312e 0cbe 8b1d 72be
000000a0: 77ff 29be bfc9 473e 4ce5 213e 8946 163e
000000b0: 7219 a23b 1356 2abe 5cab 273e ad94 133e
000000c0: fa06 3abe 746b d7bd 08a1 41bd 9b5a b6bd
000000d0: fcb1 3abe 7d3a 813d d461 333e ad15 8a39
000000e0: f759 6ebe 5263 aebd f84f 513e 377a 5ebe
000000f0: 2865 31be 7815 27be 8933 eebc 18c3 5a3e
00000100: 295c 1dbd b308 3f3e 4059 f83d 3485 0bbe
00000110: 25c8 20bc 644f 093d e5ad 4cbe 7f9d 5c3d
00000120: 429d 083e f68e 3d3e 96b0 3f3e a7e3 a13d
00000130: 57e4 f8bd 37e0 59bd 90dc 303e bb46 893e
00000140: 966d eabd 0632 f4bd 4488 333d 0623 4f3e
00000150: 0dfd 4b3e 6761 cbbd 54c1 e63c 635d 573e
00000160: af69 40be cabd 5fbe ddc9 4a3d a8c1 833e
00000170: fa2b 603a 31c1 16bd 3047 403d 2e5e a1bb
00000180: 6319 b13d 9a0b 28be 7aaf 38be 1926 0d3e
00000190: ac37 793e 24dc 613e dd76 093e 005a 3fbe
000001a0: 5a69 a8bd a4b8 293e 5b0e 023e 575e 64be
000001b0: 1abf 843e 8978 283e e749 093c 9666 cabd
000001c0: 29a9 f1bd 55dd 7d3d a91d 20be 9222 9ebc
000001d0: 9d0c 0bbe d678 383d 9e18 bdbd 82d8 2bbe
000001e0: 26df 233d 0429 b23c fab2 e13d 4d2f 4cbd
000001f0: 3c01 babd fa54 5cbe 63b9 45be 26f4 883e
00000200: 6954 653e 82c4 3b3c c925 273d 6dea 8fbe
00000210: 707b 56bd 0ea3 bb3d 4b34 d4bc 6ea2 373e
00000220: 2df9 bcbe de5a 29be a4a0 86be d612 83bd
00000230: f686 19be 2a2b 47be 078c 3c3d 1fb4 9dbe
00000240: 8bdc 10be db29 76be 9dee b2bc 3af4 503e
00000250: 9f30 35be ece7 11bc 5e95 343e 9a30 903c
00000260: 3e44 97be 4dc3 893e 277f b3bc f3d4 4b3e
00000270: 712f 91be a096 323e de8e 0dbe dda4 4c3e
00000280: a6c0 b0bd 6749 0abe ab69 bdbe 00c5 083e
00000290: 6932 4bbd c614 c7bb 1ecf 1f3d e591 c8bb
000002a0: a58e 47bd c7f3 1abe 56db 853e 15e6 79be
000002b0: 2e86 143d 1e2b 773e 94dc ff3e 365b c1bd
000002c0: f7c2 e9bd 9750 353e b979 963d b56f 56be
000002d0: 88be 293e b9e1 423e b702 a639 0fd6 b0bb
000002e0: 8c31 2c3d 5abb 393e a776 563e 3ee9 cdbe
000002f0: f970 50be 22e4 d9bd 5274 e83d 9fec 623e
00000300: d901 4b3e 87c8 913e b15c bf3d d474 5f3e
00000310: 606f 0bbd c55a cbbd 47da acbd 4661 d33d
00000320: 1872 5a3d f4ed 2b3e 1b2f 1bbe 0f50 6ebe
00000330: 32e7 8ebd 9a5c 44be 8541 563d 1c20 5b3e
00000340: 3d3f b83d fd09 1ebd 64df c7bd 2f48 3c3d
00000350: 78c9 3d3e 61c2 413e ccbe 5c3e 133f 2b3d
00000360: 7bf4 bfbc aafd 753e 333d 76bd 6483 b33e
00000370: 3b39 823d 5ff3 0fbd 0478 5c3e 0c9f 61bd
00000380: 1364 3cbe f6e3 50bd 3595 4e3e f9d0 913c
00000390: b812 12be 5b08 243e 8999 043e 2f8f b5bd
000003a0: bfc0 013e 24bc db3d df76 0d3e 3168 c0bd
000003b0: 95d2 1a3e 62ed 463d 4420 d93d e509 783e
000003c0: 151a 16bd 3aea 123e 504d dbbd 87d0 c8bd
000003d0: 1285 d63d b804 2b3e 9226 af3c 6fca 5b3d
000003e0: 95f0 afbd b0d1 8b3d d34b 283e 1dbf 193e
000003f0: 6f75 6cbe 8406 313d b06f 343e e155 903b

linears.4.bias f4 [64]
0.000690807 -0.028697284 -0.04556915 -0.039530583 0.04849746 0.049987067 -0.045162547 -0.08767082
-0.012500059 0.071484804 -0.012157919 -0.026832806 -0.066019766 -0.027757159 0.067232154 0.03875781
-0.063764505 -0.032017484 -0.05877563 -0.007819291 -0.015697552 0.027217526 0.03305748 -0.085895754
0.021321671 0.021768678 -0.017644718 -0.03578263 0.002439377 0.034703642 -0.008586037 -0.058876313
0.05101598 -0.0143161 -0.018386878 -0.100708045 0.064810954 -0.12908262 -0.040054664 -0.013378541
0.04900587 0.099458516 0.0057623656 -0.021624496 -0.019829756 -0.05267856 0.052075624 -0.042537116
0.05026205 0.045243423 -0.009655354 0.02792231 -0.055543143 0.003224568 -0.063115835 0.031798266
-0.05835332 0.017172776 -0.055998616 -0.0119513115 0.007701798 -0.05113615 0.06232091 0.039181236
00000000: 4617 353a 9116 ebbc b8a6 3abd d2ea 21bd
00000010: 46a5 463d 3dbf 4c3d 5dfc 38bd c28c b3bd
00000020: 0ccd 4cbc a066 923d 0232 47bc 79d0 dbbc
00000030: 5f35 87bd fb62 e3bc 03b1 893d 82c0 1e3d
00000040: f796 82bd c424 03bd b7be 70bd 7c1c 00bc
00000050: 2798 80bc 4af7 de3c 4867 073d 1dea afbd
00000060: c9aa ae3c 3a54 b23c a88b 90bc cf90 12bd
00000070: f4dd 1f3b 6825 0e3d 73ac 0cbc 4a28 71bd
00000080: 22f6 503d 138e 6abc 14a0 96bc 0540 cebd
00000090: 9bbb 843d 3c2e 04be 5c10 24bd ab31 5bbc
000000a0: 61ba 483d e8b0 cb3d 3ad2 bc3b db25 b1bc
000000b0: 0372 a2bc 79c5 57bd 404d 553d 663b 2ebd
000000c0: 94df 4d3d 2b51 393d 7d31 1ebc 54bd e43c
000000d0: 3581 63bd 4653 533b e042 81bd e63e 023d
000000e0: e403 6fbd ecad 8c3c ce5e 65bd 6fcf 43bc
000000f0: 5d5f fc3b 2474 51bd 3644 7f3d 817c 203d

linears.5.weight f4 [3, 64]
0.19087686 0.107387014 0.37753573 0.03975924 0.14832433 0.091401786 0.33899784 -0.2191907
0.3651018 0.10779645 -0.17448246 0.087878376 -0.20469633 0.17478241 -0.12881473 0.30317864
-0.25263524 -0.009292434 0.17178917 -0.15871014 0.10588852 -0.047504213 -0.17791401 0.13433042
-0.37320924 -0.28911623 0.3196758 0.22870594 0.1723714 0.028573973 -0.32495216 -0.010329895
0.09307353 0.2900697 0.14710285 -0.090411544 0.28987563 0.0076754554 0.08637872 0.14055453
0.37510228 0.013552503 0.10106782 0.26477075 -0.018004838 0.20898649 -0.09394324 -0.061381895
0.22589096 0.20887874 0.44125357 0.3435428 0.054245267 0.46502253 -0.32375547 0.22945473
0.33703363 0.10435135 -0.27591985 -0.10587461 -0.2398564 -0.24077673 -0.2629578 0.088880174
-0.17339648 -0.05494957 0.23652534 0.0284718 -0.21805547 -0.028475557 0.16743922 -0.11281556
-0.23170815 -0.044275332 0.21649492 0.17322591 0.2099234 0.022162009 -0.11149362 -0.042848993
-0.08657386 -0.13586153 -0.037064403 0.12954286 -0.31053662 -0.11161712 -0.052633338 -0.12042919
0.20267728 -0.2734672 -0.012903961 0.20074426 0.101394035 -0.1110142 -0.2524319 0.022492146
-0.10880106 -0.16537185 -0.22902992 0.060842007 0.22271769 -0.012963591 0.13600384 -0.12556188
0.11799987 -0.011753228 0.36536065 0.015235552 -0.13603091 -0.067419656 -0.08690691 -0.1479471
0.21090779 -0.065391384 -0.118716456 -0.020233277 -0.053960215 -0.29733855 0.038641673 -0.115116894
-0.014479219 0.38089934 -0.12774044 0.2731719 -0.30759704 0.25163543 0.24503961 -0.12739702
0.06364353 -0.2896126 -0.29798907 -0.25209093 0.39007849 0.34065586 -0.33837467 -0.4585169
-0.3808277 0.28164643 -0.27248484 -0.33119163 -0.5447915 -0.599861 0.5236981 0.55578554
-0.5048425 -0.4099246 -0.1115335 0.04140219 -0.14761098 0.21635203 0.42738602 -0.3239903
-0.035718676 0.37024754 -0.35459375 -0.6474734 -0.35584778 0.2281071 -0.33601663 -0.29289714
0.36943895 -0.11178401 -0.28557158 -0.2805205 0.69999075 -0.37138438 -0.47804058 -0.2798834
0.2804499 0.5491302 0.24609363 -0.38001153 -0.22551277 -0.49978507 0.41852733 -0.36616138
0.36484578 0.3406938 -0.22241601 -0.058010492 -0.3055158 0.012457429 -0.37047222 0.26703295
-0.52216935 0.22963749 -0.3026284 -0.043023635 0.05865825 -0.44539696 0.42526856 0.50952
00000000: 3975 433e b9ed db3d 5d4c c13e 96da 223d
00000010: 55e2 173e dc30 bb3d 2091 ad3e 8773 60be
00000020: a0ee ba3e 63c4 dc3d 88ab 32be 94f9 b33d
00000030: ea9b 51be 29fa 323e 02e8 03be 3b3a 9b3e
00000040: 6859 81be 4b3f 18bc 80e9 2f3e e984 22be
00000050: 15dc d83d c793 42bd 172f 36be ea8d 093e
00000060: 4815 bfbe 0b07 94be 8cac a33e e431 6a3e
00000070: 2182 303e f713 ea3c 2160 a6be b83e 29bc
00000080: 569d be3d 0484 943e 21a2 163e b029 b9bd
00000090: 946a 943e 6382 fb3b 54e7 b03d 87ed 0f3e
000000a0: 680d c03e 510b 5e3c a5fc ce3d 0890 873e
000000b0: e27e 93bc 8e00 563e 5065 c0bd 956b 7bbd
000000c0: f64f 673e 4fe4 553e fdeb e13e d8e4 af3e
000000d0: 4930 5e3d 6f17 ee3e 47c3 a5be 2ef6 6a3e
000000e0: ac8f ac3e 29b6 d53d 5e45 8dbe cad4 d8bd
000000f0: eb9c 75be 2d8e 76be 68a2 86be cf06 b63d
00000100: d98e 31be cd12 61bd b333 723e b13d e93c
00000110: ef49 5fbe 9245 e9bc 3075 2b3e d80b e7bd
00000120: e744 6dbe 0d5a 35bd d8b0 5d3e 2262 313e
00000130: 29f6 563e 1a8d b53c c456 e4bd 6d82 2fbd
00000140: a34d b1bd 491f 0bbe d8d0 17bd e2a6 043e
00000150: a8fe 9ebe 8497 e4bd 0e96 57bd 94a3 f6bd
00000160: a28a 4f3e e503 8cbe 236b 53bc e78f 4d3e
00000170: ada7 cf3d 6a5b e3bd c13e 81be 7341 b83c
00000180: 17d3 debd 3d57 29be d286 6abe 7835 793d
00000190: 1b10 643e 3e65 54bc 9744 0b3e 4b93 00be
000001a0: eaa9 f13d 9c90 40bc 8d10 bb3e 899e 793c
000001b0: b04b 0bbe 5113 8abd 40fc b1bd 727f 17be
000001c0: 36f8 573e ebeb 85bd 9d21 f3bd 42c0 a5bc
000001d0: 6305 5dbd c23c 98be bb46 1e3d 68c2 ebbd
000001e0: 3f3a 6dbc 3d05 c33e 64ce 02be 30dd 8b3e
000001f0: 5c7d 9dbe 5cd6 803e aaeb 7a3e 5d74 02be
00000200: 8a57 823d 1a48 94be 0692 98be 1012 81be
00000210: 5eb8 c73e 726a ae3e 723f adbe bac2 eabe
00000220: d9fb c2be f633 903e 2283 8bbe f391 a9be
00000230: 7577 0bbf 7e90 19bf 1411 063f f647 0e3f
00000240: 5c3d 01bf a3e1 d1be ad6b e4bd 5895 293d
00000250: 5527 17be 638b 5d3e 57d2 da3e 0ee2 a5be
00000260: bf4d 12bd 1691 bd3e 508d b5be d1c0 25bf
00000270: ae31 b6be e894 693e 5f0a acbe 9df6 95be
00000280: 1a27 bd3e 04ef e4bd 7036 92be 62a0 8fbe
00000290: 9832 333f 1826 bebe bcc1 f4be e14c 8fbe
000002a0: 2197 8f3e cc93 0c3f f8ff 7b3e df90 c2be
000002b0: d2ec 66be d4e3 ffbe 3749 d63e 8179 bbbe
000002c0: 11cd ba3e 6b6f ae3e 06c1 63be 699c 6dbd
000002d0: 916c 9cbe 3f1a 4c3c 89ae bdbe 8bb8 883e
000002e0: e4ac 05bf 1726 6b3e 1cf2 9abe 8d39 30bd
000002f0: a243 703d 120b e4be cdbc d93e e76f 023f

linears.5.bias f4 [3]
-0.019537384 0.0054197153 0.19721353
00000000: dd0c a0bc de97 b13b 58f2 493e

exp_avg f4 [64, 2]
0.0013555106 -0.0065467684 -0.0002538583 -0.0036702314 6.2505336e-05 -0.00058252714 -0.0025499817 0.0059957686
-0.0041415696 -0.010073459 -0.0013793684 -0.000999635 0.0012498358 0.004487925 -0.002043773 -0.0042203534
-0.0026390895 -0.0015125327 -0.0009945345 0.0011506097 -0.0021093693 -0.0028716035 -0.0009708774 -0.0013061201
0.000979527 0.0038519977 -0.00016722918 -0.0072937114 0.0010674169 0.002696799 -0.0015851011 -0.0020525355
0.00078746834 0.0038666076 0.00058001914 0.006373693 3.3014792e-05 -0.0029624985 -0.0007522472 -0.0023302985
-0.0022498576 -0.0032945615 0.0013855755 -0.0002140715 -0.0001817561 0.0055568693 0.0010114841 0.0018847113
-0.00036078747 -0.0061204084 -0.000719838 -0.0048676184 -0.0013797816 -0.00338273 -0.0008115803 -0.0014020932
-0.00026936733 -0.0026403465 -0.0007745768 0.0064720656 0.00012569141 0.0068401447 -0.0003158817 -0.0033812374
0.00028037134 0.0021132175 0.0009803022 -0.0027178277 0.00045407444 0.0030890093 0.0010169029 0.003306912
0.0016065289 -0.0026802814 -7.09382e-05 -0.010873769 0.0035378744 0.0020246895 -0.001287802 0.0034648324
0.00032634079 -0.00056927354 0.0017000763 0.0015107271 0.0026526107 0.0022174094 0.0018505277 -0.0005161521
0.0017479667 0.002230978 0.0009728902 0.0030538975 -0.0017332955 -0.000990125 0.00063924387 0.0014223797
0.0012235587 0.0007604548 -0.00055962574 0.005304869 0.0013347768 -0.0022065442 0.00096552406 0.006420852
0.0010803258 0.0011045211 -0.0019133383 -0.004102947 -0.0014393721 0.00093720196 -0.0017618774 -0.0009023738
0.0012658119 0.00093790813 0.0018295166 0.005429184 -0.0011012915 0.00066368317 -0.0014053173 -0.0033227133
0.0022746956 0.0030345605 0.0015290148 -0.0012513932 0.0023940965 0.0021326942 0.0018095017 0.007129163
00000000: 63ab b13a 4686 d6bb 4918 85b9 4488 70bb
00000010: 4c15 8338 bcb4 18ba 981d 27bb 2778 c43b
00000020: 01b6 87bb 260b 25bc eccb b4ba 2f06 83ba
00000030: 88d1 a33a 720f 933b d2f0 05bb e44a 8abb
00000040: 93f4 2cbb 2d40 c6ba 0a5b 82ba 0ed0 963a
00000050: 583d 0abb 8331 3cbb 7b82 7eba 1e32 abba
00000060: 7963 803a cc71 7c3b 3e5a 2fb9 1600 efbb
00000070: 91e8 8b3a c8bc 303b 2bc3 cfba d583 06bb
00000080: 1b6e 4e3a e966 7d3b 6d0c 183a 69da d03b
00000090: 5d79 0a38 7a26 42bb 7432 45ba ecb7 18bb
000000a0: 5972 13bb 92e9 57bb 339c b53a 6178 60b9
000000b0: c895 3eb9 6616 b63b c693 843a 6b08 f73a
000000c0: 1328 bdb9 b58d c8bb 83b3 3cba 8b80 9fbb
000000d0: cad9 b4ba cbb0 5dbb 3bc0 54ba 71c6 b7ba
000000e0: df39 8db9 aa09 2dbb f80c 4bba 9f13 d43b
000000f0: 08cc 0339 4b23 e03b ed9c a5b9 c097 5dbb
00000100: cefe 9239 e87d 0a3b 7c7d 803a 951d 32bb
00000110: d710 ee39 fa70 4a3b 9949 853a c7b8 583b
00000120: 2a92 d23a a9a7 2fbb a8c4 94b8 e527 32bc
00000130: afdb 673b a7b0 043b 77cb a8ba 3e12 633b
00000140: b818 ab39 4d3b 15ba 18d5 de3a 9703 c63a
00000150: 6cd7 2d3b f551 113b 688d f23a 624e 07ba
00000160: 081c e53a 9a35 123b 8e09 7f3a e623 483b
00000170: bf2f e3ba 15c7 81ba ee92 273a 256f ba3a
00000180: d15f a03a 4259 473a d9b3 12ba 77d4 ad3b
00000190: adf3 ae3a ab9b 10bb 391b 7d3a 0366 d23b
000001a0: b899 8d3a 94c5 903a fbc8 faba 0472 86bb
000001b0: 50a9 bcba 8fae 753a ccee e6ba 488d 6cba
000001c0: 99e9 a53a f3dd 753a 64cc ef3a 4ce7 b13b
000001d0: 3659 90ba 06fb 2d3a a032 b8ba e1c1 59bb
000001e0: 0f13 153b 7adf 463b 3969 c83a ca05 a4ba
000001f0: 46e6 1c3b acc4 0b3b cd2c ed3a c19b e93b

exp_avg_sq f4 [64, 2]
0.009538565 0.04809037 0.0069890865 0.014032401 0.00021475476 0.016968245 0.006448182 0.043485396
0.11432538 0.04681373 0.014286062 0.017774135 0.07210579 0.06465812 0.018540384 0.031577423
0.011639368 0.008363514 0.010576263 0.005389611 0.04907623 0.012088743 0.011258181 0.0034196933
0.027874984 0.03575751 0.0031092581 0.052395463 0.007510266 0.011686706 0.016654305 0.011432524
0.008563493 0.03301027 0.023644382 0.022399781 0.018686289 0.038102936 0.008037331 0.041919183
0.019471379 0.005348479 0.00088254124 0.0025502946 0.04256577 0.017242143 0.017782992 0.015340227
0.031884182 0.04437866 0.015610404 0.038967468 0.020054165 0.01846308 0.015906934 0.008913785
0.0083351955 0.014837134 0.015098352 0.035209164 0.017742377 0.031299658 0.002474069 0.034456678
0.017169297 0.0033377563 0.00056926976 0.021179093 0.033531856 0.010007572 0.0071225697 0.047667593
0.006449905 0.01666185 0.026890913 0.07201736 0.031388704 0.022216609 0.00046828113 0.036296394
0.009011178 0.0016885557 0.006281461 0.00822717 0.041322563 0.030195313 0.012419083 0.049946394
0.013022124 0.005061158 0.003950519 0.0158404 0.015432814 0.032138377 0.003971024 0.054757167
0.00898391 0.0035559665 0.00235596 0.024359923 0.025349826 0.025254717 0.013994998 0.03121762
0.009694053 0.0005061285 0.04589104 0.008491915 0.007993823 0.0022161931 0.020829491 0.0020612937
0.012001806 0.0083928015 0.046452228 0.028566029 0.0017038466 0.024127863 0.034685165 0.0051220856
0.010969458 0.013433037 0.0025003834 0.036172144 0.041336276 0.001926441 0.03406749 0.031873826
00000000: a447 1c3c 68fa 443d b504 e53b 28e8 653c
00000010: cb2f 6139 fd00 8b3c 454b d33b be1d 323d
00000020: 6d23 ea3d c1bf 3f3d 1610 6a3c 109b 913c
00000030: 33ac 933d 7a6b 843d 01e2 973c 5457 013d
00000040: 0cb3 3e3c 1f07 093c 1048 2d3c 559b b03b
00000050: 2804 493d dd0f 463c 3c74 383c ef1c 603b
00000060: 145a e43c 7876 123d b2c4 4b3b a09c 563d
00000070: ad18 f63b 9979 3f3c 9c6e 883c 7b4f 3b3c
00000080: e54d 0c3c c735 073d ddb1 c13c bf7f b73c
00000090: fd13 993c d311 1c3d 02af 033c 73b3 2b3d
000000a0: 7182 9f3c 4b42 af3b 575a 673a d822 273b
000000b0: 7259 2e3d 653f 8d3c a3ad 913c 9355 7b3c
000000c0: fd98 023d 66c6 353d c8c2 7f3c 5a9c 1f3d
000000d0: a248 a43c e33f 973c 424f 823c 200b 123c
000000e0: 5890 083c 7317 733c 145f 773c 7c37 103d
000000f0: 7658 913c 1234 003d fd23 223b 7222 0d3d
00000100: a0a6 8c3c 42be 5a3b 0c3b 153a c77f ad3c
00000110: b358 093d cdf6 233c 7264 e93b 183f 433d
00000120: ba59 d33b 6f7e 883c 554a dc3c d67d 933d
00000130: 7191 003d 9bff b53c a183 f539 87ab 143d
00000140: 9fa3 133c 8752 dd3a b7d4 cd3b 41cb 063c
00000150: d941 293d 295c f73c 6979 4b3c 9794 4c3d
00000160: bf5a 553c 12d8 a53b 5b73 813b bac3 813c
00000170: ead9 7c3c 88a3 033d 5d1f 823b 0d49 603d
00000180: 4031 133c 380b 693b 7366 1a3b 768e c73c
00000190: 70aa cf3c fbe2 ce3c 474b 653c 18bc ff3c
000001a0: ced3 1e3c b5ad 043a 3ef8 3b3d ac21 0b3c
000001b0: 86f8 023c 8d3d 113b 9ca2 aa3c c516 073b
000001c0: 39a3 443c f681 093c b144 3e3d 4e03 ea3c
000001d0: 9b53 df3a cca7 c53c 0812 0e3d 2bd7 a73b
000001e0: 3eb9 333c 3e16 5c3c 79dd 233b 3e29 143d
000001f0: 3a50 293d a280 fc3a 5a8a 0b3d 218e 023d

exp_avg f4 [64]
-0.0016951616 -0.0010772605 0.00013224588 0.0028757069 -5.1273193e-05 0.0012960837 0.0009992705 0.00079305226
0.0006792623 0.00075687317 -0.00040370456 -0.0012531931 0.00115418 0.0008216009 0.0007445105 0.00048600804
0.0011119618 0.0004975539 -0.0007858387 -1.1474246e-05 0.0015905794 -0.001497493 0.00217929 0.00022849799
-0.0016905196 -0.0009247977 -0.0014087793 0.0005439603 -0.0007467118 0.00055374106 0.0009814664 -6.0072234e-05
0.00093063235 -0.0007083127 -0.0004695786 0.00016213089 0.0011009319 -0.0007439182 -0.00019839073 0.0012768441
-0.0004706704 -0.0003314346 -0.0017208692 -0.00044625616 0.00044757716 -0.00027776 0.00037559008 0.0007939633
0.00022451354 0.00043788375 -0.0018198823 -0.0009742772 0.00047380346 -0.0006953188 0.0017797778 0.00056449225
-0.00033554796 0.00065463386 -0.0011320717 0.00041306645 1.513923e-05 -0.002170973 -0.0006657318 0.0009607614
00000000: 2f30 deba dd32 8dba 7cab 0a39 5b76 3c3b
00000010: 2c0e 57b8 5ae1 a93a f4f9 823a d6e4 4f3a
00000020: 8510 323a e668 463a 4fa8 d3b9 2f42 a4ba
00000030: db47 973a b460 573a 412b 433a e5ce fe39
00000040: 3fbf 913a 476e 023a be00 4eba 8381 40b7
00000050: fd7a d03a 8747 c4ba 6bd2 0e3b f698 6f39
00000060: 6d94 ddba 206e 72ba caa6 b8ba 8f98 0e3a
00000070: fbbe 43ba ef28 113a 8ca4 803a 12f6 7bb8
00000080: aef5 733a 10ae 39ba c631 f6b9 ae01 2a39
00000090: 254d 903a 8103 43ba 1b07 50b9 c75b a73a
000000a0: 50c4 f6b9 66c4 adb9 ca8e e1ba 7df7 e9b9
000000b0: caa8 ea39 51a0 91b9 d9ea c439 fa21 503a
000000c0: 656b 6b39 c393 e539 1e89 eeba a366 7fba
000000d0: d368 f839 0e46 36ba 6f47 e93a 6ffa 133a
000000e0: 7cec afb9 bc9b 2b3a 0662 94ba d790 d839
000000f0: 7ffe 7d37 e246 0ebb 8184 2eba 9bdb 7b3a
