model.ckpt-15000.pt (torch, 20922 bytes, 21 tensors)

linears.0.weight f4 [20, 2]
000000 a9 24 2d 3e da 0d 10 3f 9e 80 9e 3e 44 f4 06 3e
       0.16908516 0.56271136 0.30957502 0.13179117
000010 d8 5b a1 be c7 80 07 be f0 de eb 3d 3e 53 69 bf
       -0.31515384 -0.13232718 0.11517131 -0.9114264
000020 a1 f0 8d bf 7d 89 ba bf ac 90 9f 3e 2f b9 1e 3e
       -1.1089059 -1.4573208 0.31165063 0.1550033
000030 21 a5 c0 3e a2 18 22 40 54 c9 05 be 79 99 1d c0
       0.37625983 2.5327535 -0.13065082 -2.4624922
000040 81 8c 9f 3e b8 56 86 be 77 bc bb be e0 67 fa 3e
       0.31161883 -0.26238036 -0.36667225 0.48907375
000050 ee 1a 95 3e 0f bb 42 3f 8e c0 9c 3e 7b 73 2c be
       0.29122108 0.7606668 0.30615658 -0.16840927
000060 cf 1a 06 bf 45 f8 b6 3e 0c 14 02 3e 1f 21 4c 3f
       -0.52384657 0.3573629 0.1270296 0.7973804
000070 11 39 27 3f b7 17 c5 bf 57 ab a4 be 79 6c 19 3f
       0.6532145 -1.5397862 -0.32161972 0.5993114
000080 a8 41 a8 be 4e fa 86 bf 91 01 42 3e ae 91 3f 3f
       -0.32862592 -1.0545137 0.1894591 0.74831665
000090 5c 42 0d bf f5 95 bf be c3 5e 7b be b1 64 b2 bd
       -0.5517938 -0.37419096 -0.24547867 -0.087106116

linears.0.bias f4 [20]
000000 b3 f4 8d bd 29 6c 9f be c7 3b 33 3e 01 9c 29 be
       -0.06931438 -0.31137207 0.17503272 -0.16563417
000010 dd 26 96 3e aa c1 ad be 2c 4e cd be be c1 c8 3d
       0.29326525 -0.33936816 -0.40098703 0.098025784
000020 b5 49 f7 b9 e6 90 83 3d d8 94 1b be ec 7b 02 3d
       -0.00047166427 0.064241216 -0.15193498 0.031856462
000030 09 82 26 3f e5 94 ee bc f7 65 49 bf 8b 9c 1d 3e
       0.6504217 -0.029123733 -0.7867121 0.15391748
000040 9c 55 9b 3e fc 85 19 be ad bf f3 3d 5a 5e 7d ba
       0.30338752 -0.14992517 0.11901794 -0.00096652436

linears.1.weight f4 [20, 20]
000000 56 75 45 bd ea 89 1b bf cd c2 d4 bb cc a5 fb be
       -0.048207603 -0.60757315 -0.0064929486 -0.4914993
000010 08 c8 da 3e 52 22 92 be 1e 53 49 3e de 08 3c 3e
       0.42730737 -0.2854181 0.19660613 0.18362758
000020 97 e6 31 be d6 e4 e6 3e 2c 21 e0 be f2 fe ad 3e
       -0.1737312 0.45096463 -0.43775308 0.3398357
000030 51 ae 90 3e 25 35 d3 bd 91 72 1c bf 05 98 a8 3e
       0.28257993 -0.10312871 -0.61112314 0.32928482
000040 67 4f 27 3d 55 36 36 be aa 39 96 3e f7 2a 4f be
       0.04084721 -0.17794164 0.2934087 -0.20231234
000050 90 ea 39 3f bb ba 02 be 0a 41 b5 3e b5 62 82 bf
       0.7262354 -0.12766545 0.35401183 -1.0186373
000060 3b 4e cc be a3 59 a1 be 22 8a 9c 3f 71 1d f3 bf
       -0.39903435 -0.315137 1.2229655 -1.899336
000070 38 13 6e bf 3b 5b 55 3f 37 c3 51 3e 20 3d 18 be
       -0.92998075 0.8334233 0.20484625 -0.14867067
000080 71 11 87 3d 78 6f be 3f ec 77 c3 bf 05 49 7d 3f
       0.065951236 1.4877768 -1.5270972 0.98939544
000090 c9 6f b5 be b8 d0 52 3f 04 24 1a bd c7 2a a4 3e
       -0.35436848 0.8234973 -0.037632003 0.32063887
0000a0 4d 78 0b bf 03 6a 8e bf e4 25 45 3f cb 28 bd be
       -0.5448044 -1.1126102 0.7701094 -0.36945185
0000b0 63 d7 8d bf 8f b5 c6 bf 7b 75 dc bf 46 36 64 3f
       -1.1081356 -1.5524157 -1.7223352 0.89145315
0000c0 d5 20 9f be 48 c2 85 3e ce 9c 6b bf 20 ac 28 bf
       -0.31079736 0.26124787 -0.9203614 -0.6588764
0000d0 57 a9 50 40 54 c9 7e bf 61 7b a0 bf 2f c6 97 3e
       3.2603357 -0.9952595 -1.2537652 0.2964339
0000e0 21 a8 ec 3e 69 cc a5 bf 40 ec 3d 3e d6 b7 f4 3d
       0.46222022 -1.2953006 0.18547153 0.119491264
0000f0 80 09 a4 bf 51 c1 6a bf c3 74 46 3f 2f 23 d2 bc
       -1.2815399 -0.9170123 0.77521914 -0.025651542
000100 ed bc 93 bf 2b 80 8d bf df 2d 40 bf 60 8d fb 3e
       -1.154203 -1.1054739 -0.75069994 0.49131298
000110 d4 ab 44 be b3 91 77 3e fd 59 13 bf 7d 96 ca be
       -0.19206172 0.24176674 -0.57559186 -0.39567938
000120 8a 05 35 3f 6b 72 8d bf ac 50 08 be a1 15 05 3e
       0.70711577 -1.1050543 -0.13312024 0.12996532
000130 1c a9 d7 3e d0 e8 53 bf 67 9e 11 be 0a 76 e5 3e
       0.42121208 -0.8277712 -0.14220582 0.4481662
000140 21 af d1 3d 3d c2 ad be f5 1f 74 3e 96 ff da be
       0.10238481 -0.33937255 0.23840316 -0.42773122
000150 85 3a b7 3e b7 4c b7 be f8 9b 59 3d 1d ae de 3e
       0.35786834 -0.35800716 0.05312726 0.43492213
000160 04 65 a4 be 2a 65 5e 3e 0f 92 82 bc 25 82 9a 3e
       -0.3210832 0.21718279 -0.015938787 0.30177417
000170 48 56 40 3e bc 0a b0 bd 95 16 60 be 23 97 ef 3e
       0.18782914 -0.085957974 -0.21883614 0.46794996
000180 5f e8 77 bd 9a 20 33 3e 3b b9 e8 be 84 fe a3 3d
       -0.06052434 0.17492905 -0.4545382 0.080075294
000190 ed 8d c0 bd d6 e7 4a 3e 33 3f fe 3d 61 9e 57 be
       -0.0940207 0.19815001 0.12414398 -0.2105651
0001a0 7b 66 12 3f 06 4b 13 3c cc 06 76 bd 27 f8 ac bd
       0.5718762 0.008990055 -0.060065076 -0.08445769
0001b0 96 a0 0c 3e c1 6e b9 be 3c 0f 2b 3e 64 6d 4b 3e
       0.13733134 -0.3621731 0.1670503 0.19865948
0001c0 4a 4f 5c 3e ed 89 09 3d 09 40 29 bf bb d0 ab 3e
       0.21514621 0.033578802 -0.66113335 0.33557686
0001d0 62 1d ff be 4e 5a 5d be 92 e3 a5 3d 40 52 8e be
       -0.49827105 -0.2161648 0.08100046 -0.27797127
0001e0 17 2f ef be 44 1a 97 be 63 1a 0a 3f 9a 65 36 3e
       -0.46715614 -0.29512227 0.5394651 0.17812195
0001f0 1d 6d 2d bf 7c b6 74 bd 87 9e d3 bd d0 c8 20 3e
       -0.6774462 -0.059744343 -0.10332971 0.15701604
000200 eb ab b9 bd b5 74 0f 3f 7a 4a 92 bd 95 fb 21 be
       -0.09065994 0.56037456 -0.071431115 -0.15818627
000210 f6 9d 8a 3e 94 5b c5 be f4 b5 82 bd 44 a0 be 3e
       0.2707364 -0.3854643 -0.06382361 0.37231648
000220 c9 af 89 3e a5 b9 dd bd 14 fa ed bd 44 d9 a8 bc
       0.26891926 -0.108264245 -0.11619964 -0.020611413
000230 7f 14 62 3e 55 9f 81 bd 4a 45 2d 3e 0a 40 4f 3e
       0.22078131 -0.06329218 0.16920963 0.20239273
000240 ba a9 8c 3e 99 ec df 3c 1b c4 ec be 06 11 3a 3c
       0.2747324 0.027334498 -0.46243367 0.011356598
000250 21 8d e9 3e 5a bc 00 bf ec 61 83 3e e7 a1 1e 3e
       0.45615485 -0.502874 0.25660646 0.15491448
000260 44 26 4d be d3 75 41 3e dc df 6c 3e 8e a3 b8 bd
       -0.20034128 0.18892603 0.2313227 -0.090155706
000270 3b 5a 3d be 16 bd a6 bd 00 c0 2e bd 10 a5 88 bd
       -0.18491451 -0.08141534 -0.042663574 -0.06672108
000280 bf de da be be bc 3a 3c a7 77 8d 3d c1 0f b0 3e
       -0.42748067 0.011397539 0.069075875 0.3438702
000290 15 26 5d 3e 47 32 82 3e 92 6b 74 bd 8b ea de 3e
       0.21596558 0.25428984 -0.0596729 0.43538317
0002a0 2e 26 a6 3e 49 39 bc be 91 82 dc be c2 ee eb 3e
       0.32451004 -0.36762455 -0.43068364 0.46080595
0002b0 f8 6e ba bd 17 69 da be b8 f7 54 3f 1c 18 87 be
       -0.09103197 -0.42658302 0.8319049 -0.26385581
0002c0 24 3d f3 3e 18 e0 9e be cc 7f 40 3d c8 ee 2c bd
       0.47507584 -0.31030345 0.046996877 -0.042219907
0002d0 47 63 d9 3d d8 91 1e 3e a9 c5 b3 be 85 42 70 be
       0.10614639 0.15485322 -0.3511174 -0.23462875
0002e0 98 c1 44 bf 64 ac 5a be 06 7a 18 3e c9 74 99 be
       -0.768579 -0.21354824 0.14890298 -0.29971913
0002f0 11 b5 f6 3e bd d5 07 bf 3d 81 89 3e 7e a7 6d 3e
       0.48185018 -0.53060514 0.26856413 0.23208424
000300 88 1c c5 3e ed ab 0d 3f df 64 b5 3d f2 41 f4 3c
       0.3849833 0.5534046 0.0885713 0.029816601
000310 d4 e6 84 be 3a 93 8f 3e ca 30 09 bf 22 f3 f3 be
       -0.25957358 0.28042012 -0.5359007 -0.47646433
000320 2c a4 c3 3d 35 72 d8 bb c9 77 4d bd a3 8c 0a bf
       0.09552798 -0.0066054114 -0.050163064 -0.54120845
000330 ed 9b ab 3e 5a 6a 8a be 62 de 0b 3e 57 b5 2a be
       0.335174 -0.27034265 0.13659051 -0.16670738
000340 f4 29 cb bd c9 85 61 3e c1 d1 2f 3e aa 8b 09 bf
       -0.09920111 0.22023691 0.17169859 -0.53728735
000350 44 3e 0d 3e 0b 85 53 3d c0 77 c6 be 8e 8a 7c 3e
       0.13793284 0.05164055 -0.38763237 0.2466223
000360 4a fe b3 be e0 a3 07 be 00 d6 9f be ba 67 01 bc
       -0.35154945 -0.13246107 -0.31217957 -0.0078982655
000370 25 6a b6 3f a8 d0 1c 3f 8c 3f 73 bb db 46 e0 be
       1.4251143 0.61255884 -0.0037116734 -0.43804058
000380 74 a7 0b 3f a8 85 35 3e a4 32 60 3f cb d3 00 bf
       0.5455239 0.17726767 0.8757727 -0.5032317
000390 6f 52 ef 3e f6 e5 48 3d 3c c1 aa 3e 47 49 3d be
       0.4674258 0.049047433 0.3335055 -0.18484984
0003a0 b5 d3 98 bd c1 03 5e 3f 71 5d 02 be 56 e0 5f 3d
       -0.07462255 0.8672448 -0.12730958 0.054657303
0003b0 2e 37 41 be bb 05 22 3f 71 d5 c3 3d 68 31 40 be
       -0.18868706 0.63289994 0.09562195 -0.18768847
0003c0 51 43 db 3e 4b 1d 6f 3e a9 80 d8 be ea d3 e3 bd
       0.42824796 0.23351018 -0.4228566 -0.11124404
0003d0 db e4 12 3e cc 6b 6d 3e b6 1e d6 3b 87 00 1b 3e
       0.14345114 0.23185652 0.0065344227 0.1513692
0003e0 d2 6a a6 3e bc 7c 89 be 90 83 d7 bc 38 83 2f 3f
       0.32503372 -0.26852977 -0.026307851 0.685596
0003f0 fc c0 52 3d 19 ea c9 3d e0 15 6c be fd e0 c6 bc
       0.051453575 0.09859104 -0.2305522 -0.024277205

linears.1.bias f4 [20]
000000 61 a7 ed 3d be f9 fc 3c da 9a a4 3e 09 02 4e 3e
       0.116041906 0.030880805 0.32149392 0.20117964
000010 3d 23 88 3c 89 38 e8 3d 4f 35 8d bd 7f 7c 9c 3d
       0.016618365 0.11338908 -0.068949334 0.07640933
000020 16 f8 f5 3c 10 38 18 3e 72 9e 62 3d 57 7b 4b bd
       0.030025523 0.14865136 0.055326886 -0.049678173
000030 84 59 e1 3d 23 20 4c bd 8b dc da bd 9b 6b c6 3e
       0.11003402 -0.049835335 -0.106865965 0.3875397
000040 62 53 bb bd 6c 9f be 3d 75 2c d9 bb 27 5a 3c be
       -0.091467634 0.09307751 -0.006627614 -0.18393765

linears.2.weight f4 [20, 20]
000000 91 2f fd 3d 42 7f 14 be 5a 77 f0 bd 00 9d 02 3f
       0.12362588 -0.1450167 -0.117415145 0.51020813
000010 2b 45 09 3f 09 58 86 be 98 6c 8b 3e 55 d5 0c 3f
       0.53621167 -0.2623904 0.27231288 0.5501302
000020 71 08 ec 3e 86 c4 7c be 36 fe b7 be dd f9 ff be
       0.4610019 -0.24684343 -0.35936135 -0.49995318
000030 f4 1e 0e 3e 27 bd 0e be 59 18 91 bc d4 ed 68 3d
       0.13878995 -0.13939343 -0.017711805 0.056867436
000040 68 9b 79 be e4 6b 72 3e 6c a5 0e bc b1 0f 2d be
       -0.24375689 0.2367397 -0.008706432 -0.16900517
000050 83 41 17 bf 27 1c c7 3e 1f ea 04 3e 65 1d d5 3d
       -0.5908434 0.38888666 0.12979935 0.10405997
000060 e5 91 0c be 68 66 70 be e8 a3 52 3e 0b fc 86 be
       -0.1372753 -0.23476565 0.20570338 -0.2636417
000070 39 72 4e be 8f 88 f0 3e 00 b2 5d be bb 20 a5 3c
       -0.2016076 0.46979186 -0.21649933 0.020157209
000080 ce 46 f1 be 09 7c a7 3e 6a e9 10 3d 80 4f 84 be
       -0.47124332 0.3271182 0.03537885 -0.25841904
000090 c6 5f 09 3f e1 13 37 bd 9d c2 ac bd cc f9 60 3e
       0.53661764 -0.044696692 -0.08435557 0.2197029
0000a0 a9 0f bf bd 96 f3 b8 be f0 f8 46 3f 22 13 86 3f
       -0.09329159 -0.3612334 0.777236 1.0474589
0000b0 e9 25 79 be e0 a1 85 bf ea 7c 6e 3f f6 9e be 3d
       -0.24330868 -1.0440025 0.93159354 0.09307663
0000c0 d8 4e d3 3e 4b 1b 0c bd 06 a6 db be d8 02 63 bf
       0.4127109 -0.034205716 -0.42900103 -0.88676214
0000d0 b4 e5 cd be e3 38 49 be 1b 6b d3 bd f6 ca ad be
       -0.40214312 -0.19650607 -0.10323163 -0.3394391
0000e0 d4 ac 82 3e a2 eb 6a bf 95 4e 42 bf 16 82 38 3d
       0.25522482 -0.917658 -0.75901157 0.045045935
0000f0 6b 96 cc bd f9 7c 00 3e fb 3f 36 3f 8e 27 b5 3d
       -0.099896275 0.12547673 0.71191376 0.08845435
000100 3d 4c c6 be 25 d1 1a 3d 03 00 49 bf e8 62 1f 3d
       -0.3873004 0.037797112 -0.7851564 0.038912684
000110 80 f5 fb 3e 7a e6 1f bd 52 a6 29 3a be c2 3f 3e
       0.4921074 -0.03903816 0.0006471622 0.18726632
000120 5e 13 41 3f c5 4f bd 3d da 69 29 3f 0d b3 2c 3e
       0.75420177 0.092437305 0.6617714 0.16865177
000130 bf 33 95 be 1d fd 5e bd c4 a1 9b be d9 82 0b 3e
       -0.29141042 -0.054440606 -0.30396855 0.13624133
000140 59 2b 49 bd 77 32 69 be e8 ac 89 3f 46 11 87 3f
       -0.049113605 -0.22773157 1.0755892 1.0552146
000150 8f 39 40 3e 87 2d 59 3e e3 9a 75 3f 07 82 8f be
       0.18771957 0.21208774 0.95939463 -0.2802889
000160 88 46 a8 3d 99 21 ee be 8c 90 c9 3c 62 37 7e bf
       0.08216578 -0.46510008 0.024605058 -0.9930326
000170 b6 a1 96 bf bb 31 46 be f0 3f 6c bf ae 14 c0 bf
       -1.17681 -0.19354908 -0.9228506 -1.5006311
000180 bf bd fa 3d 50 80 c3 be f8 83 2e bf 42 a7 38 3e
       0.122432224 -0.38183832 -0.6817012 0.18032554
000190 ac d5 46 3e ac c6 40 3f ce 94 83 be c7 42 1a bf
       0.19417447 0.7530315 -0.25699466 -0.60258144
0001a0 8c 33 89 3d d9 22 64 3e 1e 8d 2a bf e2 f6 c5 3e
       0.06699285 0.22278918 -0.6662158 0.3866492
0001b0 10 3a e4 be e4 e5 cd 3e 19 b9 36 3e 31 d1 59 3f
       -0.44575548 0.40214455 0.17844047 0.85084826
0001c0 da 18 0d 3f 8c 43 81 be ae c0 75 3d ac b7 8f 3f
       0.55116045 -0.25246847 0.059998207 1.1227927
0001d0 7a cc 54 be 75 40 41 3f c6 10 a5 3f 6d 7e 43 3e
       -0.20781127 0.7548898 1.2895744 0.19091196
0001e0 8b 50 83 3c 5e c8 11 3f 22 c2 18 bf 9c 16 35 bf
       0.016029617 0.5694636 -0.59671223 -0.70737624
0001f0 2b 09 20 3e f1 88 80 3e a1 25 dd be 9f 75 2c be
       0.15628497 0.25104478 -0.4319277 -0.16841744
000200 52 e5 2a bd 39 8d 4d be 4c 4f af be 3c 60 03 3f
       -0.041722603 -0.20073403 -0.34240186 0.51318717
000210 df 91 1f 3f 24 3e ea 3d eb 0f ef 3e 16 0e 98 be
       0.62331957 0.11437634 0.46691832 -0.29698247
000220 00 ba 96 be 0b 28 97 3e 27 89 07 3f 21 fa 22 be
       -0.29438782 0.29522738 0.5294365 -0.15915729
000230 0c c7 47 3e b7 c6 33 be 4e ef bd bd e9 59 6b bd
       0.19509524 -0.17556272 -0.09274159 -0.057458792
000240 dc 68 12 bf 58 00 fe bc 7f d5 a4 be fb a7 a8 3e
       -0.5719125 -0.031006023 -0.32194135 0.3294066
000250 47 70 cd 3e 5e d6 ee 3e 1e fc 18 bf cc 1d 0a 3d
       0.40124723 0.46647924 -0.597597 0.033719823
000260 62 88 81 3f bc 29 1b 3e 78 8f 82 be b5 fb 78 3d
       1.0119746 0.15152639 -0.25500083 0.06078692
000270 a9 44 9b bd e2 cd 79 3e a9 32 7b 3d 0f f5 d9 be
       -0.07581455 0.24394944 0.06132761 -0.42569777
000280 33 8b 98 3d 12 27 dc bd 38 96 6f bd 8c 97 54 be
       0.07448425 -0.107496396 -0.05849287 -0.20760936
000290 1a 5a 8e be 94 0a c0 bc 12 2e 0f bb ea c6 8f be
       -0.27803117 -0.023442544 -0.0021847528 -0.28081447
0002a0 1b 4a ff bc f9 b0 38 3f 29 e1 c5 3d e1 74 17 3f
       -0.031163266 0.7214504 0.096620865 0.5916272
0002b0 ba 7d f4 3e 4d 05 12 3d 5b 14 11 be 73 d5 1a 3f
       0.47752172 0.035649586 -0.14167921 0.6048195
0002c0 c4 34 15 be a3 84 64 3e dd 6b ae 3e 2c 87 0b 3e
       -0.1457091 0.22316222 0.34066668 0.13625783
0002d0 aa c1 1c bf da 20 26 3e 8c b0 63 be b3 0c fa 3e
       -0.6123301 0.1622347 -0.22235316 0.48837814
0002e0 08 af b4 bd 68 10 70 be 4d 26 d8 3e ad 01 4a bc
       -0.08822447 -0.23443758 0.4221672 -0.012329501
0002f0 20 c8 a6 bd aa 58 81 be bd cf 04 bf 2d 97 e0 3e
       -0.081436396 -0.25262958 -0.51879483 0.43865338
000300 a9 bb 0b be de 8c 9d 3e 7f 60 49 be 72 c1 8c be
       -0.13645805 0.30771536 -0.19665717 -0.27491337
000310 33 97 ea 3e 9f 14 11 3e e3 8d 8f be 8f 2f 16 be
       0.4581848 0.14168023 -0.28037938 -0.1466658
000320 06 a1 f4 3b e3 38 d5 3d 03 9c d0 bd 19 48 aa 3e
       0.0074654846 0.10411241 -0.10186007 0.3325813
000330 a8 20 c1 3d ba a8 27 bf c1 20 5a 3f f3 2c a1 bd
       0.09430057 -0.6549183 0.8520623 -0.078699015
000340 72 cf 07 be 6e 35 29 3e d5 f3 5b bc f6 00 0e bf
       -0.13262728 0.16524288 -0.013424833 -0.55470216
000350 3e 32 9c be ba c4 6c be 7a 46 d4 be ca e1 28 3e
       -0.30507082 -0.2312192 -0.4146002 0.16492382
000360 55 d6 38 3f 8a 78 8f 3e 9b 40 a6 3e 55 e8 af 3d
       0.72202045 0.28021652 0.32471165 0.08589236
000370 2b 95 44 be c4 0e 25 3e dc 72 8f 3e b2 ab 9b 3e
       -0.19197528 0.16118914 0.28017318 0.3040443
000380 14 ec a4 be 4c 9f bd bd 24 99 2d 3f dd c7 d3 bd
       -0.32211363 -0.09258899 0.678118 -0.10340855
000390 28 a6 e5 be 6e 83 d5 be 81 47 74 be 90 27 0c bf
       -0.4485333 -0.41701835 -0.23855402 -0.5474787
0003a0 66 16 71 bf 7a 9e 86 3d a7 53 ca bc 4c 4a fe bd
       -0.941748 0.06573196 -0.024698092 -0.12416515
0003b0 2d ad 02 3f 38 f0 26 3e 0f a1 90 3d fb b9 24 3e
       0.51045495 0.16302574 0.070619695 0.16086571
0003c0 2a 1a 3d 3f 06 86 2d be 72 91 1b bd f6 bc e8 3c
       0.7386805 -0.16945657 -0.037980504 0.028410416
0003d0 56 7f 94 bd aa ed 22 3d 6c eb 55 be 16 4a 09 bd
       -0.0725085 0.039777435 -0.20890588 -0.03351792
0003e0 9a 02 94 3c 93 e7 f6 be d3 c5 0b 3d d4 04 6f 3d
       0.018067647 -0.48223552 0.034124207 0.058354214
0003f0 20 34 62 3f c2 28 ec be 37 af 8f 3e 24 79 ad bd
       0.88360786 -0.46124846 0.28063366 -0.08470371

linears.2.bias f4 [20]
000000 c3 99 87 3d 6d c0 1e bd 76 79 2f be 57 5b 39 3e
       0.066211246 -0.03875773 -0.17136177 0.1810125
000010 fe d5 3f bd de d3 33 3e ec 25 81 3d 90 7b 9d 3d
       -0.04683494 0.1756129 0.06306061 0.07689583
000020 7e 36 9f 3d 04 a3 3e bc b3 44 e3 3c 4e ac 6c be
       0.077740654 -0.011635546 0.02774272 -0.23112604
000030 84 a7 bd 3d 51 d2 4b bd 84 bc e3 ba c1 38 ae bd
       0.09260467 -0.04976112 -0.0017374908 -0.08506919
000040 b9 08 a1 bd 0a ca 6f bd 81 00 52 3b 82 d1 39 3d
       -0.07862992 -0.05854229 0.0032043757 0.045365818

linears.3.weight f4 [1, 20]
000000 d9 2a 05 3e de 88 87 bf 5d 4e 30 bf 42 53 56 3e
       0.13004626 -1.0588644 -0.6886957 0.20930198
000010 3f 47 aa bf e4 89 fd 3f 26 4a 1b 3f 7e 98 4d 3f
       -1.3302993 1.9807706 0.60660017 0.8031081
000020 b7 26 bb 3e 24 db b0 be b4 72 e9 be 14 7f 16 bf
       0.36552975 -0.3454219 -0.45595324 -0.58787656
000030 d9 d0 9c 3e da f5 e2 be 84 45 e8 be 82 5f 57 bf
       0.30628088 -0.44328195 -0.45365536 -0.8413011
000040 70 e3 bd be 44 4b 7a bf 40 1f 36 3f a6 0c 18 3f
       -0.37087584 -0.97771096 0.71141434 0.593943

exp_avg f4 [20, 2]
000000 b7 70 14 3c a0 76 ad ba a0 3f 70 3b 9d d2 d9 b9
       0.009060076 -0.0013234206 0.0036659017 -0.00041546384
000010 8a 66 86 bb e3 f7 cb 39 c3 bb 13 bc 86 ab c1 3a
       -0.004101579 0.00038903867 -0.009016934 0.0014775849
000020 74 fb 2d 3c 9a 55 b3 b9 76 cf 46 3b cd f8 ac b9
       0.010619033 -0.0003420532 0.0030336059 -0.00032991768
000030 77 10 61 3b 03 cc 9d ba 2e df 0b bb 6b b6 88 3a
       0.003434209 -0.001203895 -0.0021342742 0.0010430341
000040 c1 d9 c6 3b fb 76 49 b9 a1 5d b1 bb 8a b4 60 39
       0.0060684388 -0.00019213177 -0.0054127728 0.00021429561
000050 26 04 30 3b 05 b0 a6 b9 9d 84 9a 3b 44 16 e9 b9
       0.0026857941 -0.00031793132 0.0047155158 -0.00044457812
000060 4b 82 74 bb 55 90 58 39 22 e5 e9 3b 21 67 bb ba
       -0.0037309106 0.00020653133 0.0071379105 -0.0014297703
000070 1b dc c7 bb bd e9 78 3a e3 f5 3f bb bd 4f 79 b8
       -0.0060992367 0.0009495279 -0.0029290847 -5.944049e-05
000080 cf fb 88 b8 1a 6a e7 39 1c c6 7e 3b 9b d5 76 ba
       -6.531888e-05 0.00044138805 0.0038875407 -0.0009415985
000090 a2 90 1c 3b c6 80 0d b9 aa 7b 5f bb 57 34 83 39
       0.0023889919 -0.0001349478 -0.003410081 0.00025025263

exp_avg_sq f4 [20, 2]
000000 72 e3 fe 3e 26 48 1c 3c f9 5b 02 3e 65 3b 20 3b
       0.49782902 0.009538686 0.12730397 0.0024449464
000010 2a 7d 03 3e ea 58 70 3b 85 e0 a4 3e de bf 34 3b
       0.12840715 0.003667409 0.32202545 0.0027580182
000020 7b 18 12 3f ee 24 2d 3c 6c 82 ac 3d d4 af d6 3a
       0.57068604 0.010567887 0.084233135 0.0016379305
000030 6b b9 ac 3d 0d 47 0d 3a 18 32 94 3c 8b b6 e3 38
       0.08433803 0.00053893105 0.018090293 0.00010858205
000040 30 18 74 3e 2e fc 75 3b dc aa 47 3e 89 44 1d 3b
       0.23837352 0.0037534344 0.19498771 0.002399715
000050 7b 00 69 3d a2 39 05 39 61 cd f4 3d e9 b4 9e 3b
       0.056885224 0.00012705338 0.119532354 0.0048433435
000060 a6 a4 07 3e 77 e6 21 3a db 04 8c 3e 22 5f 93 3b
       0.13246402 0.00061760045 0.27347454 0.0044974247
000070 23 32 f2 3d 38 58 d3 3a b3 ac 75 3d bf 3d 2b 3a
       0.11825969 0.0016124314 0.059979152 0.0006532333
000080 ba ac ff 39 4a d3 55 39 07 97 e7 3d 2b ec a0 3a
       0.0004876608 0.00020391974 0.11308103 0.0012277415
000090 28 31 00 3d f4 09 4c 3a 6b d5 ad 3d c1 26 f4 3a
       0.03129688 0.00077834656 0.08487972 0.0018627272

exp_avg f4 [20]
000000 5b 07 2a 3c df e0 b7 3b 04 22 b8 bb 14 38 00 bc
       0.01037773 0.0056115235 -0.0056192894 -0.00782587
000010 40 92 68 3c c3 c1 92 3b 65 00 19 3b a9 fd e5 b9
       0.014195025 0.0044786646 0.0023346182 -0.00043867275
000020 44 dd 09 3c 98 84 f4 bb 68 af 2a 3b 7e a5 d3 3b
       0.00841457 -0.0074620955 0.0026044492 0.006458937
000030 a1 4a a2 bb 8c 47 f3 3b f7 0d 6c bb 3d 9c 9d bb
       -0.004952744 0.0074243005 -0.0036019066 -0.004809885
000040 5b f6 0a ba 4d 0d 87 3b 06 19 2d 3b 64 b0 87 bb
       -0.0005300992 0.0041214586 0.002641262 -0.0041409004

exp_avg_sq f4 [20]
000000 3c 57 f1 3e f4 8d ec 3d 98 73 f9 3d 7b cf ae 3e
       0.47136867 0.11550513 0.12180251 0.3414267
000010 68 ed 65 3f 7c e0 67 3d b4 6a d6 3c 43 65 2b 3a
       0.8981538 0.05661057 0.026173927 0.00065382215
000020 c5 f6 b5 3e 55 5c 8e 3e 4c e9 0d 3d 30 2c 2f 3e
       0.35539833 0.2780482 0.034646317 0.171067
000030 d2 a0 97 3d d6 44 66 3e 7c 0e e5 3d ab b8 bd 3d
       0.07403721 0.22487196 0.11184403 0.09263738
000040 4d 56 28 3b 0e dc 90 3d 1e dd 23 3d c2 ef c0 3d
       0.0025686205 0.07073222 0.040005796 0.0942073

exp_avg f4 [20, 20]
000000 bc d0 23 b9 56 81 cc 36 37 36 df 38 55 14 5f 39
       -0.00015622651 6.0947305e-06 0.00010643567 0.00021274512
000010 ac 86 35 3a c0 82 c6 37 94 50 d8 b9 9f 8c e4 39
       0.000692467 2.3664325e-05 -0.00041258766 0.0004359232
000020 bf d1 3d b9 f8 55 08 39 47 6f 61 b9 a3 0e 62 b9
       -0.00018102581 0.00013001997 -0.00021499126 -0.00021558492
000030 8c 3c 4d b9 1a d0 56 b9 30 95 cc 39 ed 03 d6 36
       -0.00019572879 -0.00020486154 0.00039021065 6.378154e-06
000040 18 e7 3f 39 2e ff 14 b9 b9 20 b1 39 ae 0e 45 39
       0.00018301269 -0.00014209442 0.0003378445 0.00018792853
000050 ea c4 6b b9 62 5d 49 39 52 77 2e 39 e8 68 b3 39
       -0.00022484703 0.00019203642 0.00016638383 0.00034219702
000060 e5 e4 a5 3a 09 0a 86 39 d7 e1 5b b8 67 7c b9 39
       0.0012656717 0.00025565948 -5.2424e-05 0.00035378637
000070 8b 1f 0e ba e4 4c ed 39 9e ad 8d b9 14 7b 23 ba
       -0.00054215704 0.0004526145 -0.0002702297 -0.00062362966
000080 f8 41 36 ba c6 2a 94 b9 25 7b 76 3a 10 75 06 39
       -0.0006952579 -0.00028260628 0.0009402505 0.00012822845
000090 23 48 a9 b6 4b 29 ae b8 c3 88 43 3a 1c 36 f9 39
       -5.0449903e-06 -8.304658e-05 0.0007459039 0.00047533296
0000a0 aa c1 04 b9 c0 5a b4 b7 0c b5 93 39 68 0c eb b7
       -0.00012660646 -2.149993e-05 0.00028172915 -2.801996e-05
0000b0 78 77 98 3a 24 1d f0 37 8e 78 cd 39 a2 28 89 b9
       0.0011632284 2.86238e-05 0.00039190467 -0.0002616095
0000c0 22 36 24 ba ce 09 28 3a 75 36 3a b9 16 eb 2c ba
       -0.000626417 0.00064101524 -0.00017758629 -0.000659631
0000d0 02 9f 29 b9 a4 af ae b8 6d 10 e3 38 c6 27 d6 39
       -0.00016176331 -8.329682e-05 0.00010827263 0.00040846894
0000e0 85 93 a1 b8 0a 9f 1a 37 c2 d3 4a 3a e9 96 f3 39
       -7.704556e-05 9.2161445e-06 0.0007737243 0.0004646101
0000f0 01 97 a2 b8 96 d6 03 39 c7 c3 08 39 eb 33 6b b8
       -7.7528886e-05 0.00012573073 0.00013042903 -5.607672e-05
000100 9f 05 72 3a d7 57 38 39 c6 ce 42 3a d9 11 30 ba
       0.0009232405 0.0001758033 0.00074313243 -0.00067165267
000110 93 bb f0 b9 5b 5b fa 39 a1 f5 b8 b8 e1 8e 01 ba
       -0.0004591612 0.0004775178 -8.819556e-05 -0.000494225
000120 fd d6 82 b9 db f0 38 b8 15 0a 30 b9 c0 d4 a2 39
       -0.0002495571 -4.4093333e-05 -0.00016788424 0.0003105756
000130 39 76 39 b9 1b 28 86 38 8f ee 0c 3a b5 6a b7 39
       -0.00017687016 6.397088e-05 0.0005376124 0.00034983983
000140 e1 2f 7f 37 1f 9c ac 35 96 cc 0d 37 98 e6 24 b8
       1.5210332e-05 1.2860436e-06 8.451889e-06 -3.9315404e-05
000150 03 c4 cb 36 23 08 85 36 8a 21 dc 37 f1 a6 5a b8
       6.07269e-06 3.964656e-06 2.6241662e-05 -5.2130727e-05
000160 4d 53 01 b8 16 a4 18 38 9e f1 6c 37 02 e1 f6 b7
       -3.0833577e-05 3.639244e-05 1.4122952e-05 -2.9430263e-05
000170 70 42 db 37 76 c1 cc 37 6b d8 0b b9 4b 7e 22 38
       2.6137772e-05 2.4408782e-05 -0.00013336695 3.874143e-05
000180 3e 6f 00 b8 44 3c e0 37 82 76 c8 37 6d 3b 84 37
       -3.062118e-05 2.6730944e-05 2.3897042e-05 1.5763299e-05
000190 c4 db 43 b8 0a d8 0d b8 da 06 81 37 be dc bc 38
       -4.6696296e-05 -3.381822e-05 1.5381189e-05 9.005655e-05
0001a0 fc c3 d0 34 52 c4 24 b8 54 64 91 b9 ff d2 80 39
       3.8885617e-07 -3.9283485e-05 -0.00027731305 0.00024571267
0001b0 ee 19 20 38 b0 f1 80 b8 5d 7c 8a b8 56 94 09 38
       3.817112e-05 -6.1485334e-05 -6.603517e-05 3.2801494e-05
0001c0 b4 60 06 36 f4 2d 96 b8 33 0a 05 39 a9 1e 8e b8
       2.0023845e-06 -7.161117e-05 0.00012687668 -6.7767985e-05
0001d0 9c 60 f8 38 0c dd 9e b8 cf d2 a8 36 dc 7e fa b6
       0.000118435564 -7.5752e-05 5.0313315e-06 -7.465349e-06
0001e0 e0 b9 7d b9 ed e7 fd 39 be 8f cc 39 93 c6 e8 38
       -0.00024197204 0.0004842872 0.00039017008 0.000110996094
0001f0 e2 7f 30 3b fb 39 2b 3a 4c 0c df 3a 9a 8e 83 ba
       0.0026931693 0.0006531772 0.0017017215 -0.0010037005
000200 51 0e c8 ba 16 c6 c4 3a 50 f4 83 b9 5a a5 d9 ba
       -0.0015263056 0.0015012647 -0.00025168294 -0.0016605065
000210 32 9c a6 ba 6d 38 47 b9 4a d1 6f 3a 7d 4a 59 3a
       -0.0012711345 -0.00018999139 0.0009148313 0.00082889927
000220 4c 24 27 ba 4b ea 72 39 34 ea e1 3a 21 6d 97 3a
       -0.0006375953 0.000231662 0.0017235936 0.0011552909
000230 a6 56 b6 38 07 e2 5a b9 b1 23 03 b9 d3 f0 e6 b8
       8.694576e-05 -0.00020874302 -0.0001250643 -0.00011012112
000240 0a 45 7e ba 61 13 8f b9 ab ba f6 b9 db 29 41 39
       -0.00096996187 -0.00027289524 -0.00047059855 0.00018421507
000250 fe 1f 11 3a f9 c5 07 ba ce 44 bc 38 96 e3 1f 3a
       0.0005536078 -0.00051793415 8.9773544e-05 0.00060992816
000260 0f 3d 14 3a b5 e3 b7 38 3d 05 08 ba 14 32 83 b9
       0.00056548504 8.768534e-05 -0.0005188769 -0.00025023578
000270 75 11 75 39 6b 2d b7 b8 fe cf 23 ba 16 b1 dd b9
       0.00023371524 -8.73458e-05 -0.000624895 -0.00042284344
000280 0c 6e a5 38 64 b5 1b b9 37 3e 96 b8 c4 40 11 b9
       7.888311e-05 -0.00014849525 -7.164146e-05 -0.00013852405
000290 5f f1 1d ba 08 e0 46 b9 bb 21 5d b9 f1 be c0 36
       -0.0006025042 -0.0001896621 -0.00021088768 5.7442744e-06
0002a0 19 f1 b0 39 24 17 9c b9 e8 81 ad 38 68 5b c7 39
       0.00033748968 -0.0002977188 8.27348e-05 0.0003802434
0002b0 98 e6 dd 39 43 e8 ca 38 3d 1e 00 ba a2 34 ea b8
       0.0004232421 9.675373e-05 -0.00048873184 -0.00011167793
0002c0 d2 56 f0 38 7f c0 df b7 65 1b cf b9 2d 25 8e b9
       0.00011460263 -2.667331e-05 -0.00039502527 -0.0002711205
0002d0 dc 5c 75 b4 26 6e d9 b7 2d de 0a b5 33 c3 91 b7
       -2.2851185e-07 -2.5919708e-05 -5.1732314e-07 -1.7376244e-05
0002e0 51 5f f7 b7 ed 5e 02 b8 d3 e4 3d b8 fa fa 0e 37
       -2.948908e-05 -3.108282e-05 -4.527422e-05 8.522295e-06
0002f0 1e 3c 19 38 64 e6 00 b8 66 18 9a b6 1b 1b 2d 38
       3.653403e-05 -3.0732146e-05 -4.592398e-06 4.1271658e-05
000300 c3 be 50 38 07 15 09 36 cc fb 5c b8 27 96 1f b7
       4.9768725e-05 2.042683e-06 -5.268659e-05 -9.512099e-06
000310 d3 a1 07 38 ae 1f 88 b7 d9 bc f8 b7 72 cb e3 b7
       3.233722e-05 -1.6227215e-05 -2.9651843e-05 -2.7155245e-05
000320 b1 ce c5 37 62 de f0 b6 a6 3d 03 b8 ef bc 8f b7
       2.3580478e-05 -7.178446e-06 -3.129025e-05 -1.7134907e-05
000330 b4 04 72 b9 83 c2 6e b7 8e 82 b2 b7 34 14 4a b7
       -0.0002308067 -1.4231194e-05 -2.1280048e-05 -1.2044842e-05
000340 4a b5 9d 38 e3 5f 94 b8 a8 27 01 38 d5 b7 ac 38
       7.520111e-05 -7.07505e-05 3.079293e-05 8.2358405e-05
000350 57 a7 83 38 a7 29 c2 37 b7 eb c1 b8 8f 10 10 b8
       6.277736e-05 2.3145998e-05 -9.2468625e-05 -3.4347697e-05
000360 71 b9 62 36 44 65 ef 36 36 04 e1 b8 84 67 7c b8
       3.3784565e-06 7.134544e-06 -0.000107296204 -6.017789e-05
000370 17 75 d3 38 de ce 88 b9 6e 99 3c b9 0b c3 d8 b8
       0.00010083074 -0.0002609407 -0.00017986234 -0.00010336012
000380 88 a9 b6 ba 2f da b5 b9 2b ed 3e ba b8 93 bc 39
       -0.0013936022 -0.0003468557 -0.00072832656 0.00035968213
000390 64 d1 46 3a ea 15 3c ba 6e 81 d7 38 74 6b 59 3a
       0.0007584302 -0.00071748963 0.00010276107 0.0008293905
0003a0 62 c0 38 3a f4 24 bf 38 43 e0 10 ba b3 8f c0 b9
       0.000704771 9.114473e-05 -0.00055265817 -0.00036728158
0003b0 b7 e3 b0 39 65 36 0d b9 f5 5e 5e ba 95 58 15 ba
       0.00033738997 -0.00013467071 -0.00084827776 -0.00056970987
0003c0 51 f0 88 b8 8a 1c ee b9 97 e4 c1 b7 d9 95 2a 39
       -6.529748e-05 -0.0004541616 -2.3113838e-05 0.00016268286
0003d0 40 07 50 ba 39 9a 10 ba 0f fb f0 ba 72 b1 a8 3a
       -0.00079356506 -0.0005516145 -0.0018385368 0.0012870266
0003e0 e4 c6 41 3a 08 41 4f ba 02 1b 31 b9 c4 4e 4f 3a
       0.0007392003 -0.0007906114 -0.00016890097 0.00079081603
0003f0 08 8d 59 3a 9f 55 1e b9 9c ec f2 b9 94 b6 fe b9
       0.00082989084 -0.0001509995 -0.00046334125 -0.00048582687

exp_avg_sq f4 [20, 20]
000000 d2 ab 84 39 ba c0 51 37 cb 8f 3c 39 1d 45 8c 39
       0.00025305018 1.2502243e-05 0.00017982644 0.00026754374
000010 09 22 a4 3b d9 c5 24 37 5f 53 83 3a a3 d5 93 3a
       0.00500894 9.821227e-06 0.0010019353 0.0011278879
000020 92 3d da 39 be 7f 93 39 4c 4b f6 39 73 3f 13 3a
       0.00041626074 0.000281332 0.00046976877 0.00056170597
000030 30 12 7b 39 04 bd b9 39 9f 96 5c 3a 76 d8 fd 37
       0.00023944 0.00035426777 0.0008414778 3.0260748e-05
000040 c2 28 9c 39 28 18 49 39 7f 36 bd 3a b2 03 db 39
       0.00029785006 0.00019177853 0.0014435797 0.00041773688
000050 c0 d4 03 39 af a1 6d 39 e8 08 83 39 10 0b 05 39
       0.00012572389 0.00022662313 0.00024992903 0.0001268799
000060 f8 b3 32 3c b9 e3 d8 39 0b 4d ae 3a 65 f2 42 39
       0.010907166 0.00041368397 0.0013298107 0.00018591581
000070 24 aa 38 3b 52 7d 25 3b d2 eb 3c 39 86 67 60 3b
       0.0028177584 0.0025251699 0.00018016927 0.0034241392
000080 a7 28 12 3b 1a 36 0c 39 07 a7 15 3b 7e fa 23 3a
       0.0022302063 0.00013371595 0.0022835152 0.0006255283
000090 99 75 63 39 7e 84 b9 37 f1 c3 87 3b f9 af dc 3a
       0.00021692216 2.2115415e-05 0.004143231 0.0016837112
0000a0 b2 83 51 39 5d 04 16 38 63 61 26 3a d6 2c 77 35
       0.00019980854 3.576685e-05 0.0006346909 9.2079915e-07
0000b0 55 3e 22 3c 8a 0a ed 36 6d 81 9f 38 44 45 11 38
       0.009902556 7.0643773e-06 7.605818e-05 3.4635203e-05
0000c0 d1 35 19 3b ba 77 22 3b 33 13 e7 39 a5 13 2b 3b
       0.0023378024 0.00247906 0.00044074058 0.0026104238
0000d0 76 bc 4a 37 c2 d3 10 39 7d d5 b1 37 ab cf 8d 3a
       1.2084018e-05 0.00013811796 2.1199457e-05 0.0010819336
0000e0 0c 08 df 37 75 38 06 38 42 96 85 3b 0d 24 b6 3a
       2.6587419e-05 3.200067e-05 0.00407675 0.0013896242
0000f0 36 a3 b8 37 f3 16 f4 38 3c c6 0e 3a 86 dd cb 39
       2.201051e-05 0.00011639101 0.00054464093 0.00038884225
000100 9c e6 a8 3b ff 58 c8 38 32 fe 07 3b d2 2e 01 3b
       0.005154444 9.55332e-05 0.0020750877 0.0019711745
000110 af 93 1d 3b 5c ef 44 3b aa 96 9a 38 cb 07 22 3b
       0.0024044325 0.0030049896 7.3713556e-05 0.0024723883
000120 92 ae f5 39 c3 71 93 37 81 c3 fa 3a e3 6f ef 3a
       0.00046860107 1.757674e-05 0.0019131751 0.0018267598
000130 2b 24 db 38 4d 5d 05 38 8b 7d 3e 3b 88 a1 90 3a
       0.000104494706 3.1796564e-05 0.0029066529 0.0011034468
000140 5b 71 51 35 52 39 2c 36 8b 35 61 36 f7 60 3e 37
       7.802352e-07 2.5663362e-06 3.3558779e-06 1.1347459e-05
000150 f7 d8 19 37 e3 6d 40 36 23 8e 91 38 23 98 7a 38
       9.170027e-06 2.8674192e-06 6.940614e-05 5.9746333e-05
000160 ec f8 af 37 2e dd 01 38 75 34 a5 35 9a b9 a4 37
       2.0977539e-05 3.0961986e-05 1.2308725e-06 1.9636751e-05
000170 ea b0 5f 37 b9 87 58 36 8e 2d 42 38 58 66 c5 37
       1.3333027e-05 3.226551e-06 4.629563e-05 2.3531888e-05
000180 99 68 2d 37 9e 9c 97 36 ff ad 55 37 de 3f d7 36
       1.0335957e-05 4.5183833e-06 1.2736301e-05 6.4149344e-06
000190 bb f8 1d 38 f4 9d 55 37 cf be 96 36 6d 1e 95 38
       3.7663365e-05 1.2732566e-05 4.4925614e-06 7.110541e-05
0001a0 1c 53 58 39 23 51 91 37 d6 32 5c 3a 8c 9f 28 3a
       0.00020630326 1.732313e-05 0.0008399909 0.0006432466
0001b0 02 82 e6 37 67 2b 42 38 37 ac 97 38 58 08 d5 37
       2.7478676e-05 4.6293626e-05 7.2323186e-05 2.5395464e-05
0001c0 ef f5 5c 37 60 14 91 38 c9 b2 ea 38 83 09 2f 38
       1.3170283e-05 6.917934e-05 0.00011191291 4.173211e-05
0001d0 c3 61 32 39 c9 2f a3 38 94 f8 d3 37 5c 2e e1 36
       0.00017011822 7.781346e-05 2.5268913e-05 6.7109195e-06
0001e0 4d 2e 14 39 7f 4c 2f 3a 09 90 b9 3a b1 31 63 3a
       0.00014131628 0.0006687119 0.0014157306 0.00086667674
0001f0 61 c1 09 3d ac c1 a8 3a 84 01 97 3c 80 30 26 3c
       0.033631686 0.0012875102 0.01843334 0.010143399
000200 e1 fa 6f 3c 1d e6 80 3c 49 23 35 39 89 4a 86 3c
       0.014647217 0.015734727 0.0001727465 0.016392963
000210 6d 41 a5 3b 83 1c 66 39 9b af 8c 3b 94 6a dc 3b
       0.0050431998 0.0002194513 0.0042933947 0.0067265723
000220 3d 7d 21 3b 9a a8 29 3a f7 00 87 3c 79 2a eb 3b
       0.0024641298 0.0006471962 0.016479952 0.007176694
000230 7c b9 b7 37 45 e6 fd 38 1e ba 03 39 65 c2 9a 38
       2.1901673e-05 0.00012106871 0.00012562468 7.379501e-05
000240 32 55 88 3b fa 4d 68 39 e1 53 0c 3b 3b d8 82 3a
       0.0041605467 0.00022154293 0.00214123 0.0009982655
000250 d4 3d dc 3a d5 a9 df 3a 5a 65 ce 37 44 6d fd 3a
       0.0016803094 0.0017064164 2.460431e-05 0.0019334932
000260 42 b3 69 3a 81 51 fe 37 b6 b9 30 3a a0 91 24 3a
       0.0008914956 3.0317113e-05 0.000674154 0.00062778033
000270 00 c3 ab 39 a2 4a a7 38 ac 95 fc 3a 36 ae 60 3a
       0.00032760948 7.977082e-05 0.001927068 0.00085708813
000280 5c b3 12 37 0f ea 55 38 bf 91 3c 38 e3 b2 a5 37
       8.7440385e-06 5.100114e-05 4.495843e-05 1.9752833e-05
000290 ef 4b d9 3a 61 32 c1 38 79 32 54 3a 88 57 b6 39
       0.0016578416 9.212341e-05 0.0008094679 0.0003477896
0002a0 5b 86 27 3a be 54 26 3a 7d 86 25 37 2d 17 43 3a
       0.0006390565 0.0006345025 9.866079e-06 0.0007442113
0002b0 05 81 c5 39 3f 84 29 37 7f ff 8a 39 54 53 64 39
       0.00037670895 1.0103976e-05 0.0002651177 0.00021774817
0002c0 43 8b 02 39 2b ce ef 37 ea bf 44 3a 9f 3d ae 39
       0.00012449645 2.8587025e-05 0.0007505404 0.00033233778
0002d0 d1 8b d6 36 65 c0 1c 38 02 bc a2 36 5a ac 8c 37
       6.3939738e-06 3.737248e-05 4.849863e-06 1.6769558e-05
0002e0 52 ca a3 39 44 70 5b 38 b3 ea 1b 39 cf 6d 34 38
       0.00031240523 5.2318224e-05 0.00014869384 4.301761e-05
0002f0 c5 58 b2 38 a5 f9 85 38 81 66 3b 37 a6 30 ea 38
       8.504236e-05 6.388434e-05 1.1169935e-05 0.00011167051
000300 69 07 5d 39 4d b6 1c 37 99 01 7a 39 eb 3f eb 36
       0.00021078963 9.34077e-06 0.00023842453 7.010987e-06
000310 55 80 35 38 bd 02 3f 37 22 ab ef 38 37 b1 60 38
       4.327328e-05 1.1385125e-05 0.00011428284 5.3570806e-05
000320 88 92 02 37 b3 59 85 35 e5 58 fd 36 bd 4e 16 37
       7.782721e-06 9.935378e-07 7.5503362e-06 8.959029e-06
000330 2b 02 8f 39 14 5f 11 36 55 c6 8e 36 7a 01 83 37
       0.000272767 2.1662026e-06 4.2550187e-06 1.5617105e-05
000340 05 4f 1c 38 96 f4 f8 37 b7 a3 62 37 6a 33 47 38
       3.726689e-05 2.9677798e-05 1.3508768e-05 4.749318e-05
000350 73 0b ec 37 b7 18 2e 37 6c 98 62 38 02 91 b7 36
       2.8138724e-05 1.0376963e-05 5.4024553e-05 5.470706e-06
000360 a0 b7 f4 35 66 d8 25 36 85 f5 b0 38 d3 aa ed 37
       1.8232859e-06 2.4712876e-06 8.4380656e-05 2.8332148e-05
000370 e5 6b ac 38 0c 1a 85 39 fd 6c cb 39 c0 53 a6 39
       8.221696e-05 0.00025387143 0.0003880038 0.00031724386
000380 73 23 1e 3c 97 c4 de 39 57 5c 4e 3b bf 24 e5 3a
       0.009652006 0.0004248961 0.0031488144 0.0017482265
000390 84 4d 67 3b 6f 8c 6b 3b 27 78 e4 38 5b 17 85 3b
       0.0035294006 0.003594186 0.00010894267 0.004061622
0003a0 ca 16 04 3b d2 5c df 38 14 74 16 3b 0d 1f bd 3a
       0.0020155185 0.00010650758 0.0022957372 0.001442881
0003b0 da bd c3 39 0b 5c 9a 38 c0 e2 91 3b c8 fd f7 3a
       0.0003733475 7.3604366e-05 0.0044520795 0.0018920237
0003c0 69 70 97 39 92 7b 4f 3a 25 37 6d 38 f7 8c bc 3a
       0.00028884716 0.0007914837 5.655656e-05 0.0014385273
0003d0 f7 d9 14 3b b6 e9 96 3a 92 dd 8f 3c 23 ee 3f 3c
       0.0022712925 0.0011513743 0.017561708 0.011714491
0003e0 d4 1c 50 3b 7a 85 7e 3b d7 ab 06 3a 9c 18 5e 3b
       0.0031755464 0.0038836882 0.00051373005 0.003388918
0003f0 13 14 60 3b 94 4f 49 3a 0d 44 a4 3b 4e 64 12 3b
       0.0034191653 0.00076793996 0.005012995 0.0022337618

exp_avg f4 [20]
000000 9d 2e 51 ba b2 89 29 bb 17 2c ef ba 85 68 f3 ba
       -0.0007979663 -0.0025869426 -0.0018247393 -0.0018570578
000010 ee cf 9c b8 fd 99 08 39 1e e2 ce bb 56 d4 1d 3b
       -7.4773896e-05 0.00013027336 -0.0063135764 0.002408286
000020 02 fa d1 3a d0 e4 5f 39 50 60 84 39 3a c5 4e 3b
       0.0016019943 0.00021352177 0.0002524876 0.0031550662
000030 ac 52 64 3b 6a a1 d1 b8 f2 3f 2f 3a 1f 56 54 3b
       0.0034839315 -9.995962e-05 0.0006685249 0.0032399965
000040 d7 3c f8 ba ef 8d eb 3a f1 96 e3 3a 4c b0 02 bb
       -0.001893903 0.0017971377 0.001736371 -0.0019941507

exp_avg_sq f4 [20]
000000 ea 4f ca 3b d6 5a 3e 3d 56 96 94 3c 26 1c 6d 3c
       0.0061740773 0.046473347 0.018138092 0.014472043
000010 cf 99 f3 38 9a f4 b0 39 05 58 35 3e 2c 35 c3 3c
       0.00011615792 0.00033751578 0.17709358 0.023829065
000020 82 74 1b 3c 65 08 19 3b 61 bd 1a 3a ba 83 45 3d
       0.009488227 0.002335095 0.00059028534 0.048221327
000030 84 3f 4b 3d bf 15 46 39 82 e6 a1 3a 36 4c c7 3d
       0.04962112 0.00018890853 0.0012352022 0.09731333
000040 f7 72 58 3c fb 64 8b 3c de 22 9f 3c 4d 1f 84 3c
       0.0132110035 0.017015925 0.019425806 0.016128207

exp_avg f4 [20, 20]
000000 57 c8 29 38 01 11 14 b9 af f1 45 b6 4f ea ad 37
       4.047932e-05 -0.00014120714 -2.9495966e-06 2.0732316e-05
000010 c7 92 c1 37 5b 81 a4 37 bc 39 35 37 cf 95 e2 b7
       2.3075741e-05 1.961056e-05 1.0801883e-05 -2.701106e-05
000020 95 ce 81 b7 52 41 08 38 8b f0 f9 37 ef 85 78 38
       -1.5474196e-05 3.248576e-05 2.9795125e-05 5.9252543e-05
000030 95 1d fc b6 36 b4 2d b8 1f 4b cf b7 e9 36 05 36
       -7.513629e-06 -4.141425e-05 -2.4711304e-05 1.9850506e-06
000040 6b 14 a6 36 62 5e 86 36 da ed f8 b8 cf 91 bb 37
       4.9495625e-06 4.004499e-06 -0.00011869865 2.2360035e-05
000050 9b ae 7f b9 35 1d 19 3a 77 19 81 b9 8e 70 72 ba
       -0.0002438374 0.0005840839 -0.0002462377 -0.00092483393
000060 40 6b 48 b9 99 c1 df b8 35 d5 64 b9 ec b6 85 b9
       -0.0001911344 -0.00010669529 -0.000218232 -0.00025504024
000070 cb 87 83 b9 d1 54 b0 b9 9c f6 36 39 08 c7 45 3a
       -0.0002508744 -0.0003363253 0.00017448742 0.00075446116
000080 00 05 2a b9 ff 6c c0 39 a9 63 d3 39 d9 f8 93 b9
       -0.00016214326 0.00036702302 0.0004031931 -0.0002822343
000090 34 84 35 39 71 4f 1b b7 9f 01 da 39 d0 ee 49 3a
       0.00017310755 -9.257216e-06 0.00041581408 0.00077031273
0000a0 ca b7 b4 37 73 8c 08 3a ca 81 87 b9 91 2c 80 b9
       2.1543256e-05 0.0005208917 -0.00025845907 -0.00024447267
0000b0 14 c5 d4 37 98 e1 bb 38 55 51 13 b8 e4 0a b9 b7
       2.5364141e-05 8.958875e-05 -3.5123277e-05 -2.205879e-05
0000c0 f8 de 37 b9 2a 61 96 37 48 f6 b1 38 3e 6d 49 39
       -0.00017535302 1.7926639e-05 8.485891e-05 0.0001920955
0000d0 25 4e 4a 38 d4 0c a5 36 00 94 fc 37 17 0a 7e b9
       4.823333e-05 4.9188766e-06 3.0109659e-05 -0.00024227086
0000e0 0d 6d 28 b7 4f c2 60 39 d1 22 08 3a 22 1a 8d 38
       -1.0038971e-05 0.0002143469 0.00051931763 6.7282715e-05
0000f0 ae fd 47 38 27 f3 9c b8 7e 7e ef 36 20 92 75 37
       4.7681555e-05 -7.48395e-05 7.1374807e-06 1.463716e-05
000100 3a a3 14 38 70 d1 a2 37 90 cd 31 37 e6 05 65 b8
       3.5437966e-05 1.9409432e-05 1.0597883e-05 -5.4603348e-05
000110 02 3c 67 37 77 21 76 b7 1e fd 46 38 1a 17 39 b7
       1.3782645e-05 -1.4670534e-05 4.7442612e-05 -1.1032238e-05
000120 aa da 1b b7 91 6e 25 b8 6d 03 ad b7 0e d0 ed 37
       -9.289632e-06 -3.944204e-05 -2.0624802e-05 2.8349485e-05
000130 3f cf ce b6 c2 fc 98 b7 42 54 ac b8 b1 0b d9 b7
       -6.163405e-06 -1.8237512e-05 -8.217293e-05 -2.587386e-05
000140 ca f4 46 ba aa c6 97 3a 9e ee e6 ba b2 a8 a9 ba
       -0.0007589577 0.0011579592 -0.0017618721 -0.0012943952
000150 4b 80 ff b9 b1 3d e0 b9 8d 56 e0 b9 75 9e e3 b8
       -0.00048732976 -0.00042770573 -0.00042789095 -0.000108537184
000160 08 63 2f b9 88 57 11 ba 72 a5 f7 b8 5c 79 80 3a
       -0.00016726193 -0.0005544354 -0.000118086944 0.0009801793
000170 6f b3 97 b9 eb 0c 4e 3a f7 d4 6b 3a 91 6b 62 ba
       -0.00028934653 0.00078602013 0.0008996273 -0.00086372445
000180 ae fb 10 39 af 8a 03 b9 19 b8 73 3a 35 56 8d 3a
       0.00013826668 -0.00012544797 0.0009297147 0.0010783138
000190 da 1d 67 ba dc 57 2d ba 84 53 0b 3b 0e 3b b0 3a
       -0.0008816399 -0.00066125183 0.0021259496 0.0013445334
0001a0 a8 aa e6 b9 2b 94 25 39 6c a8 9f 37 5d 08 79 3a
       -0.00043996167 0.00015790823 1.9032705e-05 0.00094998424
0001b0 d2 b4 7d 38 f0 3f 41 3b 07 e4 3a ba ec 7b 03 ba
       6.0488303e-05 0.0029487573 -0.00071293156 -0.0005015719
0001c0 7c b9 d7 3a a3 2f 94 3a 9e 5d 9d b9 44 5b 29 ba
       0.0016458477 0.0011305701 -0.00030015124 -0.0006460438
0001d0 82 0b 2d 3a 85 f7 9f 3a 7f 98 72 b9 98 0e 42 3a
       0.0006601141 0.0012204504 -0.00023135728 0.00074026873
0001e0 3f 1b a7 38 d8 4f 8a ba 85 88 f9 b9 59 c7 0c 39
       7.9682555e-05 -0.001055236 -0.00047594696 0.00013425703
0001f0 72 3c a8 38 a6 04 1c b9 ad 3a b7 38 76 3c f4 37
       8.022123e-05 -0.00014879051 8.737049e-05 2.9115221e-05
000200 b7 e3 cd 39 42 d2 0a ba a9 a4 f3 b8 c8 4b a7 b9
       0.00039270308 -0.0005295613 -0.00011617813 -0.00031909184
000210 7c 6f ae b9 31 19 87 b9 e3 cb 1e b7 fc a3 db b9
       -0.00033270929 -0.00025767976 -9.465005e-06 -0.00041893113
000220 e2 53 47 b9 e0 ad 07 ba 2f e0 83 ba 19 e7 04 ba
       -0.00019009368 -0.00051757507 -0.0010061319 -0.00050698366
000230 a3 b5 bb 37 8c f3 d4 37 4e fa 95 b9 40 55 6f 39
       2.2376718e-05 2.538578e-05 -0.00028605986 0.00022824574
000240 97 6a 2d 39 b8 50 35 37 c1 0b bb 38 0a fe 28 b8
       0.00016538273 1.08072345e-05 8.919044e-05 -4.0290914e-05
000250 9c 7a 53 39 f9 e6 0d ba d4 95 1f 37 66 fc bd b9
       0.00020168204 -0.0005413141 9.512023e-06 -0.0003623694
000260 6e 23 41 b9 8a 91 10 b9 3e a1 83 b8 92 16 c8 b8
       -0.00018419113 -0.00013787128 -6.2766005e-05 -9.540947e-05
000270 76 2f 79 b9 e1 8b 43 b9 97 57 10 b8 18 88 f5 b9
       -0.00023764171 -0.00018648758 -3.441385e-05 -0.0004683144
000280 a7 6a bf b8 08 3f 56 b9 3d 6c 45 38 ee 7c 8a 38
       -9.127455e-05 -0.00020432111 4.7069265e-05 6.603623e-05
000290 cb 71 11 b8 d0 aa 02 b7 d8 b0 2c b7 81 0a af 38
       -3.4676672e-05 -7.788374e-06 -1.0293174e-05 8.346607e-05
0002a0 96 0e 8b 38 c7 be bb 38 47 b2 8b b8 94 3a b1 b8
       6.630753e-05 8.95239e-05 -6.661243e-05 -8.450929e-05
0002b0 d6 29 df 38 fb c9 d4 38 42 59 47 37 5a 8c d7 b8
       0.00010641261 0.000101465695 1.1882106e-05 -0.000102781414
0002c0 db 81 df 37 73 ed ab 37 6e d5 28 b9 9d e6 e5 37
       2.664414e-05 2.049536e-05 -0.00016101237 2.7406315e-05
0002d0 05 57 ea 37 1b ce d5 39 c9 58 83 39 ed ef 2a b9
       2.7935495e-05 0.00040780086 0.00025052417 -0.00016301843
0002e0 77 7b 31 37 5f 17 8c 38 28 e0 a6 b7 69 e9 ad b8
       1.05787685e-05 6.6800734e-05 -1.9893123e-05 -8.292759e-05
0002f0 f1 8b 2b b9 e7 85 b1 38 b3 7c ed 38 4f 50 59 39
       -0.00016359963 8.464959e-05 0.00011324268 0.0002072465
000300 a8 0a 09 38 31 b9 03 38 32 c8 a8 b6 4d 85 6b 39
       3.267327e-05 3.1405307e-05 -5.030096e-06 0.00022461005
000310 d1 f1 77 38 4c 3b 1c 39 a5 62 bc 39 3c 50 65 39
       5.9114598e-05 0.00014899409 0.0003593165 0.00021869031
000320 57 34 e1 38 8a d5 0c 3a 82 4c 81 38 ee 9c 53 b8
       0.00010738585 0.0005372396 6.16545e-05 -5.0452472e-05
000330 4d 92 54 38 e8 9d ba 38 d3 94 bc b7 d8 9d 00 b9
       5.0680992e-05 8.8985835e-05 -2.2480648e-05 -0.00012265833
000340 c4 63 6b b9 02 19 ec b7 47 c2 24 39 39 c4 75 39
       -0.00022448512 -2.8145038e-05 0.00015712633 0.0002343812
000350 51 df ee b7 19 0c 5f b8 8d fb 16 b8 19 2e 05 b9
       -2.84758e-05 -5.317861e-05 -3.599706e-05 -0.00012701041
000360 0e f1 24 37 e3 bd 15 39 a0 0b f4 39 8f 4b 25 39
       9.831287e-06 0.00014280486 0.00046547968 0.00015763774
000370 7c 5a f8 b7 49 a8 0a 3a 4a 40 a7 37 40 fd e4 b9
       -2.9606039e-05 0.00052893587 1.9937888e-05 -0.00043676235
000380 6f 73 e9 b7 14 66 32 38 97 66 71 b8 16 93 01 b9
       -2.7829517e-05 4.2533575e-05 -5.755442e-05 -0.00012357192
000390 31 f2 61 b9 3a 12 a3 38 a9 ca f7 38 83 dd c3 39
       -0.00021547895 7.775841e-05 0.00011815626 0.00037358337
0003a0 94 5c e3 37 14 27 d2 38 94 bb b5 38 67 31 f7 b8
       2.7103619e-05 0.00010020859 8.665692e-05 -0.0001178708
0003b0 3c 27 e4 38 ba cb 34 39 c3 fb fc 39 47 29 b5 39
       0.00010879195 0.00017242032 0.00048252763 0.00034553764
0003c0 8c c0 b9 b7 ae a0 90 b9 88 c9 03 37 ea f9 84 39
       -2.214338e-05 -0.00027585536 7.855131e-06 0.00025363202
0003d0 28 49 9f b5 64 04 c9 b7 07 9d 22 38 c9 03 f3 38
       -1.1867714e-06 -2.3963112e-05 3.8770053e-05 0.00011587848
0003e0 be 56 03 39 d7 06 16 39 35 eb f7 b8 bd 6c 7a b9
       0.00012525448 0.00014307663 -0.000118216885 -0.00023882366
0003f0 8f d2 93 38 da 1f 33 b7 98 d2 56 b8 77 cb 36 b7
       7.048726e-05 -1.0676647e-05 -5.1217707e-05 -1.0895418e-05
